trained_models/run08.pth (torch, 207943 bytes, 14 tensors)

model.0.weight f4 [48, 1024]
00000000: 2c90 a03c 31e9 f13c 940a 4cbb 0753 f73a
00000010: b7c6 b5bc 9cbe 8e3c 82b7 acbb b9cc de3c
00000020: 1043 f93c 6b72 13bc a1ea 693c 7423 143d
00000030: 24c8 f73c 5c7b 7bbb 4eac 223d 6fa9 91bc
00000040: f68f 443c bc84 b3bc 9bf5 bebc 9ea8 a6ba
00000050: 1ef0 07bd 2c24 2f3a 237f 0bbc e931 ce3c
00000060: 203b 243c 259c 8cbc 45d6 eb39 00fd a8bc
00000070: 7508 1cbc a77f 2ebd c73d 8a3c 5c81 a3bc
00000080: b8e7 8f3c bbea 0b3c f322 44bc 7a26 283c
00000090: 942e b83c cbdd 273b ea7a 64bc 253b 6ebb
000000a0: 76c4 1dbc 2afa 80bc 1fc4 d6bb ba87 623c
000000b0: 28a8 3c3c 7d06 c8bc 6c74 4b38 9182 253c
000000c0: 39c9 e03c 78f6 983b bef7 85bc 0465 f1bb
000000d0: 6568 d6bc 8169 2b3d 3859 70bc a5b8 083d
000000e0: f69d 04bc 70cf f8bb 03b2 333c 2fda d7bc
000000f0: 680a 0e3d bc81 51bb 82a6 003c bde9 8ebc
00000100: 160b 253b a51a b63b 8c58 193d 1687 cfbc
00000110: 2ad9 69bc 02e5 85bb 6b60 233d e32b 1f3b
00000120: 312a 0e3d ae33 d2bc f45f f0bc 94c4 bcbc
00000130: 93e4 c2bc c6ec 5cbb 7596 a7bc b79f 683c
00000140: c890 663c b61b 05bc 690d dc3c 9bf7 0bbd
00000150: 6c26 8a3c 676b c4bb 03b1 803c bb03 f0bb
00000160: b5a9 163c 4c40 313c 7415 36bb 6628 cabb
00000170: 9e10 573d 5967 8cbb 4151 1cbd 8833 c0bc
00000180: 2584 673c e896 a2bc d680 5cbc c48a 15bd
00000190: 1b9f 7dbb 6888 933b 7661 133d b2a4 bd3b
000001a0: 53b2 14bc 75d2 28bd 0a4b b5bc 0f74 fe38
000001b0: adc7 4dbc 0365 04bd 0c20 c43c 8344 3fbd
000001c0: dbda 66bc db2c 13bc a3ec 8bbc d4ff a03b
000001d0: 79fc 2f3a a31c 85bd acf6 303c 4893 703a
000001e0: 40e7 873c 3520 393b 100c adbb 8640 adbc
000001f0: 9235 8fbc 6059 1e3c 10e2 3dbb af82 b43a
00000200: 56c5 e73c ef22 813c dac5 333c adbb acbb
00000210: ec7d 7e3b b0f1 6f3b 834c 64bb dd57 a03c
00000220: 9a9b e3bc 1852 28bd acd5 e83a ed36 b9bc
00000230: f3b1 663c ed55 02bb 2c89 5a3c b6b5 96bb
00000240: f3be 42bc bb68 5f39 b752 9d3b 4bd5 96bb
00000250: 0943 e93c 5f74 23bc cd47 313c d175 1d3b
00000260: 37ad 7b3a 538d 11bc abf4 913b a978 99bc
00000270: 5870 4d3d c475 823b 4001 b13b 749d 76bc
00000280: 9b9b 393c a5d5 1ebc 354b 623c aadd 73bd
00000290: 8e6b 57bb 0443 9ebc 470b 963c 8f93 f2ba
000002a0: 0737 f0bc b338 9ebc bd91 03bd 2770 dfbb
000002b0: 8487 823c c221 cebb 8678 8bbc 091c 93bc
000002c0: 22f6 5fbc 304e fd3c 9654 ab3c 4a2e b7bc
000002d0: 4b84 df3c 7187 5d3c 2af3 74bb a5f4 34bb
000002e0: bdcf 313c b686 71bb 8884 a63c ea6f 493c
000002f0: c172 acbb 4693 7c3b 9b30 a2bb 4d42 02bc
00000300: 4036 603b bf1d f33c 562e c6bb cf92 2abd
00000310: 29ad a03b 5d49 863b 6111 a13c 2cfb 2ebc
00000320: 03be 11ba 7a1c 34bc 3366 0c3d ccb0 893c
00000330: 3c51 a0bc 4281 5fbc a294 f0bc 8d4d 74bc
00000340: 4628 d83c ef6c c6bb 47cb 963c 3034 1d3d
00000350: 4ae9 bdbc d1f9 07bd e4e0 453b 095d a83c
00000360: 4830 e03c c1ce 603c 6f75 023d 7bdf 943a
00000370: c78a 36bd d4fc 4e3c cd61 33bc cf70 8fbc
00000380: 0dff aabb 905e 063d 9da0 d63b aa61 e63b
00000390: 89a7 57bd 030c 75bb 5d0a 1cbd 6e38 183d
000003a0: 61d7 923b fc98 a13c c915 9b3b 151a 28bc
000003b0: 7c47 a63c 74fa 25bc 8b34 cfbc 6ca8 00bd
000003c0: 3530 833b 1d3c 393c 8116 8fbb 10da e13c
000003d0: a88a 9fbc f757 edbc 03e9 98bc 4fef 5a3c
000003e0: 38d9 dcbc 7006 c43a 2f0c aa3b 97a4 1bbd
000003f0: 628e 2b3c 2baa 09bd 642d b23b 2aa2 9abc
0.019599997 0.02953014 -0.0031134235 0.0018869349 -0.022189481 0.017424874 -0.0052708993 0.027197229
0.030427486 -0.008999447 0.014277131 0.036166623 0.030246802 -0.0038373088 0.039715104 -0.017780988
0.011997214 -0.021913879 -0.023310473 -0.0012715047 -0.033187978 0.000668111 -0.0085141985 0.025170283
0.010023862 -0.0171643 0.00044982336 -0.020628452 -0.009523501 -0.042602208 0.01687516 -0.019959144
0.017566547 0.008539851 -0.011971223 0.01026308 0.022483148 0.0025614377 -0.013945321 -0.003635117
-0.0096293595 -0.015744288 -0.006554141 0.013826305 0.011514701 -0.024417156 4.8507398e-05 0.01010193
0.0274397 0.0046680532 -0.016353484 -0.0073667783 -0.026172826 0.041848663 -0.014669709 0.033379216
-0.008094301 -0.007593088 0.010967734 -0.026349155 0.034677893 -0.0031968197 0.007852199 -0.01744544
0.002518361 0.0055573755 0.03743796 -0.025332969 -0.014272967 -0.0040861377 0.039886873 0.0024287633
0.034708206 -0.025659408 -0.029342629 -0.023042955 -0.023790633 -0.0033710464 -0.020457486 0.014198235
0.0140726045 -0.008124283 0.026861863 -0.03417168 0.016864024 -0.0059942487 0.015709406 -0.0073246635
0.009195735 0.010818552 -0.0027783783 -0.0061693667 0.05250608 -0.004284781 -0.038163427 -0.023462072
0.014130627 -0.019847348 -0.013458451 -0.03650929 -0.003869957 0.004502345 0.035981618 0.0057874555
-0.009075719 -0.041216332 -0.022130508 0.000121332814 -0.012559813 -0.032322895 0.023941062 -0.046696197
-0.014090265 -0.008982862 -0.01708061 0.0049133096 0.00067133416 -0.06499603 0.010800999 0.000917722
0.01658976 0.0028247957 -0.005280979 -0.021148931 -0.017481599 0.009664863 -0.0028973855 0.0013771857
0.02829234 0.015763728 0.010972464 -0.005271396 0.003883238 0.0036612563 -0.0034835644 0.019573146
-0.027784158 -0.041093916 0.0017763874 -0.022609198 0.014080512 -0.0019887642 0.013338368 -0.0045992984
-0.011886346 0.00021305952 0.00480112 -0.004603063 0.028474348 -0.0099764755 0.010820341 0.0024026523
0.0009600701 -0.008883792 0.0044542155 -0.018734293 0.050155967 0.003981324 0.0054017603 -0.015052188
0.011328603 -0.0096944915 0.013811876 -0.059537567 -0.0032870504 -0.019319065 0.018315924 -0.0018507111
-0.029323114 -0.019314146 -0.03212141 -0.0068187895 0.01593376 -0.0062906453 -0.017025243 -0.017957704
-0.0136695225 0.030921072 0.020914357 -0.02236094 0.027284762 0.013521061 -0.0037376382 -0.002761164
0.010852751 -0.0036853976 0.020326868 0.012294749 -0.005262703 0.003853993 -0.004949642 -0.007950378
0.0034212023 0.02967727 -0.006048004 -0.041643914 0.004903455 0.004098101 0.019661607 -0.010680001
-0.0005559625 -0.0109931175 0.034277152 0.016807936 -0.019569986 -0.013641657 -0.029367749 -0.014911068
0.026386391 -0.0060554664 0.018407477 0.038379848 -0.02318253 -0.033197228 0.003019386 0.020552175
0.027366772 0.013721169 0.031850275 0.0011358106 -0.044565942 0.012633521 -0.0109486105 -0.017509846
-0.0052183927 0.032805026 0.0065499083 0.0070306854 -0.05265001 -0.0037391193 -0.03809582 0.03716319
0.0044812416 0.019726269 0.0047328216 -0.010260125 0.020297758 -0.010130513 -0.02529361 -0.03141062
0.0040035495 0.011305836 -0.0043666963 0.0275698 -0.019475296 -0.028972609 -0.018665796 0.01336272
-0.026959047 0.0014955532 0.0051894407 -0.037998762 0.010470958 -0.03360955 0.00543754 -0.018876154

model.0.bias f4 [48]
00000000: bcdd e9b8 1c06 d737 cb54 aeb8 41ad 46b9
00000010: ce8c 74b8 0003 34b9 f0d5 fa36 bb4a 65b8
00000020: 9a92 af38 319b 02b9 b83e 9238 2ca4 1b39
00000030: e101 7336 1c2d 1539 582e 0e38 24a2 9138
00000040: 5941 c4b7 099c 79b8 b191 30b7 617b 9138
00000050: 844b 8fb8 c3c8 ba38 d35b a738 3a34 dfb7
00000060: b384 bc38 0a84 f337 1ce8 03b9 ddb9 fab8
00000070: 3b22 53b8 4359 8938 100b 0439 a22d 8ab8
00000080: 847e f937 d3c3 a3b7 2b40 05b9 298e 29b8
00000090: 7c4f 95b8 b0e4 3235 a504 4438 f23a 5fb8
000000a0: a5bf 7ab8 a9d1 aeb8 f0b6 8338 cf8b 1437
000000b0: b31b fd38 ae9a 5db8 54e9 86b7 d179 55b8
-0.00011151607 2.5632842e-05 -8.3127605e-05 -0.00018947294 -5.8305268e-05 -0.00017167255 7.475486e-06 -5.4667453e-05
8.371957e-05 -0.0001245558 6.973505e-05 0.0001484311 3.6210915e-06 0.00014226552 3.38986e-05 6.94434e-05
-2.339545e-05 -5.9511545e-05 -1.0524339e-05 6.93712e-05 -6.832837e-05 8.906566e-05 7.980284e-05 -2.6607991e-05
8.989256e-05 2.9029343e-05 -0.00012579601 -0.00011955549 -5.03382e-05 6.549295e-05 0.00012592622 -6.5888526e-05
2.9742027e-05 -1.9522302e-05 -0.00012707773 -4.0425137e-05 -7.119679e-05 6.664295e-07 4.6734367e-05 -5.322224e-05
-5.9783128e-05 -8.336019e-05 6.2806415e-05 8.854039e-06 0.000120691395 -5.2834563e-05 -1.6082697e-05 -5.0896608e-05

model.1.weight f4 [48]
00000000: dd63 433f 7f0f 393f 78fc 323f 4e9d 503f
00000010: 953b 553f 0a2c 483f e6d1 413f 881e 523f
00000020: c28d 393f 8acf 333f 580f 443f fdd6 3e3f
00000030: ee9e 433f 1fca 423f efc6 3d3f 32ea 373f
00000040: 8f02 3c3f 69bf 2e3f 82f1 433f 08a9 403f
00000050: 2a24 3f3f 53db 3f3f f2c6 453f 931f 433f
00000060: 7d97 3f3f 5878 483f 43e2 493f e022 3c3f
00000070: 3aaa 3d3f 046b 363f bb91 4f3f 0c99 4b3f
00000080: 4c8e 4b3f 2032 503f 333a 473f d990 463f
00000090: 32c4 4e3f f518 473f a774 513f 2592 503f
000000a0: 45e4 513f 223c 4f3f ec68 483f 3040 393f
000000b0: ac77 453f 95ef 433f 2c00 413f 9c3b 4c3f
0.76324254 0.7228927 0.69916487 0.8149003 0.8329404 0.781922 0.75710905 0.82077837
0.7248193 0.70238554 0.7658591 0.74546796 0.7641438 0.7608966 0.74131674 0.7184173
0.73441404 0.6826082 0.76540387 0.7525792 0.74664557 0.7494404 0.7725669 0.76220053
0.7484053 0.7830863 0.78860873 0.73490715 0.7408787 0.7125704 0.8108174 0.79530406
0.79514 0.81326485 0.7782318 0.7756477 0.8076812 0.77772456 0.8181862 0.81473
0.81988937 0.8095113 0.782851 0.7236357 0.7713573 0.7653745 0.7539089 0.79778457

model.1.bias f4 [48]
00000000: 46b9 5abe d3ec c5be 3c76 a1be d275 30be
00000010: 48e8 21be c73c 76be c5e9 d2be 15f4 34be
00000020: 18da b0be 9e1c b1be 0a80 aebe 7a4e c6be
00000030: 5ee0 cabe 8d35 b2be 2934 babe 52df c6be
00000040: f7aa b7be a8cb 7bbe b99c 67be 226d 68be
00000050: bb02 b4be 8728 5cbe 5258 c5be e9fc c1be
00000060: cc1e 5ebe 17f1 51be 0330 3ebe 637e c0be
00000070: 8296 c0be 5f31 bbbe c452 46be 53b5 4bbe
00000080: 31c5 c3be ce0c 60be e3ff cabe eb68 bfbe
00000090: 478a 44be d1e0 78be 2ae0 4cbe 8be8 5dbe
000000a0: 2f8e 45be 11e5 62be d6e6 65be e5aa 8ebe
000000b0: bbcd 4cbe 7bc0 4bbe dc7f c5be 5871 2dbe
-0.21359739 -0.38657245 -0.31535518 -0.17232445 -0.15811265 -0.24046622 -0.41193977 -0.17671235
-0.34541392 -0.34592146 -0.3408206 -0.38731748 -0.39624304 -0.3480648 -0.3636792 -0.38842255
-0.35872623 -0.24589407 -0.22618379 -0.22697881 -0.35158333 -0.21499835 -0.38543946 -0.37888268
-0.21691436 -0.20502125 -0.18573003 -0.37596425 -0.37614828 -0.36561105 -0.1936751 -0.19893388
-0.38236383 -0.21879885 -0.3964835 -0.37384734 -0.19193374 -0.2430451 -0.20007387 -0.2167074
-0.1929252 -0.22157694 -0.22451338 -0.27864757 -0.20000355 -0.19897644 -0.3857411 -0.16937768

model.1.running_mean f4 [48]
00000000: 3e9a 203c 9a02 4abb 4d4f c83b e3b2 ce3b
00000010: c2b3 983b f84d 78ba 58d9 953c 2dd1 b53c
00000020: 66f1 f23c 1dea d63b 9cac 6a3c c1d6 443c
00000030: 13a2 34ba 9106 ca3b 7053 ba3c aa2e ab3c
00000040: a8ee 4d3c 8333 92bc df76 17bb 06c1 6b3c
00000050: 4e3e 41bc 3fda 3e3c b303 2e3b a317 393b
00000060: cd26 bd3c 62ee 57bb c595 833c e044 343c
00000070: f8fb 8d3a 0fc2 1c3b 385d dd3b 95e8 b53b
00000080: 326f a43b 6e73 073b 15ae 943c f6fa 8b3c
00000090: adf0 8839 410c 143c f566 793c 58ef cb3b
000000a0: d45c 0cbc 281d 993b 7d08 9a3c 492c b73c
000000b0: 1958 9abb 75fa 523c 843f 483c 8ab2 8abb
0.009802399 -0.0030824305 0.006112969 0.006307946 0.0046601007 -0.00094720675 0.018292114 0.02219447
0.029656123 0.00655867 0.01432338 0.012014092 -0.0006890606 0.0061653336 0.022744864 0.020896275
0.012569107 -0.017846828 -0.0023111624 0.014389282 -0.01179464 0.011648714 0.0026552498 0.0028242848
0.02308979 -0.0032948484 0.016062627 0.011002749 0.0010832539 0.002391938 0.0067554973 0.0055514076
0.0050181383 0.0020668167 0.018149415 0.017087441 0.0002611926 0.009036125 0.015222301 0.0062236004
-0.008567054 0.004672665 0.018802876 0.022359984 -0.004710209 0.012877096 0.012222175 -0.0042327093

model.1.running_var f4 [48]
00000000: 8e67 9a38 a71c 9e38 f1a3 8238 633d 7e38
00000010: 57cc b738 ee50 9f38 a840 7d38 8190 a638
00000020: a6b1 9e38 a5cb 9838 c5a3 8a38 ab75 9138
00000030: c682 9238 b921 8438 8d5c 9338 b241 a738
00000040: 1a9d 7a38 426d 8138 f8f4 8938 b148 a538
00000050: 7fe7 8138 564d a238 f8e1 9f38 307d 7238
00000060: 2844 9138 dbb2 a638 d6cb cd38 a286 a738
00000070: 8edc 8738 97dd 9638 09a6 9938 26b8 b238
00000080: 75b3 8d38 2f00 8838 c9b4 8a38 7f0f aa38
00000090: 4e24 7c38 9621 8e38 7e36 a238 2e04 a738
000000a0: 2959 b938 54b1 7038 639f aa38 6574 7638
000000b0: 635d c038 4004 b238 75bc 8a38 e7e8 a138
7.362581e-05 7.539364e-05 6.2294195e-05 6.061549e-05 8.764181e-05 7.596785e-05 6.0380116e-05 7.942413e-05
7.567117e-05 7.2858566e-05 6.610857e-05 6.936056e-05 6.986181e-05 6.300532e-05 7.026745e-05 7.975417e-05
5.9750957e-05 6.17155e-05 6.578298e-05 7.881353e-05 6.194319e-05 7.739167e-05 7.623801e-05 5.7813886e-05
6.926834e-05 7.948811e-05 9.813129e-05 7.988258e-05 6.478383e-05 7.193832e-05 7.326535e-05 8.522002e-05
6.7568304e-05 6.4850195e-05 6.614027e-05 8.109118e-05 6.0115293e-05 6.7773435e-05 7.734912e-05 7.963959e-05
8.838095e-05 5.738561e-05 8.13592e-05 5.875937e-05 9.172668e-05 8.488493e-05 6.615456e-05 7.72046e-05

model.4.weight f4 [24, 48]
00000000: 9f30 7ebd 4a8e cb3d f5bc 9f3d b795 65bd
00000010: a6b2 80bd 0d99 a5bd e3e4 ee3d ec8e 69bd
00000020: 23b5 473d f840 bd3d 4301 163d 6a67 bc3d
00000030: 1bcb af3d 51b2 683d 2cf3 b23d 032d a93d
00000040: 2e21 653d 8c0b 92bd 0413 83bd e983 a8bd
00000050: 5690 7b3d 8ae6 9bbd 1e93 4f3d 3e95 9f3d
00000060: a967 a2bd 00d7 94bd db7e 76bd 9882 b83d
00000070: e6de a93d 6cf9 833d 4919 94bd 3c66 56bd
00000080: 38ee 8b3d 44b6 83bd 7e68 b93d a427 b43d
00000090: 8f98 7fbd f14e 9fbd 9066 74bd 3195 8fbd
000000a0: 90b4 65bd 568c 7cbd c22c a5bd a223 783d
000000b0: b674 8cbd 26d8 98bd c6c0 bf3d c9e8 a1bd
000000c0: 1c7c 4bbd 4ebe a23d 6dd4 443d 2841 3ebd
000000d0: 7952 31bd 2605 6dbd 81d1 983d 782b 61bd
000000e0: 00f4 903d 9d10 7f3d 62cb 7a3d 0048 4b3d
000000f0: 0154 7d3d 3faf 713d 6ba4 683d d189 a93d
00000100: 2780 823d b8c0 8cbd 4433 5cbd 21c5 bdbd
00000110: 29ec 873d a852 47bd 1b46 843d 0544 873d
00000120: 7aaf 76bd 0e71 90bd df07 60bd cfa8 573d
00000130: 648c 613d 7291 3d3d d65e 68bd 0551 6bbd
00000140: 105a 8a3d 7dcf 5ebd 8758 863d b8e1 683d
00000150: f24e 46bd 8260 8fbd 89a9 82bd a0da 64bd
00000160: 3406 2cbd ebe3 80bd 4277 b0bd 56fd 2f3d
00000170: 4063 50bd 06bd 6dbd 62b1 8a3d c00b 79bd
00000180: 23bc 5bbd b530 823d ea36 843d 132e 81bd
00000190: 4a16 84bd 2294 a0bd 25ed b53d e338 6ebd
000001a0: 443e 5d3d c461 cb3d 3866 833d 5926 9b3d
000001b0: 9371 8a3d bebf a73d d6e9 383d cdb2 933d
000001c0: 8b82 973d d931 98bd 3d40 72bd b308 d0bd
000001d0: f519 9b3d 487a 81bd 965c b03d 6e82 bb3d
000001e0: 170a 88bd f983 89bd 6183 81bd 92ba 9c3d
000001f0: 3116 923d 873d c03d 704a 71bd e09c 46bd
00000200: cdcd 7e3d 32df 45bd 43f9 a63d 60ca 933d
00000210: c68e b0bd 1a2f b7bd 8c82 59bd f4bf 9bbd
00000220: 713d 95bd a1b3 aabd a93f d9bd 724a 383d
00000230: ba07 80bd 0198 8bbd fe63 bb3d 1e58 6cbd
00000240: ac15 cd3d ea36 41bd ed83 7abd 1905 b83d
00000250: 1422 9f3d 6dfb b13d e3f7 72bd b423 bc3d
00000260: c46a fbbd d980 1fbd 9d4f 04bd 8e2d 0ebd
00000270: 4196 04be e8c8 46bd 5138 cdbc 0b03 87bd
00000280: 43e9 98bd d9c9 813d bebb bf3d 0afb cd3d
00000290: 3218 95bd 35c4 d13c 731b 52bd d58f 37bd
000002a0: 7962 a63d 2b6f e93d fc63 963d c8f2 e6bd
000002b0: 863e 5abd d4f0 bbbd fa71 c73d d5d8 ce3d
000002c0: 5b5d aabd 9030 b13d 923e 2dbd c72d 28bd
000002d0: 7cbb a43d 3667 9e3d 0079 c53d f41f e63d
000002e0: ce8d ae3d 7cf8 c03d 139f d03d 281d 6dbd
000002f0: 79d5 603d da28 d23d dfbb 61bd fabf 7f3d
00000300: 2eff db3d 56d2 e4bd 69d0 00bd b533 933d
00000310: 0b33 af3d 8dd0 8d3d 998a 52bd 6a00 ca3d
00000320: 42e3 6cbd cbd7 85bd 4a09 37bd ac14 4cbd
00000330: 3383 07bd a82b 71bd b738 8ebd 47a4 76bd
00000340: 8401 58bd 7a1e 803d b900 df3d c0a9 8a3d
00000350: 814e 02be 4847 b73d b4fa 85bd ea91 9cbd
00000360: ef57 9c3d 78f7 ef3d 37c7 cc3d 49dc 86bd
00000370: fc0e 24bd dc29 8fbd a556 a43c aca6 983d
00000380: c99f a4bd 68a8 b13d 69e2 38bd 5cc2 2bbd
00000390: 50b4 9a3d 4f15 ae3d 3d7c 873d 575d 383d
000003a0: e4a3 cc3d 70b9 c63d c19f d23c f4f5 43bd
000003b0: ce7b da3d 1264 a73d d9dc 4cbd 5aa5 6e3d
000003c0: aa6e 8a3d cc6c 8bbd ec90 78bd b64d c83c
000003d0: 3645 663d b8d7 c43d a4c3 6fbd 7dd6 923d
000003e0: 3202 6dbd 9cf4 50bd 244c 88bd 9ce4 c4bd
000003f0: f8d0 13bd d4ac 9ebd ebd0 32bd 6bcc 9bbd
-0.062058087 0.09939249 0.077997126 -0.056050982 -0.062840745 -0.08085833 0.116647504 -0.057021067
0.04875673 0.092409074 0.036622297 0.09199412 0.08583661 0.05681068 0.087377876 0.082605384
0.055939846 -0.07131109 -0.06400111 -0.08228285 0.061416946 -0.07612331 0.05067741 0.077921376
-0.07929928 -0.072675705 -0.060179573 0.09009284 0.08294468 0.06444058 -0.07231385 -0.052343592
0.06832546 -0.06431249 0.090531334 0.08796623 -0.06240135 -0.07778729 -0.059668124 -0.07010878
-0.0560804 -0.061657272 -0.080651775 0.060580857 -0.06858198 -0.07463102 0.093629405 -0.07905728
-0.049678907 0.07946454 0.048054148 -0.046448857 -0.043291543 -0.057866238 0.07461835 -0.054973096
0.07077789 0.062271703 0.061229117 0.04962921 0.06184769 0.05900502 0.056797426 0.082782395
0.06372099 -0.06872696 -0.05375983 -0.09266115 0.06636841 -0.04866281 0.06458684 0.066047706
-0.06022594 -0.070528135 -0.054695006 0.052651223 0.055065528 0.046281286 -0.056731068 -0.057450313
0.06755459 -0.054397095 0.06559854 0.056855887 -0.048415132 -0.07000829 -0.063799925 -0.05587256
-0.041998103 -0.06293472 -0.086164966 0.04296621 -0.050875902 -0.058041595 0.06772114 -0.06080222
-0.053646218 0.063569464 0.064557865 -0.06307616 -0.06449564 -0.07840754 0.08883122 -0.05815972
0.05401446 0.09930757 0.06415981 0.075756736 0.06759944 0.08190869 0.04514488 0.07211838
0.07397946 -0.07431383 -0.059143294 -0.10157909 0.0757331 -0.063221514 0.08611409 0.09155737
-0.066425495 -0.06714625 -0.06323887 0.07652773 0.07133139 0.093867354 -0.05890888 -0.04848945
0.062207986 -0.04830856 0.08153012 0.07216334 -0.08620982 -0.08944531 -0.053103015 -0.076049715
-0.0728711 -0.08335043 -0.10607845 0.04499287 -0.06251474 -0.06816102 0.09149931 -0.057701223
0.10013899 -0.04717151 -0.06116097 0.08985347 0.07770172 0.08690534 -0.059318434 0.09186497
-0.12276223 -0.038941238 -0.032302488 -0.034711413 -0.12947942 -0.048531443 -0.025051268 -0.06592377
-0.07466366 0.063373275 0.09361981 0.100576475 -0.072800055 0.025606254 -0.05129571 -0.044814903
0.08124251 0.11398157 0.07343289 -0.112767756 -0.053282283 -0.09176794 0.09738536 0.10099951
-0.083185874 0.08651841 -0.042296 -0.04105928 0.08043572 0.0773453 0.096422195 0.11236563
0.08523141 0.09422395 0.10186591 -0.057889134 0.054891083 0.10261698 -0.05511081 0.062438942
0.10742031 -0.11172931 -0.031448755 0.07187597 0.085546575 0.069245435 -0.05140171 0.0986336
-0.057833917 -0.065353 -0.044686593 -0.0498244 -0.033084106 -0.058879524 -0.06944411 -0.06021526
-0.05273582 0.06255813 0.1088881 0.067706585 -0.1272526 0.08949143 -0.065419585 -0.076450184
0.076339595 0.11717123 0.09998935 -0.06584985 -0.040053353 -0.06990406 0.020060847 0.07453665
-0.08038289 0.08674699 -0.045137797 -0.041933402 0.07553923 0.08500158 0.066154934 0.04501089
0.09992197 0.09703338 0.025710942 -0.04784198 0.10668145 0.08173384 -0.050015304 0.05826316
0.06759389 -0.06807861 -0.060685083 0.024451118 0.05621835 0.096114576 -0.058536187 0.07169817
-0.05786342 -0.051014528 -0.06655148 -0.09613916 -0.03608796 -0.07747808 -0.04365627 -0.07607349

model.4.bias f4 [24]
00000000: 10c3 d4b5 dfdf 97b5 1c15 8036 76ae a835
00000010: 7f6a 3ab6 b1d9 d736 cc55 d735 5bbf ceb6
00000020: e572 69b6 38f3 2a34 6e04 6336 ee1d 9b36
00000030: e896 c0b5 69d0 44b7 7138 96b6 fec6 f435
00000040: fae1 a7b4 6434 3337 083f 62b5 5e52 80b5
00000050: acdd e1b6 6163 c3b6 68cb 1a37 a028 97b6
-1.5852002e-06 -1.1315532e-06 3.8171547e-06 1.256775e-06 -2.7778149e-06 6.432842e-06 1.6043718e-06 -6.161555e-06
-3.4786583e-06 1.5920966e-07 3.3828214e-06 4.6228442e-06 -1.4349034e-06 -1.1731035e-05 -4.476919e-06 1.8237331e-06
-3.1270594e-07 1.068143e-05 -8.4283283e-07 -9.560715e-07 -6.7313285e-06 -5.823022e-06 9.2264745e-06 -4.50488e-06

model.5.weight f4 [24]
00000000: 6809 6c3f 80ff 6a3f cd04 623f ab3d 713f
00000010: 67a8 703f 5893 753f e129 733f c1ee 623f
00000020: d68c 663f 6ce3 7d3f 46cc 653f bc55 6a3f
00000030: ab67 673f 9519 7c3f ef8d 7e3f a1b6 693f
00000040: f620 653f f30d 763f ab65 743f b6d7 653f
00000050: 0e93 7e3f 44ac 7f3f e476 613f 0793 6c3f
0.9220185 0.9179611 0.88288575 0.9423472 0.9400696 0.95927954 0.9498578 0.8864556
0.9005865 0.99175143 0.8976482 0.9153707 0.9039256 0.98476535 0.99435323 0.91294295
0.8950342 0.96115035 0.95467633 0.89782274 0.9944314 0.9987223 0.8807204 0.92411846

model.5.bias f4 [24]
00000000: a39a b9bd 659c ebbd 13f9 01be dabf 8f3e
00000010: 21df 8a3e 66dc 7e3e bd5d 6d3e 8549 0cbe
00000020: 118a b9bd de18 813e 6109 b0bd f8bc d0bd
00000030: 0f64 f8bd 3395 833e f712 983e cd76 9ebd
00000040: fd5b e5bd cead 903e fe2f 913e 8be9 bdbd
00000050: 2211 923e 6688 853e 26fc e1bd f2b8 afbd
-0.09062698 -0.11504439 -0.1269267 0.2807606 0.2712336 0.24888763 0.2318029 -0.1369992
-0.09059537 0.25214285 -0.08595539 -0.10192293 -0.1212846 0.25699767 0.2970197 -0.07737503
-0.11199186 0.28257602 0.28356928 -0.092730604 0.28528696 0.26080626 -0.110344216 -0.085801974

model.5.running_mean f4 [24]
00000000: ea43 ffbd bef2 edbd a5b2 08be 9447 863e
00000010: 740a 713e 0b89 3c3e 6e3a 563e 856f 23be
00000020: fa4f 01be 5cec 523e 2862 eabd af47 f2bd
00000030: 17f2 04be ad70 403e da48 613e 43e4 a9bd
00000040: b196 fbbd d3e8 823e 324c 6f3e 4994 04be
00000050: b45d 6e3e b667 523e 925c 00be 3047 d3bd
-0.124641255 -0.11618565 -0.13349397 0.26226485 0.23539144 0.18411653 0.20920727 -0.1596051
-0.12628165 0.20597976 -0.11444503 -0.11830079 -0.12982975 0.18792982 0.22000447 -0.082954906
-0.122846015 0.25568256 0.2336891 -0.12947191 0.23277932 0.20547375 -0.12535313 -0.10316312

model.5.running_var f4 [24]
00000000: 02fa 073f 6f6e ba3e 749a 053f 966d 163f
00000010: 01dc 073f 7d7a 033f 3641 173f 46a4 ec3e
00000020: 1f94 053f 24c1 f93e a34d 233f e724 013f
00000030: 9c71 de3e c271 023f 7715 d33e 36c5 d53e
00000040: 2596 dd3e fc29 163f d25f 0a3f fe79 133f
00000050: bd89 113f 0b79 ea3e 9633 ee3e 9b64 fb3e
0.53115857 0.3641238 0.521888 0.58760965 0.53070074 0.5135878 0.5908388 0.4621908
0.5217914 0.48780167 0.6379034 0.50446934 0.43446052 0.5095483 0.41227314 0.41752023
0.43278614 0.58657813 0.5405246 0.5760802 0.56850797 0.45795473 0.46523732 0.49100193

model.8.weight f4 [2, 24]
00000000: f3bf 2cbe 830a bbbd 9e03 05be 5d9d d63e
00000010: b760 ec3e e1fb 8f3e 22ca dc3e 33e0 4bbe
00000020: 5248 42be b0ec d43e 8cc3 f0bd 825c 7bbe
00000030: d3ce 31be ff36 053f e5f6 813e a74d 4bbe
00000040: f24b 31be 3851 d43e 5d85 e03e 3de7 19be
00000050: 2a55 c43e bbf1 ae3e 6328 30be b32c bebd
00000060: e839 1e3e ee0e 773e 0440 643e 96fd d0be
00000070: 71f9 b8be 5c2b fbbe 3430 cabe 5886 173e
00000080: e317 033e cc9d bfbe 52c4 453e 13fe 9e3d
00000090: 99b1 273e 73c5 80be bfdc 0bbf c167 e73d
000000a0: 0a48 243e 53cf c6be 61de b8be 6201 283e
000000b0: 047c c0be 9e5f e7be 376e 313e 9021 613e
-0.16870098 -0.09132864 -0.12989661 0.41916934 0.46167538 0.28121856 0.43122965 -0.19909744
-0.189729 0.41586828 -0.117560476 -0.24547008 -0.17364053 0.5203704 0.25383678 -0.19853841
-0.17314127 0.41468215 0.43851748 -0.15029617 0.38346225 0.341688 -0.17202906 -0.092858694
0.15451777 0.24126789 0.22290045 -0.4081847 -0.3612781 -0.49056518 -0.394899 0.14797342
0.12802081 -0.37425077 0.19313172 0.077633046 0.16376342 -0.25150642 -0.54633707 0.11299086
0.16043106 -0.3883005 -0.36107162 0.16406778 -0.37594616 -0.45190138 0.173272 0.2198546

model.8.bias f4 [2]
00000000: bcf5 933e a117 c9be
0.28898418 -0.3927584
