trained_models/run06.pth (torch, 207943 bytes, 14 tensors)

model.0.weight f4 [48, 1024]
000000 06 33 a0 3c d5 8a e4 3c b3 ee 40 bc 18 7e 68 3c
       0.01955558 0.027898232 -0.01177566 0.014190219
000010 af f0 91 bc 91 17 b4 bc 98 97 bb bb dd a6 55 3c
       -0.017814962 -0.021983894 -0.0057248585 0.013040272
000020 ef 20 0b 3d ae 2e c6 bc 41 e5 16 3c 5d af 76 3c
       0.033966955 -0.02419218 0.009209932 0.015056458
000030 ab 2a 42 3d 56 86 a8 3b ec a4 5b 3c 2c 69 35 bc
       0.047403973 0.005142967 0.01340602 -0.011072438
000040 af c9 7c 3c 9c 98 89 bc 3d 76 93 bb 74 7e 88 3c
       0.0154289445 -0.016796403 -0.004500179 0.01666186
000050 8c 80 9a bb a0 cd c6 bc 50 a8 9b bc 3f 5b f6 3c
       -0.004715031 -0.024267972 -0.019001156 0.030072806
000060 14 39 18 3c ad f7 75 bb 90 5b 33 3b 53 34 c3 3c
       0.009290952 -0.003753166 0.0027367808 0.023828661
000070 c2 92 27 3b 5a 5a 2b bd dd c6 58 3c 09 a9 43 bc
       0.0025569652 -0.041834213 0.013231006 -0.011942157
000080 2e 1b 11 3d 8b 02 dd bc e3 60 8f 3b 9b ee 65 3b
       0.03542631 -0.026978752 0.0043755635 0.0035084847
000090 fc 72 1b 3c 26 06 3f ba 07 99 e4 bc 24 ef ad bc
       0.009487864 -0.0007286988 -0.027905 -0.021232195
0000a0 86 ac 3c 3c 7d 80 00 bc 33 6d 4c 3c e6 d1 ce 3c
       0.011515742 -0.007843134 0.012477207 0.025246572
0000b0 44 5e b2 3c cb 7a 8e bc e9 d3 f8 3a ae 57 f6 3b
       0.021773465 -0.017392537 0.0018984053 0.0075177765
0000c0 8a 4b 07 3d 00 62 1b bc de 91 13 bc 6b 2a 77 bc
       0.033031024 -0.009483814 -0.009006945 -0.015085797
0000d0 b4 9c 8b bc e7 cb 46 3d bc 16 41 bc a1 b8 9e 3b
       -0.017042495 0.0485343 -0.011785205 0.004843787
0000e0 38 0f bf bb ef 5a 3a bc 18 c4 78 3c 09 ae d2 bb
       -0.0058306716 -0.011374219 0.015183471 -0.006429438
0000f0 63 fe b9 3c 72 52 ee bc b7 93 9c 3b 79 90 ca bc
       0.022704309 -0.029092047 0.004778351 -0.024727093
000100 90 f7 4b bc 90 d9 e2 3a 28 19 78 3c 9f 31 28 b9
       -0.01244916 0.001730727 0.0151427165 -0.00016040214
000110 4d 04 c4 bc bb 37 d7 3b fb e2 51 3d a7 47 28 3c
       -0.023927832 0.006567923 0.051241856 0.0102709895
000120 c2 57 8e 3c 0b 38 b3 3a 6d e9 7b bd b6 53 32 bc
       0.01737583 0.0013673318 -0.06150191 -0.010884216
000130 21 6d 87 bc d1 1e f9 3c f7 37 61 bc 8d 6f d8 3c
       -0.016531529 0.030410202 -0.013746253 0.026420379
000140 b2 31 53 3c e2 f1 00 bc d6 2e 8a 3c a7 2e ee bc
       0.012890266 -0.007870169 0.016868036 -0.02907498
000150 ef 79 8c 3c 0e b7 11 bc 23 25 f4 3c 32 e3 b1 bc
       0.017147986 -0.008893741 0.029802864 -0.02171478
000160 3a c7 23 3b 55 68 9c bc bd 3d 96 3c 30 ef cf 3c
       0.0024990574 -0.019092718 0.018339986 0.025382608
000170 ab a4 d9 3c cc 67 94 3c 6a aa 00 bd f4 27 89 bc
       0.026567778 0.0181159 -0.03141252 -0.016742684
000180 ab a9 be 3c 44 1f 63 bc 4f db a7 bc 1c 0e 3c bc
       0.023274263 -0.013862435 -0.020490317 -0.011477973
000190 ec 9c a7 bc e5 89 02 bc 25 c9 08 3d bf 21 39 bc
       -0.020460568 -0.007967447 0.03339495 -0.01129955
0001a0 7d 18 60 bc 19 e6 8a bc 6b e6 fa bc 64 4e 5e bb
       -0.013677713 -0.016955422 -0.03062745 -0.0033921236
0001b0 01 8a a5 bc 03 2e b2 bc de e4 a8 3c 6a e9 79 bc
       -0.020207407 -0.021750456 0.020616945 -0.015253404
0001c0 f3 e9 3c bc 0b 73 17 3b 00 56 b8 bc 1b 36 41 bc
       -0.011530387 0.0023109342 -0.022501945 -0.011792685
0001d0 ad 2d 7e 3c 95 5a 43 bd a9 2b cf bc 42 98 39 bc
       0.01551382 -0.047693808 -0.025289373 -0.011327805
0001e0 f2 67 c5 3b f9 cd a7 bc 71 40 f7 bc ba cc be bc
       0.006024354 -0.020483958 -0.030182095 -0.02329098
0001f0 b7 57 1f bd 16 02 a7 bc 68 f1 40 bc db 9f 48 bc
       -0.03890201 -0.020386737 -0.011776306 -0.012245144
000200 ea b9 9d 3c 7e 99 85 bc f6 08 e8 3b 6b bc fb 3b
       0.01925369 -0.016308542 0.0070811464 0.0076823733
000210 a2 f1 38 ba 25 e1 a9 3b 48 84 22 bb 0e c4 d6 3c
       -0.0007055049 0.00518431 -0.0024798084 0.026216533
000220 33 cf 06 bd cb a4 4f bd 40 a8 0d 3a 4d e7 d9 bc
       -0.032912444 -0.05069427 0.00054037943 -0.02659955
000230 83 9e 23 38 7f ae 11 bc 19 de c6 3c b2 65 49 bb
       3.9009854e-05 -0.008891701 0.024275826 -0.003073078
000240 1b 03 ca bc 68 07 ab 3a 37 bb d8 3c 46 19 95 3c
       -0.024659684 0.0013048472 0.026456458 0.018200528
000250 80 e7 0a 3d 2c b9 8b bb ec d7 44 3c 5d 0d 20 bd
       0.03391218 -0.0042640176 0.01201437 -0.039075244
000260 fe 05 c6 bc 5f 26 05 bc 1b e9 35 bc 93 e7 94 bb
       -0.02417278 -0.008126824 -0.01110294 -0.0045442074
000270 cb c7 b5 3c 7e da ff bb a5 0a 03 bd ac e9 cc bc
       0.022189995 -0.0078080287 -0.031992573 -0.025013767
000280 95 75 ae 3c b6 df 36 3c ba a9 b7 3c ed b5 fd bc
       0.021296302 0.011161735 0.0224198 -0.030970538
000290 b5 ca 83 bc d9 ea bb ba 3f 95 80 3c b1 75 c3 bb
       -0.01608787 -0.0014336958 0.015696166 -0.0059649576
0002a0 e0 57 a0 3c 64 66 aa 3c 7c 2d d3 bc cb ed 21 3c
       0.019573152 0.020800777 -0.025778525 0.009883354
0002b0 6f 17 27 3d 2c fa 42 bc a4 6a 33 bc 40 44 9c bc
       0.040793832 -0.011900466 -0.010950718 -0.019075513
0002c0 ad 68 0c bc 14 06 7b 3c ed 3e 22 3d d9 20 09 bd
       -0.0085698785 0.015321273 0.039610792 -0.03347859
0002d0 e3 94 70 3c b5 be e1 3b 59 05 0b 3c b2 51 3a bb
       0.014683935 0.006889189 0.008485162 -0.0028430042
0002e0 44 01 85 bb 96 52 99 3c 65 ed 3e 3c eb e2 08 bb
       -0.0040589888 0.018716138 0.011653279 -0.0020887207
0002f0 e6 e7 bf 3c e8 55 52 3c 1c c4 65 bb 7b a6 1c 3c
       0.023426007 0.012837864 -0.0035059517 0.009561176
000300 4d d6 10 3c 1c 89 cb 3c 6d c3 db 3a 5a 8c a1 bc
       0.008840156 0.024845652 0.0016766615 -0.019720245
000310 a2 d0 86 bb 2f 25 c0 bc e2 bf 57 3c 61 22 f3 39
       -0.0041142264 -0.02345523 0.013168307 0.00046374186
000320 35 de f7 bb 08 8d a1 bc 32 e5 13 3d e9 35 e0 3c
       -0.007564331 -0.01972057 0.03610725 0.027369456
000330 4f 6b 57 bb e5 7e 98 bc 1f 31 51 bc 2a 8e 42 bc
       -0.0032870357 -0.018615196 -0.012768059 -0.011874715
000340 ef cf 9f 3c 5d 4e 1c 3c 04 85 b5 3c ad df 0e 3d
       0.01950833 0.009540168 0.022158153 0.034881283
000350 8f 1d d1 bc b9 10 93 bc 40 43 26 bb 6a 50 b7 3c
       -0.02552679 -0.01795231 -0.0025369674 0.022377212
000360 4f 6f 38 3c e3 0a 75 bb 19 d4 48 3d 8f 49 97 3c
       0.011257007 -0.0037390522 0.049030397 0.018467693
000370 a2 5d cf bb 6f b9 b4 3b a2 44 11 bc 05 6a aa bc
       -0.0063283006 0.0055152695 -0.008866461 -0.020802507
000380 28 a4 0c bd 04 5f 66 3c 7d 3b 00 bb c9 f4 14 3d
       -0.03433624 0.014060739 -0.0019566708 0.036366258
000390 f6 c9 95 bc 14 9e c8 bb fa be 3b bc e7 c6 b9 3c
       -0.018284779 -0.00612236 -0.011459107 0.022677852
0003a0 eb f5 f3 3c 3c 13 df 3c 5e 43 e9 3b 22 6e a2 3b
       0.029780349 0.027230851 0.0071186265 0.0049569765
0003b0 b8 2b 4f bb f9 32 91 bb 2b a9 71 bc f5 a7 b7 3b
       -0.0031611752 -0.0044311252 -0.014749805 0.005604739
0003c0 5c eb b7 3c 96 12 b3 bb 05 8d cb bb ed 4e 96 ba
       0.022451095 -0.005464862 -0.006211879 -0.0011467614
0003d0 36 3d 6c 3c 1a ac e5 bc be 37 72 b9 24 4b ef bb
       0.014418891 -0.028036166 -0.00023099684 -0.0073026586
0003e0 a4 5c f4 3b f1 b8 1d 3d 81 12 56 bb ae 6c 98 bc
       0.0074573327 0.038506452 -0.0032664838 -0.01860651
0003f0 6c 2b 83 bc 6b 76 b5 3a 87 32 45 3c 56 6f e3 bc
       -0.016011916 0.0013844495 0.012035972 -0.02776305

model.0.bias f4 [48]
000000 36 9e 0d b7 b6 ab 85 b8 3e 07 b0 b8 1c 8e eb 38
       -8.441091e-06 -6.373918e-05 -8.393683e-05 0.00011232143
000010 9a de b3 b8 38 e8 ae b8 d1 3e 1e 38 ac 68 3b 37
       -8.576848e-05 -8.340221e-05 3.7728638e-05 1.1170439e-05
000020 d3 73 d9 b8 a2 13 9b b8 02 03 ca b8 c9 6d 7c 38
       -0.0001036894 -7.394633e-05 -9.632671e-05 6.0183727e-05
000030 6c 8f 17 38 cd 0a ca b7 7c cf 28 38 d3 16 22 38
       3.6134777e-05 -2.4085306e-05 4.0247556e-05 3.8645067e-05
000040 f0 b5 d1 b5 90 64 bd b5 68 6b 91 b7 4e 96 cc b8
       -1.5624664e-06 -1.4110865e-06 -1.7335362e-05 -9.7554745e-05
000050 f4 14 cc 36 cd ef a2 37 3d d4 70 b8 c9 c7 30 38
       6.082113e-06 1.942357e-05 -5.741812e-05 4.2147734e-05
000060 da 7c 96 38 31 f6 10 b8 db 42 00 b9 47 3d 23 b7
       7.175813e-05 -3.456156e-05 -0.00012231937 -9.729824e-06
000070 6f e5 47 b8 38 fd 57 38 cd b0 7b 39 50 86 63 39
       -4.7658974e-05 5.1495823e-05 0.00024003089 0.00021698442
000080 27 7c 0f b7 ab 6e f8 b8 c6 0c c6 b7 68 cd 0d b9
       -8.552371e-06 -0.00011846175 -2.3609387e-05 -0.00013523328
000090 8f 52 06 39 a3 b9 54 39 d6 b3 bb 37 76 05 d0 38
       0.00012809991 0.0002028705 2.237588e-05 9.91923e-05
0000a0 d0 7a 21 37 58 ce 96 38 ec b8 cb b7 4f ab 9e 38
       9.624942e-06 7.190992e-05 -2.4285597e-05 7.565936e-05
0000b0 e8 c0 9e b7 14 a1 b4 b7 d4 44 dd 38 98 06 b0 38
       -1.8924897e-05 -2.153268e-05 0.000105509214 8.393562e-05

model.1.weight f4 [48]
000000 88 b2 3f 3f ce 63 39 3f 33 d7 31 3f 41 ee 4e 3f
       0.7488179 0.72417915 0.6946899 0.80832297
000010 14 22 51 3f ce b3 45 3f 57 95 41 3f 95 18 4b 3f
       0.81692624 0.77227485 0.756185 0.79334384
000020 0a c2 35 3f 1f f9 34 3f cf a0 41 3f c0 7b 3e 3f
       0.70999205 0.7069263 0.75636 0.7440758
000030 b8 db 40 3f ed 6c 39 3f c5 6a 39 3f a9 cf 3a 3f
       0.75335264 0.7243183 0.7242854 0.72973114
000040 1e 5c 35 3f 65 df 39 3f d6 40 41 3f 36 32 3e 3f
       0.70843685 0.726065 0.75489557 0.74295366
000050 c5 25 3c 3f 6b c3 40 3f a6 8f 43 3f 3d 5f 3f 3f
       0.7349513 0.75298184 0.76391065 0.747547
000060 08 de 3f 3f 3c 01 46 3f 32 82 47 3f 67 ba 3a 3f
       0.7494817 0.77345634 0.7793304 0.7294068
000070 3e 97 3a 3f ef 4e 31 3f 3e c0 48 3f 93 4e 48 3f
       0.7288703 0.6926107 0.7841834 0.78244895
000080 6b e4 47 3f 4b b5 46 3f 7e 07 44 3f 8d 6c 45 3f
       0.78082913 0.7762038 0.7657393 0.7711876
000090 9a ea 4d 3f 75 48 44 3f c3 02 50 3f 05 3f 4b 3f
       0.804361 0.7667306 0.81254214 0.79393035
0000a0 01 a4 54 3f f7 80 4a 3f 27 f9 40 3f 50 46 39 3f
       0.8306275 0.79103035 0.75380176 0.72372913
0000b0 13 2c 44 3f d5 c5 3f 3f 04 cd 3f 3f 01 6f 46 3f
       0.7662975 0.7491124 0.74922204 0.7751313

model.1.bias f4 [48]
000000 66 21 6a be 09 77 d0 be b9 54 bb be 49 c6 2b be
       -0.22864303 -0.40715817 -0.36588076 -0.16774859
000010 d5 5c 15 be 3c 93 84 be 02 39 c2 be 78 98 57 be
       -0.14586194 -0.2589358 -0.37934119 -0.21054256
000020 61 29 b2 be 27 0f ce be db 01 c8 be 0e 7c cd be
       -0.34797195 -0.40245935 -0.39063916 -0.4013371
000030 99 0d cf be 90 c5 c4 be b2 2f aa be f7 7f 43 be
       -0.40440062 -0.38431978 -0.33239514 -0.19091783
000040 1c f9 bb be 08 27 89 be a7 e2 66 be 6f 85 81 be
       -0.36713493 -0.2678759 -0.22547399 -0.25297114
000050 28 a9 bc be 3a c9 57 be 5f 4c c9 be dd 0f cf be
       -0.36847806 -0.21072856 -0.3931608 -0.4044179
000060 18 6e 49 be b3 17 36 be b1 2b 55 be ab 9d c3 be
       -0.19670904 -0.17782478 -0.20817448 -0.3820623
000070 96 8f c4 be 2d fa b4 be 56 3f 56 be 1e 83 48 be
       -0.38390797 -0.3534712 -0.20922598 -0.19581267
000080 7c cf ce be 20 d4 2f be 8f c8 d6 be cb 1a c7 be
       -0.40392673 -0.17170763 -0.4194989 -0.3888763
000090 20 33 46 be b7 ea 69 be 14 61 3b be 31 34 55 be
       -0.1935544 -0.22843443 -0.18298751 -0.2082069
0000a0 ae 2c 2d be 4f de 49 be 49 81 5f be 60 39 96 be
       -0.16911575 -0.1971371 -0.21826662 -0.2934065
0000b0 6f 3e 58 be 66 c9 54 be df 7b c0 be de f3 45 be
       -0.21117567 -0.20779952 -0.37594506 -0.19331309

model.1.running_mean f4 [48]
000000 51 0d 90 3c e4 9d 27 3c 9e e9 98 bb 2b 9b c3 3c
       0.017584475 0.010230515 -0.004666521 0.0238777
000010 ad 1b 08 bb 5e 05 a4 3c 31 db ab 3c f4 f6 41 3d
       -0.002076845 0.02002209 0.020978542 0.047354653
000020 36 b5 ba 3c 2c 01 d6 3b 36 4a 7e 3c 88 9e 9d 3c
       0.022791486 0.0065309014 0.015520623 0.019240633
000030 78 82 15 b7 69 2a 40 3c b9 61 6e 3c 7a c2 4c 3c
       -8.911469e-06 0.011728861 0.014549666 0.012497539
000040 a0 88 9f 3c e6 5d 75 3c be 5d 43 ba 41 dc 6a 3c
       0.019474328 0.014976 -0.00074526283 0.014334739
000050 9e b6 02 bb 19 8c af 3b c0 ce 4c 3b 4e e5 8b 3c
       -0.0019945274 0.005357277 0.0031251162 0.017077114
000060 65 85 f4 3c 4b 8e 22 b9 a8 79 bc 3c 0e 6f 1e 3c
       0.029848764 -0.00015502532 0.023007229 0.009670032
000070 54 af 68 3c 59 b9 8d 3c 76 85 a4 3c e5 43 63 3c
       0.014201958 0.017300295 0.02008317 0.013871168
000080 2f 51 ab 3b 6c 33 c4 3c 7b 83 94 3c 66 71 b4 3c
       0.0052281837 0.023950301 0.018129101 0.022026729
000090 01 c3 1c 3c a1 03 91 3c 41 74 6e 3c ce c1 c6 3b
       0.009567977 0.017701926 0.014554084 0.006065584
0000a0 d8 45 41 bc 90 d4 b8 bb a5 27 d9 3c c5 62 ad 3b
       -0.011796437 -0.005640574 0.026508162 0.0052913153
0000b0 56 e3 91 3c a0 4b 7e 3c 05 8f d2 3c de f7 90 3c
       0.017808598 0.01552096 0.025702963 0.017696317

model.1.running_var f4 [48]
000000 6f ff 6a 38 58 1b 97 38 50 45 a1 38 35 3e 81 38
       5.602784e-05 7.205334e-05 7.689989e-05 6.162786e-05
000010 a1 c1 ad 38 cc 50 8c 38 b5 52 96 38 4c b7 8a 38
       8.285349e-05 6.69077e-05 7.167963e-05 6.6144945e-05
000020 65 db 7d 38 30 6f 8f 38 04 45 8d 38 63 64 7e 38
       6.0524228e-05 6.839482e-05 6.736259e-05 6.065181e-05
000030 6b 43 8c 38 e4 cf 84 38 70 1b 9c 38 bb f7 94 38
       6.688278e-05 6.332973e-05 7.44377e-05 7.103333e-05
000040 48 12 a6 38 de 0e 7d 38 3f 1f aa 38 72 15 84 38
       7.918902e-05 6.0333747e-05 8.112052e-05 6.298245e-05
000050 f2 02 9f 38 92 26 8f 38 96 74 9f 38 d6 11 92 38
       7.5822594e-05 6.825956e-05 7.603427e-05 6.965145e-05
000060 87 d4 6c 38 d2 76 ca 38 ba c1 b0 38 54 51 b1 38
       5.6464716e-05 9.6542426e-05 8.4284184e-05 8.455166e-05
000070 57 56 84 38 6b 74 b3 38 61 cb 95 38 37 21 ac 38
       6.3103325e-05 8.55707e-05 7.142756e-05 8.207786e-05
000080 d5 b1 a3 38 92 62 9e 38 50 07 a3 38 18 1f 9b 38
       7.8055695e-05 7.552387e-05 7.773808e-05 7.3967676e-05
000090 0a a9 81 38 d2 08 7d 38 09 95 90 38 48 2f 9b 38
       6.182685e-05 6.0328115e-05 6.894215e-05 7.399783e-05
0000a0 aa 42 ba 38 ba be 72 38 29 12 96 38 74 c8 78 38
       8.881588e-05 5.7874924e-05 7.15594e-05 5.9314494e-05
0000b0 96 e0 b6 38 73 fa 91 38 ee 8f 93 38 3c 47 96 38
       8.720269e-05 6.9607886e-05 7.036315e-05 7.165826e-05

model.4.weight f4 [24, 48]
000000 a2 7e 82 bd 5d 04 c9 3d f1 14 b8 3d d3 1e 34 bd
       -0.063718095 0.09815285 0.08988369 -0.04397471
000010 3d 7c 49 bd a9 5b ad bd ec b8 ec 3d 8e a9 85 bd
       -0.04919075 -0.084647484 0.115587085 -0.065264806
000020 64 7b 65 3d e1 9e e2 3d 5b 98 81 3d 9f 3e bd 3d
       0.056025878 0.1106546 0.063278876 0.0924046
000030 8d 2c b1 3d 02 e4 7a 3d 25 b6 99 3d c0 ec 86 bd
       0.086510755 0.0612526 0.075054444 -0.06588125
000040 be ff 47 3d a7 8f aa bd 5e dc 74 bd 46 a8 a3 bd
       0.04882788 -0.08328181 -0.05978047 -0.0799108
000050 5d dd 60 3d 78 b1 8f bd 36 c1 42 3d 54 0f b5 3d
       0.05489861 -0.07016271 0.04754754 0.08840814
000060 d2 4c a3 bd e6 44 71 bd aa 8c 63 bd 7a ab bd 3d
       -0.07973637 -0.058903597 -0.05555407 0.09261222
000070 2f b2 b1 3d a0 ad 4a 3d 2f f7 4f bd 1e 75 8b bd
       0.08676564 0.049481988 -0.050772842 -0.06809448
000080 f1 95 9a 3d bd 89 84 bd 7f d7 c1 3d a7 b8 a7 3d
       0.0754813 -0.06471584 0.09464931 0.081895165
000090 5b 60 93 bd 11 01 5f bd 32 85 6d bd cc 05 90 bd
       -0.07196113 -0.054444376 -0.057988353 -0.07032356
0000a0 d3 49 4b bd c6 d4 4a bd 35 23 69 bd bf 97 61 3d
       -0.04963095 -0.049519323 -0.05691834 0.055076357
0000b0 01 31 8f bd 06 3d 98 bd b5 cf bf 3d af 5a 78 bd
       -0.06991769 -0.07433514 0.09365789 -0.060633358
0000c0 3c 26 84 bd 0d 33 a9 3d 26 9e 72 3d c5 f3 48 bd
       -0.06452605 0.0826169 0.059232853 -0.0490606
0000d0 86 65 5d bd fd 2b 8a bd b6 0a 85 3d 81 73 79 bd
       -0.0540519 -0.06746671 0.064961836 -0.06090117
0000e0 13 69 8b 3d 27 6c aa 3d 94 17 7d 3d 5a 02 79 3d
       0.06807151 0.0832141 0.061790064 0.06079326
0000f0 1d 50 93 3d 96 41 82 3d 5c 8e 53 3d 22 01 67 bd
       0.07193015 0.06360166 0.051649436 -0.056397565
000100 ef 8f 7b 3d ec ce 86 bd 7b 22 41 bd 78 b3 98 bd
       0.061416563 -0.06582436 -0.047152024 -0.07456106
000110 a6 1e 79 3d cd be 6d bd 55 d2 7a 3d c5 58 a0 3d
       0.060820244 -0.05804329 0.061235745 0.078294314
000120 e8 92 81 bd 75 cc 5b bd f1 01 35 bd 03 81 70 3d
       -0.06326848 -0.053661782 -0.044191305 0.058716785
000130 f0 fe 73 3d 93 46 1d 3d 5e db 63 bd 01 75 80 bd
       0.0595693 0.038397383 -0.055629127 -0.06272317
000140 4a 14 68 3d c3 67 40 bd b9 3d 70 3d d5 3c 62 3d
       0.056659974 -0.046973955 0.058652613 0.055233795
000150 df 6d 88 bd f8 0a 7f bd 4f 2f 69 bd c6 59 7a bd
       -0.06661581 -0.06226632 -0.056929883 -0.06112077
000160 9d 8a 5d bd 9c a1 68 bd 54 f8 73 bd 1b 61 3a 3d
       -0.05408727 -0.056794748 -0.059562996 0.045502763
000170 2a 98 6d bd ea b8 43 bd 18 51 99 3d cb 0a 66 bd
       -0.058006443 -0.04778377 0.074861705 -0.056162637
000180 3e d7 98 bd 29 5c 69 3d 15 d8 a3 3d e7 f0 87 bd
       -0.07462929 0.056972656 0.08000199 -0.06637745
000190 4c 43 7a bd 9c 4d 83 bd 12 13 a6 3d 85 33 87 bd
       -0.061099336 -0.06411287 0.08109106 -0.066016234
0001a0 2d 57 58 3d e8 28 df 3d d8 d1 99 3d 93 27 a3 3d
       0.052817512 0.10896474 0.07510728 0.079665326
0001b0 9f 7c 8a 3d 61 77 a3 3d 9b 62 34 3d 8e 94 93 bd
       0.06762051 0.07981754 0.04403935 -0.07206069
0001c0 df 87 8f 3d 24 0a a7 bd 4a d6 3d bd 27 42 bb bd
       0.07008337 -0.08156231 -0.04634694 -0.09143477
0001d0 53 c1 97 3d a7 17 89 bd 4c 79 9e 3d 9e b5 af 3d
       0.074099205 -0.066939645 0.07737979 0.085795626
0001e0 db 25 93 bd 73 6c 8f bd 83 89 6f bd f1 2a 81 3d
       -0.07184955 -0.07003107 -0.05848075 0.063070185
0001f0 29 42 8d 3d 69 1d 96 3d 88 58 57 bd b2 fe 7c bd
       0.06897385 0.07329828 -0.052574664 -0.061766334
000200 c1 e9 a0 3d 1f b9 4f bd da b5 b2 3d d3 e2 81 3d
       0.07857085 -0.050713655 0.08726092 0.063420914
000210 cd d1 ac bd be 45 ac bd 49 e0 70 bd ee e0 9b bd
       -0.08438454 -0.0841174 -0.058807645 -0.07611261
000220 5a b6 a1 bd dc 08 a6 bd 2f 03 9c bd 70 6d 56 3d
       -0.07896109 -0.081071585 -0.07617795 0.05235046
000230 d2 23 90 bd 95 1a 9a bd d6 6b 9a 3d 71 1e 6a bd
       -0.07038082 -0.07524601 0.07540099 -0.057157937
000240 f4 7d a6 3d a7 92 93 bd 01 59 a1 bd 50 76 98 3d
       0.081294924 -0.07205706 -0.07878304 0.07444441
000250 73 65 93 3d 76 f9 93 3d c4 e4 9b bd 8e 92 a2 3d
       0.07197084 0.07225315 -0.07611993 0.07938109
000260 04 a8 e7 bd eb 4d 52 bd 42 88 62 bd 8b e4 39 bd
       -0.11311343 -0.05134384 -0.055305727 -0.04538397
000270 60 7c f9 bd f2 9f 1c bd 60 8b fe bc cd 6f 82 3d
       -0.12181926 -0.038238473 -0.031072319 0.063689806
000280 be 81 81 bd 7a d9 96 3d 04 46 c6 3d 33 89 cd 3d
       -0.063235745 0.07365699 0.09681323 0.10035934
000290 d1 cd bc bd 87 c6 1e 3d 1c 87 6a bd 8f 11 3a bd
       -0.09218944 0.03876355 -0.057257757 -0.0454269
0002a0 ca c2 ad 3d 78 13 cc 3d ec 01 ac 3d 08 a5 00 be
       0.08484419 0.09964651 0.08398804 -0.12562954
0002b0 21 c6 3e bd fb 11 de bd 8e f0 ce 3d ce bb b8 3d
       -0.04657567 -0.10843273 0.10104476 0.09020196
0002c0 2c 85 96 bd 2e 85 97 3d c2 3b 46 bd d7 00 a6 bd
       -0.07349619 0.07398449 -0.048396833 -0.08105629
0002d0 7d 8e a7 3d 71 40 c0 3d 96 db b5 3d ff 40 d9 3d
       0.08181474 0.09387291 0.08879773 0.106081
0002e0 6e dc a5 3d e1 05 be 3d 28 c0 bd 3d b0 e3 8f bd
       0.08098684 0.09278465 0.092651665 -0.0702585
0002f0 c7 1d 51 3d 6e 22 ae 3d d0 69 3c bd f2 8d 89 3d
       0.05105379 0.08502661 -0.04599935 0.06716527
000300 7b bd a0 3d e6 22 c9 bd 46 87 3a bd da 39 79 3d
       0.078486405 -0.098211095 -0.045539163 0.060846187
000310 2f 5d 98 3d 38 4c 85 3d 1c bc 4d bd af 5a d7 3d
       0.07439648 0.06508678 -0.050228223 0.105153434
000320 e6 db 7d bd 5e 70 8b bd a7 18 45 bd 45 20 47 bd
       -0.06197729 -0.06808542 -0.048119213 -0.04861476
000330 f5 6f 01 bd 36 1e e5 bc 40 da 68 bd ab 05 96 3d
       -0.03160091 -0.027968507 -0.056848764 0.073253
000340 aa 02 81 bd 36 5b 94 3d 2e 54 c4 3d 35 22 a2 3d
       -0.06299336 0.072439596 0.095863685 0.07916681
000350 84 e6 06 be 74 26 c5 3d cb 14 7d bd 08 ac 92 bd
       -0.13173872 0.09626475 -0.061787408 -0.071617186
000360 82 ee a8 3d 63 10 dc 3d 3a 81 d8 3d 7e a3 94 bd
       0.08248617 0.10745313 0.10571523 -0.07257746
000370 9f 77 0e bd 51 cc 9d bd 12 82 32 3d c4 dd 8b 3d
       -0.03478205 -0.07704986 0.043581076 0.06829408
000380 b8 a4 a3 bd de e3 9e 3d 22 07 62 bd 25 b2 5e bd
       -0.07990402 0.07758306 -0.055182584 -0.05436911
000390 1f 07 9a 3d f7 cf c2 3d a0 e4 85 3d 6a 2a 31 3d
       0.075208895 0.095123224 0.065377474 0.04325334
0003a0 fd 34 dc 3d e6 97 c0 3d 02 e2 4d 3d 62 5c 17 bd
       0.10752294 0.09403972 0.050264366 -0.036953337
0003b0 b0 17 da 3d 19 69 b3 3d d6 3b 70 bd e4 0f 67 3d
       0.10649049 0.0876028 -0.058650814 0.05641164
0003c0 5a 53 86 3d 36 89 a9 bd 6d a4 44 bd 2b f6 06 3d
       0.06558867 -0.08278124 -0.04800837 0.032949608
0003d0 47 a5 67 3d 94 88 ba 3d 7f 1d 74 bd 33 b8 b1 3d
       0.056554105 0.091080815 -0.059598442 0.08677711
0003e0 2d 0c 2e bd 25 62 87 bd 37 e1 6b bd a7 e3 c6 bd
       -0.04249208 -0.066105165 -0.05758783 -0.0971139
0003f0 77 9c f6 bc 87 a3 93 bd 75 80 0e bd 4b 8a 35 3d
       -0.030103905 -0.07208925 -0.034790475 0.04432134

model.4.bias f4 [24]
000000 74 0c 89 37 f0 9d 6b 36 22 48 d5 36 52 af 0c b7
       1.6337472e-05 3.510966e-06 6.356292e-06 -8.38547e-06
000010 50 8f 30 b4 4c e8 91 b6 26 1f b2 35 8c f6 63 37
       -1.6443414e-07 -4.3483797e-06 1.3271099e-06 1.3587658e-05
000020 70 78 a8 35 e9 4a 9e b6 0c 31 c8 35 1c 7b ab 35
       1.2552027e-06 -4.7174876e-06 1.4915436e-06 1.2776322e-06
000030 8e 58 76 b6 ce 56 cd b6 4d 71 30 36 34 19 d6 b6
       -3.6708402e-06 -6.1195815e-06 2.6291993e-06 -6.380631e-06
000040 08 44 1e b5 50 17 42 b5 78 0f 7c b6 0d 08 09 36
       -5.8958585e-07 -7.2304556e-07 -3.755993e-06 2.0419277e-06
000050 62 35 31 37 e1 75 eb 36 de ce ef b6 50 b4 21 b5
       1.0562451e-05 7.0172687e-06 -7.1468376e-06 -6.0239563e-07

model.5.weight f4 [24]
000000 99 d6 69 3f 71 d2 69 3f fe 51 61 3f 7e 55 6e 3f
       0.91343075 0.91336733 0.88015735 0.930992
000010 6e b1 6b 3f 0a 12 6f 3f f6 fb 6f 3f f1 ff 62 3f
       0.9206761 0.933869 0.93743837 0.88671786
000020 fb 48 65 3f 00 f6 75 3f 4e 61 66 3f 30 24 69 3f
       0.89564484 0.9607849 0.89992225 0.9107084
000030 1b d3 67 3f e4 71 7c 3f d5 78 79 3f 73 1d 68 3f
       0.90556496 0.98611283 0.9745 0.90669936
000040 af 8a 64 3f 9d 6b 73 3f 21 71 71 3f 34 ad 66 3f
       0.89274114 0.9508608 0.94313246 0.90108037
000050 b6 3a 7c 3f 89 e3 7a 3f 34 92 60 3f 44 0a 6d 3f
       0.98527086 0.9800344 0.8772309 0.9259379

model.5.bias f4 [24]
000000 e1 ce d2 bd 18 f0 fb bd 69 21 0c be ac 48 8d 3e
       -0.10293365 -0.123016536 -0.1368462 0.27594507
000010 7f 89 91 3e b3 33 8d 3e b5 06 76 3e 3d 6b 14 be
       0.28425214 0.27578506 0.24025996 -0.14494033
000020 4f 07 dc bd 15 94 8a 3e eb d3 b0 bd 9f 50 eb bd
       -0.107435815 0.27066103 -0.0863417 -0.11489987
000030 b5 48 02 be 48 13 86 3e f6 4a 9e 3e b7 ea a5 bd
       -0.12723048 0.26186585 0.30916566 -0.08101409
000040 e0 1e f6 bd 98 b7 94 3e 89 75 97 3e 94 6f d3 bd
       -0.12017608 0.2904632 0.2958186 -0.10324016
000050 34 4f 95 3e a6 c7 8a 3e 4c a5 f7 bd 94 44 c9 bd
       0.2916199 0.27105445 -0.12092075 -0.09827533

model.5.running_mean f4 [24]
000000 ff 0a c1 bd 11 ad e2 bd 7d 8c 0f be 7f 00 59 3e
       -0.094259255 -0.11068166 -0.14018436 0.21191595
000010 29 ba 6f 3e 4f b6 54 3e 68 a9 42 3e c8 be 08 be
       0.23410858 0.2077267 0.19009936 -0.13354027
000020 42 75 dd bd a7 c5 31 3e 55 a2 c3 bd 36 4e e5 bd
       -0.10813381 0.17360555 -0.09552447 -0.11196558
000030 20 7f ff bd 7f 1e 45 3e 1a 9c 5c 3e 8d 53 b7 bd
       -0.12475419 0.19249915 0.21543923 -0.08951483
000040 19 ac f2 bd 64 91 7e 3e 7a 4d 6a 3e 2f de fb bd
       -0.11849231 0.2486015 0.22881117 -0.122982375
000050 61 c4 68 3e b3 2b 4c 3e 09 73 ed bd ea fe e2 bd
       0.22731163 0.19938545 -0.11594207 -0.11083777

model.5.running_var f4 [24]
000000 46 f0 ed 3e 7c 83 ab 3e a0 85 ed 3e 75 97 0d 3f
       0.46472377 0.33498752 0.4639101 0.5530923
000010 35 1c fb 3e 82 be e4 3e 97 75 09 3f 24 c5 d3 3e
       0.49044958 0.44676596 0.5369505 0.41361344
000020 76 61 ed 3e 00 81 e9 3e 9d f4 11 3f 54 b3 e4 3e
       0.4636342 0.45606232 0.57013875 0.44668067
000030 b6 45 ca 3e a0 5b f0 3e 36 32 c1 3e 42 ff bb 3e
       0.3950631 0.46944904 0.3773362 0.36718184
000040 b6 02 c4 3e 92 e9 06 3f 36 de 04 3f 48 56 04 3f
       0.38283318 0.5270015 0.51901567 0.51694155
000050 cc 00 09 3f b0 da d2 3e 4c d4 da 3e db 4d e0 3e
       0.5351684 0.4118247 0.42740095 0.438094

model.8.weight f4 [2, 24]
000000 f2 d6 32 be 3a 1b cf bd 94 78 11 be 65 ab d3 3e
       -0.17464808 -0.10112615 -0.14206153 0.413417
000010 1b 89 ec 3e bb 18 9d 3e 5e bc e4 3e ca ea 59 be
       0.46198353 0.3068293 0.44674963 -0.21280971
000020 9f 27 4c be 29 df d6 3e fb b0 08 be 93 df 81 be
       -0.19936989 0.41967133 -0.13348763 -0.25365886
000030 4e b2 40 be 18 f1 09 3f 82 31 83 3e 5f 0a 54 be
       -0.18818018 0.53883505 0.2562371 -0.20707081
000040 d0 d9 3f be af e6 d9 3e 53 95 e8 3e f3 d6 2a be
       -0.18735433 0.4255881 0.45426425 -0.16683559
000050 15 42 ce 3e e1 16 b6 3e d6 fd 39 be 91 bd dd bd
       0.40284792 0.3556433 -0.18163237 -0.108271725
000060 95 66 24 3e 37 15 80 3e 38 06 70 3e 07 14 ce be
       0.16054757 0.25016186 0.23439872 -0.40249655
000070 7a ae b9 be 82 28 03 bf d1 77 d2 be df e7 25 3e
       -0.36265928 -0.51233685 -0.41107038 0.16201733
000080 11 59 0d 3e 6d cb c1 be 7d a7 55 3e 88 a2 b1 3d
       0.13803507 -0.37850514 0.20864673 0.086735785
000090 85 a4 36 3e cb 30 8c be 57 dd 0b bf 07 bb f9 3d
       0.17836197 -0.27380976 -0.5463461 0.12193876
0000a0 08 ec 32 3e 0c 92 cc be 3a 95 c1 be 60 dc 38 3e
       0.17472851 -0.39955175 -0.37809163 0.18052816
0000b0 5a 78 ca be b7 9b ed be 5c 41 3b 3e 82 12 70 3e
       -0.39544946 -0.46407863 0.18286651 0.2344456

model.8.bias f4 [2]
000000 af 7d 94 3e 5f 82 c9 be
       0.2900214 -0.39357278
