trained_models/run04.pth (torch, 207943 bytes, 14 tensors)

model.0.weight f4 [48, 1024]
-0.10831881 0.08768474 0.054163422 0.08511433 -0.07111917 -0.099455245 0.011121989 0.004331682
-0.018136801 -0.032449607 0.06015831 -0.042972483 0.055415895 -0.033400897 0.06469939 -0.014123791
0.048033036 -0.045619417 0.040170345 0.023345727 -0.01078295 0.060119692 -0.047660653 0.0015785198
0.11389161 0.031046674 0.041225772 -0.05002675 0.022815425 -0.0860832 0.0018361717 -0.002947325
0.04016777 0.05661443 -0.0918672 -0.029331712 0.013836571 -0.061337493 -0.008518072 -0.064520694
-0.06465107 -0.033926833 -0.054505944 0.072558574 -0.001953362 -0.092606455 -0.048091225 -0.08180384
-0.08127099 0.03586032 0.13496253 0.02588814 0.01647305 0.080333576 -0.04515448 -0.013686563
-0.056707397 -0.027899168 -0.044152915 0.06307345 -0.074399434 -0.039394926 0.017869277 -0.018981025
-0.058264427 -0.06441456 0.13398689 0.02398966 -0.029831156 -0.04405258 0.0612535 0.021584295
-0.08835 0.032801267 -0.05203722 0.013693884 -0.06671632 -0.034753174 -0.13128258 -0.09196383
-0.018086389 0.025991578 -0.052616663 -0.04627243 0.06887205 0.04928227 0.078496635 -0.07604501
-0.09070991 -0.08280166 0.04385591 0.049576357 -0.0036163528 -0.2168237 -0.046853986 0.06879122
0.011285435 -0.039415136 0.04653652 0.059763547 5.4489647e-05 -0.13673396 0.07300336 0.032567002
-0.019333942 -0.008856409 -0.12295833 0.0063379235 0.03608967 0.038693532 0.06699439 0.028899405
-0.03252049 0.016680347 0.033918448 -0.110690765 -0.0038254492 0.001409227 0.00084196904 -0.019043
-0.021995027 0.020157427 -0.0434297 -0.0018944454 0.031805724 0.01041312 0.052388735 0.060298216
0.1196127 -0.021833768 0.0054512145 -0.044903446 0.08691066 0.02636073 -0.0809027 0.092018284
-0.03521765 -0.09192644 -0.011115926 -0.020931767 0.019927388 0.022003327 0.113990255 7.026225e-06
0.06848578 -0.045580775 -0.06728409 0.05890387 0.032394055 0.021399913 0.04131122 -0.058125276
-0.057324808 -0.02541179 -0.083736084 0.048297472 -0.0031970206 -0.063398756 -0.05429646 0.04162429
0.071411476 0.13185905 0.122992195 -0.010525063 0.08920335 -0.080257885 -0.045463897 -0.037865374
-0.076327145 0.1158586 0.074068666 -0.011108225 0.019421518 -0.093274325 0.0068012634 -0.030132981
-0.057791237 -0.0012294422 0.08178997 -0.106822036 0.059677154 -0.000806385 0.11104634 -0.023990313
-0.028698102 0.07887406 0.04051894 0.11592844 -0.004213436 0.115718685 0.024894532 -0.091902085
-0.033432063 0.031127464 -0.012538692 -0.111911274 -0.04964878 0.024788458 0.009550938 -0.017613038
0.02115136 -0.052491784 0.16239162 -0.0012931384 -0.006470654 -0.015666008 -0.10461005 0.0134345405
0.059240803 -0.018902808 -0.034543127 0.04716264 -0.06350577 -0.06034015 0.008085497 0.035635855
-0.01163593 -0.033018485 0.045189418 0.08149373 0.0013464836 -0.046543565 0.109135315 0.025433337
0.046435952 0.015144951 -0.07774067 0.080830045 0.053031627 0.08028517 0.011911228 0.0049980036
0.06272675 0.077415906 -0.044307403 0.030555071 0.051198024 0.057682637 -0.024404576 -0.063580304
-0.11400349 0.0017457327 -0.040519487 0.076719604 -0.03352388 0.014962054 0.14540976 0.03821388
-0.042724684 -0.045889694 -0.041495908 -0.0670265 -0.055008933 0.053320695 0.0411272 -0.08749817
00000000: 41d6 ddbd 0f94 b33d 77da 5d3d 6c50 ae3d
00000010: eda6 91bd 31af cbbd 0139 363c c8f0 8d3b
00000020: a193 94bc e1e9 04bd 8f68 763d ea03 30bd
00000030: c7fb 623d 61cf 08bd 1d81 843d 7967 67bc
00000040: 4abe 443d 6ddb 3abd a989 243d 8a3f bf3c
00000050: f8aa 30bc 1140 763d d137 43bd 56e6 ce3a
00000060: 0140 e93d 9855 fe3c 5bdc 283d d9e8 4cbd
00000070: 6ae7 ba3c 644c b0bd b3ab f03a e827 41bb
00000080: f686 243d 88e4 673d df24 bcbd 0f49 f0bc
00000090: c9b2 623c 063d 7bbd 628f 0bbc 6d23 84bd
000000a0: c867 84bd ddf6 0abd a041 5fbd 9799 943d
000000b0: fa03 00bb 74a8 bdbd 4efb 44bd c688 a7bd
000000c0: 6871 a6bd 45e2 123d 9e33 0a3e 5d13 d43c
000000d0: 7df2 863c ee85 a43d e7f3 38bd 9b3d 60bc
000000e0: 0446 68bd cc8c e4bc b0d9 34bd a72c 813d
000000f0: bb5e 98bd 935c 21bd 9762 923c 187e 9bbc
00000100: aea6 6ebd c8eb 83bd dc33 093e f785 c43c
00000110: 7860 f4bc 7a70 34bd f3e4 7a3d 8cd1 b03c
00000120: d8f0 b4bd 9f5a 063d fb24 55bd 505c 603c
00000130: 91a2 88bd 5859 0ebd f16e 06be 8857 bcbd
00000140: e829 94bc 4aec d43c 9284 57bd 2988 3dbd
00000150: ca0c 8d3d 35dc 493d d8c2 a03d 7cbd 9bbd
00000160: 1ec6 b9bd eb93 a9bd 41a2 333d 9410 4b3d
00000170: 5500 6dbb 0807 5ebe f7e9 3fbd 69e2 8c3d
00000180: 8ce6 383c c471 21bd 149d 3e3d 9fca 743d
00000190: d08b 6438 fd03 0cbe c982 953d fa64 053d
000001a0: 3762 9ebc 791a 11bc 94d1 fbbd 5bae cf3b
000001b0: c3d2 133d 1c7d 1e3d 5b34 893d 72be ec3c
000001c0: 3534 05bd 39a5 883c 12ee 0a3d d7b1 e2bd
000001d0: 63b4 7abb d0b5 b83a 96b7 5c3a 1100 9cbc
000001e0: ea2e b4bc 3021 a53c 57e3 31bd 0a4f f8ba
000001f0: b846 023d ca9b 2a3c 9295 563d 43fb 763d
00000200: 81f7 f43d bbdc b2bc 1aa0 b23b adec 37bd
00000210: 37fe b13d 75f2 d73c 51b0 a5bd 1574 bc3d
00000220: 6240 10bd ee43 bcbd 931f 36bc 1979 abbc
00000230: c33e a33c 5240 b43c b973 e93d d0c2 eb36
00000240: 4642 8c3d e8b2 3abd 3ecc 89bd 2f45 713d
00000250: a1af 043d df4e af3c f435 293d c514 6ebd
00000260: 6bcd 6abd 632c d0bc d37d abbd 92d3 453d
00000270: 1b85 51bb 35d7 81bd f765 5ebd 3b7e 2a3d
00000280: 2e40 923d 0f06 073e 55e3 fb3d 5071 2cbc
00000290: 3fb0 b63d 3f5e a4bd 5a38 3abd b918 1bbd
000002a0: 6851 9cbd 4647 ed3d 50b1 973d 46ff 35bc
000002b0: e019 9f3c 9c06 bfbd 22dd de3b 71d9 f6bc
000002c0: 81b6 6cbd 3c25 a1ba 8081 a73d 83c5 dabd
000002d0: 0870 743d 9563 53ba 436c e33d 5587 c4bc
000002e0: 4818 ebbc b988 a13d 30f7 253d e46b ed3d
000002f0: dd10 8abb ebfd ec3d 9eef cb3c 2937 bcbd
00000300: 0ff0 08bd 06ff fe3c 166f 4dbc bd31 e5bd
00000310: 855c 4bbd 2a11 cb3c 8a7b 1c3c 3849 90bc
00000320: 9e45 ad3c a001 57bd fd49 263e 867e a9ba
00000330: c807 d4bb 0056 80bc cb3d d6bd 8c1c 5c3c
00000340: 7ca6 723d 10da 9abc 187d 0dbd 9d2d 413d
00000350: 500f 82bd 3c27 77bd 0879 043c e7f6 113d
00000360: a1a4 3ebc 643e 07bd 8a18 393d 2fe6 a63d
00000370: 7e7c b03a 77a4 3ebd 5682 df3d 9359 d03c
00000380: a033 3e3d 8722 783c 8036 9fbd 398a a53d
00000390: b137 593d 8d6c a43d 5027 433c 4bc6 a33b
000003a0: e276 803d 3b8c 9e3d ae7b 35bd a14e fa3c
000003b0: 05b5 513d a144 6c3d 1bec c7bc 6436 82bd
000003c0: a97a e9bd 12d1 e43a c3f7 25bd 2b1f 9d3d
000003d0: 5650 09bd 6723 753c 4ce6 143e 2886 1c3d
000003e0: 1400 2fbd d5f6 3bbd 9df7 29bd 3145 89bd
000003f0: 0c51 61bd cd66 5a3d ff74 283d 3e32 b3bd

model.0.bias f4 [48]
-1.8442777e-05 0.00020643671 -0.00025596537 0.0001777676 -2.4998524e-05 -9.456823e-05 -9.094585e-05 -4.0418177e-05
0.00011543356 0.00014910173 0.00013249062 -0.00021198556 1.4441077e-05 -2.596444e-05 -0.00011640097 0.00012602935
8.7931876e-05 0.00045330747 3.4710915e-06 -7.044151e-05 3.7714526e-05 -3.772906e-05 7.769451e-05 -0.00017980326
-0.00012467874 0.00016073689 -0.00018336021 7.26183e-05 0.00016553092 -0.00010338158 -9.463666e-05 4.0155355e-06
0.00029688436 -8.770299e-05 4.343545e-05 -9.592708e-06 7.0610025e-05 0.00012347335 -4.7102476e-05 -2.3094646e-05
1.38748055e-05 -0.00019074808 -9.242142e-06 -4.4681838e-07 9.623771e-05 -9.350416e-05 0.00011481153 5.0173352e-05
00000000: 90b5 9ab7 ef76 5839 1733 86b9 2067 3a39
00000010: ecb3 d1b7 ef52 c6b8 2eba beb8 b086 29b8
00000020: ec14 f238 3158 1c39 2eed 0a39 7148 5eb9
00000030: f447 7237 36ce d9b7 4b1c f4b8 bf26 0439
00000040: 1168 b838 e6a9 ed39 e6f0 6836 ffb9 93b8
00000050: aa2f 1e38 453f 1eb8 ecef a238 9289 3cb9
00000060: 32bc 02b9 7b8b 2839 6244 40b9 a74a 9838
00000070: 5e92 2d39 90ce d8b8 ac77 c6b8 30bd 8636
00000080: 25a7 9b39 2fed b7b8 762e 3638 5ef0 20b7
00000090: 7814 9438 a078 0139 e68f 45b8 60bb c1b7
000000a0: d6c7 6837 8c03 48b9 b30e 1bb7 40e2 efb4
000000b0: 3ad3 c938 aa17 c4b8 f9c6 f038 3a71 5238

model.1.weight f4 [48]
0.43465105 0.39894453 0.39568537 0.43359268 0.44263488 0.41866505 0.41936928 0.43964458
0.44129848 0.38545004 0.38617912 0.42877814 0.4306285 0.43335062 0.38822928 0.40331826
0.40293387 0.38674292 0.42607015 0.36747313 0.4218762 0.40622073 0.43284672 0.42119595
0.44485974 0.4440741 0.4095971 0.4061528 0.40902448 0.40489668 0.4105826 0.33810222
0.435872 0.43757042 0.41876802 0.39700866 0.44074905 0.45560205 0.40488213 0.4429203
0.44246408 0.43544403 0.40196097 0.3750122 0.41262308 0.43235326 0.38694158 0.4228165
00000000: 958a de3e 7542 cc3e 4697 ca3e dcff dd3e
00000010: 0aa1 e23e 445b d63e 92b7 d63e 1819 e13e
00000020: e0f1 e13e b559 c53e 45b9 c53e cf88 db3e
00000030: 577b dc3e 22e0 dd3e fdc5 c63e bb7f ce3e
00000040: 594d ce3e 2b03 c63e de25 da3e 7025 bc3e
00000050: 2800 d83e 2afc cf3e 169e dd3e ffa6 d73e
00000060: a8c4 e33e ae5d e33e b6b6 d13e 43f3 cf3e
00000070: a86b d13e 9e4e cf3e e237 d23e bc1b ad3e
00000080: 9d2a df3e 3b09 e03e c368 d63e b844 cb3e
00000090: dca9 e13e ac44 e93e b64c cf3e 73c6 e23e
000000a0: a78a e23e 85f2 de3e d4cd cd3e 9901 c03e
000000b0: 5543 d33e 685d dd3e 351d c63e 677b d83e

model.1.bias f4 [48]
-0.28613448 -0.492774 -0.4322076 -0.21488866 -0.19030368 -0.23750891 -0.51806206 -0.24315901
-0.43526673 -0.46805346 -0.48126873 -0.44439483 -0.48908886 -0.47909918 -0.4436667 -0.45130885
-0.43552923 -0.4744497 -0.21263541 -0.44937345 -0.44040972 -0.43406543 -0.45439556 -0.48540136
-0.26176873 -0.21444409 -0.20710215 -0.4350546 -0.5009936 -0.45295754 -0.28512368 -0.44372782
-0.43278334 -0.2794994 -0.46957138 -0.47128037 -0.20884258 -0.31888062 -0.23444799 -0.2257602
-0.22165208 -0.2573767 -0.21530184 -0.4636903 -0.20016281 -0.23238951 -0.487444 -0.20358482
00000000: 3880 92be e04c fcbe 514a ddbe c60b 5cbe
00000010: f8de 42be 8935 73be b79f 04bf adfe 78be
00000020: 48db debe b4a4 efbe db68 f6be b887 e3be
00000030: db69 fabe 7d4c f5be 4828 e3be f411 e7be
00000040: b0fd debe 12eb f2be 19bd 59be 4714 e6be
00000050: 627d e1be d33d debe 89a6 e8be 8786 f8be
00000060: 8d06 86be 3b97 5bbe 9612 54be 7abf debe
00000070: 1e41 00bf 0dea e7be bbfb 91be 4b30 e3be
00000080: c795 ddbe 8c1a 8fbe a96b f0be a94b f1be
00000090: d4da 55be 5244 a3be 2213 70be af2d 67be
000000a0: c3f8 62be e1c6 83be 1678 5cbe d168 edbe
000000b0: 7bf7 4cbe 84f7 6dbe 4392 f9be 8a78 50be

model.1.running_mean f4 [48]
-0.06352307 0.10025475 0.06376442 0.008131615 0.050460592 -0.0030064923 0.09149765 -0.029097421
0.061893605 0.06312031 0.059551533 0.041178897 0.04022216 0.003818756 0.1335213 0.055617165
0.05553076 0.123975135 0.015484661 0.04657785 0.0783739 0.0628727 0.0278117 0.08726177
0.0023853334 0.10368746 0.06813405 0.10272384 0.01889528 0.037932564 0.01327673 0.123372346
0.057294566 0.009967333 0.05554703 0.028070737 0.010826687 0.07260604 0.057820775 0.07070054
-0.033031616 0.09061059 0.038143184 0.081959814 0.13616052 0.069768816 0.0070589655 0.06457687
00000000: 6218 82bd 5d52 cd3d ec96 823d 773a 053c
00000010: c4af 4e3d 9208 45bb 1f63 bb3d b75d eebc
00000020: 2684 7d3d 3945 813d 4fec 733d 34ab 283d
00000030: febf 243d 1844 7a3b cfb9 083e d3ce 633d
00000040: 3974 633d ade6 fd3d 60b3 7d3c 6ac8 3e3d
00000050: 7f82 a03d 67c3 803d 5dd5 e33c 4db6 b23d
00000060: 4153 1c3b 175a d43d dd89 8b3d e060 d23d
00000070: 46ca 9a3c 2d5f 1b3d a486 593c a4aa fc3d
00000080: b5ad 6a3d 064e 233c 4885 633d 9af4 e53c
00000090: 6b62 313c 7ab2 943d 7ad5 6c3d 72cb 903d
000000a0: 294c 07bd 0c92 b93d 073c 1c3d 8cda a73d
000000b0: aa6d 0b3e f4e2 8e3d e54e e73b e140 843d

model.1.running_var f4 [48]
0.0015014434 0.001142189 0.0013837201 0.0014486599 0.0019033398 0.0018464848 0.0014089056 0.0017535519
0.0013426824 0.0015727099 0.001204548 0.0014408362 0.0012922218 0.0015099489 0.00154548 0.0016533674
0.0017378704 0.0012678434 0.0018995117 0.0012591914 0.0012788263 0.0013886439 0.0013532813 0.0017844803
0.001496416 0.0016215354 0.0021677047 0.001404634 0.0011774809 0.001304381 0.0016854897 0.0011586824
0.001319985 0.0016833681 0.001681953 0.0018480254 0.0015728984 0.002091173 0.001619327 0.0019612918
0.002061182 0.0015063466 0.0018129961 0.001085685 0.0017419985 0.0019261668 0.0015410326 0.0019354739
00000000: 15cc c43a 81b5 953a f15d b53a f6e0 bd3a
00000010: 7c79 f93a c005 f23a 07ab b83a 70d7 e53a
00000020: f2fc af3a 6323 ce3a ede1 9d3a 71da bc3a
00000030: c55f a93a 7ae9 c53a b491 ca3a ceb5 d83a
00000040: 41c9 e33a c42d a63a 09f9 f83a 740b a53a
00000050: 4a9e a73a 2803 b63a 9660 b13a 39e5 e93a
00000060: 6423 c43a b389 d43a 0d10 0e3b b21b b83a
00000070: b455 9a3a c3f7 aa3a a6eb dc3a eede 973a
00000080: 5903 ad3a 76a4 dc3a fa74 dc3a 7139 f23a
00000090: b629 ce3a 100c 093b 993f d43a 0489 003b
000000a0: e514 073b 9b70 c53a 0ea2 ed3a 8b4d 8e3a
000000b0: c553 e43a 6f77 fc3a 79fc c93a baaf fd3a

model.4.weight f4 [24, 48]
-0.016802642 0.11196594 0.11225854 -0.03903909 -0.020496313 -0.044933617 0.16167106 -0.029992545
0.1134495 0.116232574 0.12291589 0.09885264 0.121653065 0.08005925 0.09406641 0.09413396
0.11068481 0.11738499 -0.04926706 0.09912441 0.12643261 0.11117353 0.11459527 0.08394246
-0.036506694 -0.010281929 -0.0017982274 0.12344422 0.08257995 0.093888305 -0.031224804 0.09834367
0.080284804 -0.026528578 0.07338414 0.09955315 -0.01568336 -0.026666962 -0.037853807 -0.024974257
-0.02920487 -0.041130107 -0.032110862 0.11387995 -0.026466336 -0.029416872 0.101156965 -0.038831435
-0.02801705 0.09375441 0.12888765 -0.047189746 -0.045160435 -0.043004252 0.08631791 -0.046983074
0.10800693 0.11938989 0.14368135 0.1234784 0.089762986 0.1154205 0.11905006 0.098581076
0.09933522 0.110320956 -0.030963907 0.10029833 0.09598287 0.0802913 0.073256984 0.090787865
-0.046161193 -0.06113663 -0.016685931 0.076181106 0.0923558 0.08889326 -0.06654404 0.07377821
0.08375059 -0.09079076 0.0490974 0.081875235 -0.036668446 -0.07203164 -0.061782744 -0.08755618
-0.02543074 -0.02082056 -0.043855686 0.14071909 -0.053028606 -0.038933147 0.086301066 -0.03443771
-0.025235955 0.12293637 0.09170744 -0.0130705545 -0.043322727 -0.045579474 0.104024634 -0.01781571
0.118186034 0.113253236 0.1140408 0.091954835 0.096476145 0.09970835 0.10278417 0.09188289
0.12080176 0.09720556 -0.030616043 0.110512555 0.08843931 0.08726522 0.07976395 0.09415121
-0.060797714 -0.05970318 -0.01492628 0.09411161 0.11565274 0.08998518 -0.055858497 0.13072796
0.07746664 -0.04310453 0.07190622 0.12500903 -0.030739501 -0.06769226 -0.05892213 -0.064026795
-0.023503443 -0.03967782 -0.03427124 0.09619161 -0.045766875 -0.017197814 0.11988025 -0.021712916
0.124991424 -0.0585187 -0.049303606 0.09528506 0.11175334 0.07464348 -0.033137493 0.10276979
-0.07016278 -0.027110063 -0.023316756 -0.023601852 -0.040040333 -0.038035195 -0.050913453 -0.0667384
-0.09155462 -0.066895075 0.11066461 -0.06019038 -0.030018274 -0.07053032 -0.018093478 -0.053010106
0.11980596 0.09827503 0.10989439 -0.06045272 -0.031586315 -0.055009667 0.09698047 -0.06524486
-0.06777645 0.074869536 -0.05026663 -0.040782236 0.0833859 0.11581783 0.13714957 0.09810457
0.07505544 0.09940445 0.1049435 -0.040166322 0.108227946 0.12984271 -0.02983098 0.09601062
0.11012756 -0.056338433 -0.042970367 0.113746665 0.106118254 0.116622776 -0.026660956 0.09035395
-0.038074 -0.032890048 -0.013438376 -0.039647333 -0.03634504 -0.06171475 -0.045130372 -0.032140303
-0.009038613 -0.029441485 0.11376588 -0.04211017 -0.030717447 -0.03507894 -0.034409374 -0.038223192
0.12834705 0.10459447 0.08910043 -0.04208948 -0.06679761 -0.01959512 0.100987695 -0.058630686
-0.039930858 0.12019527 -0.07117386 -0.0592567 0.15327077 0.095286526 0.07601134 0.10135126
0.09961027 0.10929223 0.09632381 -0.038946606 0.077828474 0.12159505 -0.0614462 0.11886313
0.096835904 -0.060125317 -0.1008969 0.081739604 0.07183455 0.0763606 -0.018271387 0.05922587
-0.055974573 -0.0080065485 -0.06854879 -0.0550834 -0.035273224 -0.047230437 -0.03203461 -0.048065018
00000000: b2a5 89bc 664e e53d cee7 e53d 74e7 1fbd
00000010: e2e7 a7bc 500c 38bd 198d 253e edb2 f5bc
00000020: 3658 e83d 580b ee3d 53bb fb3d 4173 ca3d
00000030: 3e25 f93d 1bf6 a33d e4a5 c03d 4ec9 c03d
00000040: b8ae e23d 8b67 f03d 42cc 49bd bd01 cb3d
00000050: 8d77 013e f3ae e33d edb0 ea3d 06ea ab3d
00000060: 0b88 15bd 8975 28bc 80b2 ebba 53d0 fc3d
00000070: ad1f a93d 8348 c03d 29cb ffbc 6868 c93d
00000080: 5c6c a43d 7652 d9bc 6d4a 963d 86e2 cb3d
00000090: 647a 80bc ac74 dabc 980c 1bbd d096 ccbc
000000a0: 0d3f efbc 0b78 28bd ae86 03bd e439 e93d
000000b0: eecf d8bc a7fb f0bc 622b cf3d b60d 1fbd
000000c0: 0384 e5bc 5002 c03d 20fb 033e 094a 41bd
000000d0: 26fa 38bd 3a25 30bd 72c7 b03d 5371 40bd
000000e0: bd32 dd3d b082 f43d 3421 133e 3ee2 fc3d
000000f0: a8d5 b73d 9561 ec3d 85d0 f33d e0e4 c93d
00000100: 4470 cb3d f4ef e13d 05a8 fdbc 3669 cd3d
00000110: ab92 c43d c46f a43d c207 963d fdee b93d
00000120: 8513 3dbd 676a 7abd efb0 88bc d704 9c3d
00000130: 0a25 bd3d ab0d b63d 3e48 88bd 0819 973d
00000140: 6e85 ab3d 82f0 b9bd 5b1a 493d 34ae a73d
00000150: a731 16bd 5385 93bd e70f 7dbd a850 b3bd
00000160: 2154 d0bc e18f aabc 05a2 33bd aa18 103e
00000170: 8634 59bd 5d78 1fbd 9dbe b03d 8e0e 0dbd
00000180: a2bb cebc 10c6 fb3d 1cd1 bb3d e125 56bc
00000190: 2c73 31bd 8bb1 3abd de0a d53d 40f2 91bc
000001a0: 850b f23d 50f1 e73d 398e e93d d152 bc3d
000001b0: 4995 c53d e433 cc3d 8280 d23d 192d bc3d
000001c0: ea66 f73d b513 c73d 7fce fabc 6854 e23d
000001d0: ab1f b53d 1cb8 b23d 485b a33d 59d2 c03d
000001e0: 0607 79bd 528b 74bd 5b8d 74bc 96bd c03d
000001f0: 58db ec3d 264a b83d e1cb 64bd 8ddd 053e
00000200: d4a6 9e3d 608e 30bd 9143 933d 5e02 003e
00000210: 68d1 fbbc 3da2 8abd 5558 71bd 7b20 83bd
00000220: 4b8a c0bc 3685 22bd 0060 0cbd 1b00 c53d
00000230: 0c76 3bbd 6ee2 8cbc c783 f53d 49df b1bc
00000240: 81fb ff3d 4eb1 6fbd 94f2 49bd d024 c33d
00000250: efde e43d aede 983d 2ebb 07bd f878 d23d
00000260: 81b1 8fbd ec15 debc c802 bfbc ac58 c1bc
00000270: 5501 24bd cbca 1bbd a08a 50bd 24ae 88bd
00000280: fd80 bbbd 4900 89bd 21a4 e23d 308a 76bd
00000290: e2e8 f5bc 3372 90bd c638 94bc 2021 59bd
000002a0: d45c f53d 6b44 c93d 4f10 e13d 459d 77bd
000002b0: a760 01bd d151 61bd b29d c63d 199f 85bd
000002c0: 61ce 8abd 3355 993d 62e4 4dbd 460b 27bd
000002d0: 3ac6 aa3d e631 ed3d f070 0c3e 0ceb c83d
000002e0: abb6 993d 8f94 cb3d 9eec d63d 7185 24bd
000002f0: 9da6 dd3d 7df5 043e 1960 f4bc 37a1 c43d
00000300: 8f8a e13d 21c3 66bd b201 30bd 03f4 e83d
00000310: 8754 d93d ecd7 ee3d 1468 dabc 7e0b b93d
00000320: 7cf3 1bbd b7b7 06bd a22c 5cbc 3e65 22bd
00000330: 89de 14bd 9bc8 7cbd a0da 38bd 8da5 03bd
00000340: b116 14bc 452f f1bc 16fe e83d b77b 2cbd
00000350: 28a3 fbbc efae 0fbd d8f0 0cbd ec8f 1cbd
00000360: 696d 033e a035 d63d 497a b63d 0566 2cbd
00000370: 2fcd 88bd f285 a0bc a3d2 ce3d bb26 70bd
00000380: 8a8e 23bd f028 f63d 9ac3 91bd 27b7 72bd
00000390: 03f3 1c3e 9525 c33d d5ab 9b3d 4091 cf3d
000003a0: 7800 cc3d 9bd4 df3d 6b45 c53d 7a86 1fbd
000003b0: 8964 9f3d d306 f93d 03af 7bbd 836e f33d
000003c0: e751 c63d f745 76bd 09a3 cebd 1867 a73d
000003d0: fe1d 933d f262 9c3d e0ad 95bc d396 723d
000003e0: 9845 65bd e62d 03bc 4f63 8cbd 229f 61bd
000003f0: a87a 10bd b474 41bd b936 03bd d3df 44bd

model.4.bias f4 [24]
-9.004961e-06 6.0985803e-06 -4.761668e-06 -1.7234343e-05 8.7170425e-05 0.00017302694 -5.3217267e-05 -2.080289e-05
-8.01466e-06 4.6601726e-06 -2.2265413e-05 -3.2796994e-05 -1.0634416e-05 6.082842e-05 4.7755246e-05 -5.978327e-07
1.3376361e-05 8.137757e-06 -5.8972764e-05 5.1805546e-07 -3.1596624e-05 3.632644e-05 -4.015448e-05 2.0915857e-05
00000000: 0314 17b7 68a2 cc36 6bc6 9fb6 7892 90b7
00000010: 44cf b638 916e 3539 9b35 5fb8 de81 aeb7
00000020: b476 06b7 945e 9c36 9cc6 bab7 818f 09b8
00000030: 786a 32b7 0522 7f38 ce4c 4838 c07a 20b5
00000040: 086b 6037 6687 0837 8659 77b8 8010 0b35
00000050: 9e86 04b8 385d 1838 8b6b 28b8 7674 af37

model.5.weight f4 [24]
0.5769346 0.5929075 0.56661344 0.62062156 0.64228433 0.6337494 0.6264321 0.5890199
0.566993 0.6372079 0.56417775 0.56533355 0.57041997 0.6400049 0.6279403 0.5862254
0.5686439 0.63946986 0.62837183 0.5741955 0.63658154 0.6271287 0.5860287 0.5644091
00000000: fcb1 133f c9c8 173f 940d 113f 0ee1 1e3f
00000010: bf6c 243f 673d 223f db5d 203f 02ca 163f
00000020: 7426 113f 0f20 233f f46d 103f b3b9 103f
00000030: 0b07 123f 5cd7 233f b2c0 203f de12 163f
00000040: a692 113f 4cb4 233f fadc 203f 7afe 123f
00000050: 02f7 223f 828b 203f fa05 163f 1d7d 103f

model.5.bias f4 [24]
0.045473825 -0.011766903 0.027873572 0.31337348 0.3142493 0.2969375 0.29824695 -0.013199551
0.01344877 0.28417498 0.036973223 0.020683153 0.024697984 0.29397768 0.30983207 -0.019429276
0.022143709 0.30577567 0.3210662 0.0029317907 0.3086027 0.3003665 0.0048547015 -0.000616512
00000000: c342 3a3d f8c9 40bc 1e57 e43c 7d72 a03e
00000010: 49e5 a03e 3108 983e d3b3 983e ee42 58bc
00000020: 3b58 5c3c 627f 913e 3c71 173d b76f a93c
00000030: 6d53 ca3c 3e84 963e 4fa2 9e3e 252a 9fbc
00000040: b966 b53c a18e 9c3e ca62 a43e 4923 403b
00000050: 2c01 9e3e a3c9 993e 3014 9f3b 6c9d 21ba

model.5.running_mean f4 [24]
0.0373869 0.00018060033 0.0176123 0.13055868 0.14733359 0.1295219 0.13792132 0.019854061
0.02182305 0.13859946 0.03186259 0.014646378 0.014234439 0.14493325 0.14312866 0.008915767
0.0066245007 0.1357956 0.145637 0.021345204 0.13295524 0.1548845 0.027585797 0.028785864
00000000: 0223 193d 885f 3d39 ac47 903c 2db1 053e
00000010: 9ede 163e 64a1 043e 3f3b 0d3e fca4 a23c
00000020: 41c6 b23c 04ed 0d3e 5982 023d 5df7 6f3c
00000030: 9037 693c 6269 143e 5290 123e 7013 123c
00000040: 5712 d93b 000e 0b3e de21 153e 23dc ae3c
00000050: 6b25 083e 0b9a 1e3e 9cfb e13c 55d0 eb3c

model.5.running_var f4 [24]
0.052329566 0.058754027 0.054846603 0.084408864 0.0865663 0.07700875 0.08133381 0.056730226
0.051869765 0.08303338 0.054762263 0.05394608 0.05675715 0.08254333 0.08356538 0.06114824
0.057633415 0.08127021 0.08205206 0.055588134 0.08621247 0.087841585 0.05202622 0.050088562
00000000: 8757 563d 10a8 703d d5a6 603d 8ede ac3d
00000010: ac49 b13d c3b6 9d3d 5792 a63d f45d 683d
00000020: 6475 543d 680d aa3d 654e 603d 91f6 5c3d
00000030: 2f7a 683d 7a0c a93d 5324 ab3d 9476 7a3d
00000040: 0411 6c3d ff70 a63d e90a a83d 62b0 633d
00000050: 2a90 b03d 4ae6 b33d 7219 553d aa29 4d3d

model.8.weight f4 [2, 24]
-0.3500292 -0.3181826 -0.31843877 0.5015214 0.5262817 0.46723446 0.5065539 -0.35720703
-0.34746462 0.4718749 -0.32201707 -0.36220327 -0.33613068 0.50415206 0.46751794 -0.3568387
-0.33626166 0.4952885 0.51099855 -0.33279157 0.5014403 0.47968337 -0.34860218 -0.30225182
0.34425917 0.37720004 0.3559453 -0.50008285 -0.51352996 -0.49421874 -0.5019499 0.3370006
0.32294488 -0.46652353 0.35310107 0.29450336 0.332187 -0.470863 -0.5064577 0.32312852
0.3311672 -0.4920451 -0.50088936 0.33822784 -0.50050235 -0.49330693 0.34909114 0.35335836
00000000: 0737 b3be d4e8 a2be 680a a3be b563 003f
00000010: 66ba 063f 5b39 ef3e 84ad 013f d7e3 b6be
00000020: e2e6 b1be 9699 f13e 6cdf a4be b572 b9be
00000030: 5219 acbe 1c10 013f 835e ef3e 90b3 b6be
00000040: 7d2a acbe 7496 fd3e cdd0 023f a863 aabe
00000050: 645e 003f 0f99 f53e fc7b b2be c0c0 9abe
00000060: bd42 b03e 5d20 c13e 763e b63e 6e05 00bf
00000070: b376 03bf 3d0a fdbe ca7f 00bf 588b ac3e
00000080: 0859 a53e 2cdc eebe aac9 b43e 25c9 963e
00000090: 6a14 aa3e f514 f1be 36a7 01bf 1a71 a53e
000000a0: bf8e a93e 56ed fbbe 493a 00bf 332c ad3e
000000b0: ec20 00bf ba92 fcbe 13bc b23e 63eb b43e

model.8.bias f4 [2]
0.36858204 -0.4464471
00000000: c9b6 bc3e b794 e4be
