trained_models/run01.pth (torch, 207943 bytes, 14 tensors)

model.0.weight f4 [48, 1024]
0.08636035 0.06689303 0.07767625 0.1580069 -0.20147564 0.080482155 0.10714962 0.3041954
-0.124732375 0.0761806 0.09366335 -0.03765509 0.1455519 0.27455455 -0.055483926 0.058478277
-0.09760297 -0.030985374 0.10045876 -0.29976353 -0.013783193 0.069317035 -0.07875737 -0.08399429
-0.088883236 -0.017730799 0.19928649 0.25168374 0.10532328 -0.09875675 0.2859944 -0.17546166
0.19044755 0.05647356 -0.06063335 -0.15687199 0.09502283 0.1664153 0.0732071 -0.15222988
0.29386404 -0.076105915 -0.06853483 -0.24050173 0.1561603 0.036230285 0.44775513 0.049699582
-0.016191691 -0.24062885 0.008857568 0.06837992 0.064120755 -0.06401357 0.13396236 0.16454631
-0.056858737 -0.035580084 0.1117234 -0.02891932 -0.12785062 -0.15071699 0.19993988 0.0033432231
0.10762678 0.07012647 0.09137233 -0.001908528 -0.12056512 0.108151615 0.16156247 -0.0139611
0.0725075 0.0069235684 0.02614887 0.04828873 -0.058780383 0.08253826 -0.09493305 0.074939266
-0.021655524 -0.16506739 -0.052197557 0.15830468 0.23773304 -0.051524922 0.27002358 0.032346025
0.018544765 0.20149128 -0.1954752 0.03235113 -0.032713242 0.10036506 0.049447667 0.05267951
0.21395616 0.14625537 -0.17113739 0.21206416 -0.07642346 -0.099525824 -0.15393905 0.074363545
0.0076006823 0.13623582 -0.13779919 -0.075809285 -0.1831294 -0.087202415 0.056982115 -0.09676999
0.08352831 0.06284509 0.0012369305 -0.15370585 0.035483774 -0.07317409 -0.010277639 -0.3285912
0.03384193 0.16653202 0.19798796 -0.17040573 -0.09517868 0.019421618 -0.18712172 0.011739997
-0.1130612 -0.07958075 -0.11722918 -0.11218164 -0.060181618 0.05819815 -0.03725361 -0.08818157
0.041672934 -0.14380518 0.24752778 -0.23437412 -0.007220852 -0.15845297 0.04631063 -0.13461563
-0.17258255 -0.0134924725 0.1535806 -0.1455628 -0.04328709 -0.037383165 0.01373992 -0.028776392
0.057295166 0.05120234 0.19634126 0.012054464 0.10651052 -0.17440586 -0.07963689 0.0050577484
-0.17594796 -0.014738063 -0.19654529 -0.15951167 -0.074678324 -0.17734526 -0.1068621 0.0052539967
-0.007067606 0.20896584 0.08576093 0.18576697 0.28279158 -0.04316884 -0.13802251 0.17535335
-0.06633409 0.03326736 -0.19600506 0.094478756 -0.09296906 -0.047167704 0.2590571 0.14812556
0.22841002 0.021870127 -0.011299604 -0.098685086 0.13327627 0.13204385 0.089426436 0.05158769
0.047026258 -0.11862073 -0.0072564525 -0.14050561 0.2102856 -0.18098092 0.13537486 0.061356835
-0.08228962 -0.1543035 -0.10001979 -0.041059278 0.07149359 -0.14551647 0.11210882 -0.06606722
-0.018090943 0.026684098 0.049618427 0.16667983 0.15838578 -0.08511732 -0.04006379 -0.04567254
-0.053783435 -0.03486987 0.06667973 0.066892885 0.07004532 0.011484543 0.009896123 0.09388011
-0.048154064 0.0014814477 0.041085556 -0.05496914 0.09716584 -0.036121037 0.0439706 -0.00782463
0.09612874 -0.047643974 -0.01826243 -0.12518975 0.14452152 0.15461543 -0.055335905 0.03391617
0.08342238 0.1158864 -0.00033025598 -0.15615082 0.112132765 -0.022559656 -0.12117357 -0.11912214
-0.35434917 -0.11028358 0.077566005 -0.15084276 -0.034421638 0.36920246 -0.06944274 -0.06683462
00000000: b2dd b03d 37ff 883d ba14 9f3d 90cc 213e
00000010: a14f 4ebe d4d3 a43d 4371 db3d 80bf 9b3e
00000020: b073 ffbd 9304 9c3d 92d2 bf3d 393c 1abd
00000030: 8f0b 153e 6a92 8c3e 1d43 63bd eb86 6f3d
00000040: 11e4 c7bd 0ad5 fdbc 53bd cd3d 9b7a 99be
00000050: e7d2 61bc 17f6 8d3d 8b4b a1bd 3305 acbd
00000060: 6a08 b6bd 2e40 91bc c211 4c3e b1dc 803e
00000070: bbb3 d73d fb40 cabd dc6d 923e 39ac 33be
00000080: af04 433e d250 673d ad5a 78bd 0da3 20be
00000090: 549b c23d c668 2a3e 9bed 953d 26e2 1bbe
000000a0: 5975 963e 6bdd 9bbd fd5b 8cbd 1646 76be
000000b0: 7ce8 1f3e 3566 143d 2940 e53e ca91 4b3d
000000c0: 70a4 84bc 6967 76be 551f 113c c60a 8c3d
000000d0: be51 833d 8c19 83bd 6e2d 093e d47e 283e
000000e0: b5e4 68bd 6cbc 11bd 3dcf e43d 36e8 ecbc
000000f0: 46eb 02be 8e55 1abe 0abd 4c3e fa19 5b3b
00000100: 6e6b dc3d 779e 8f3d 6b21 bb3d 9327 faba
00000110: d8ea f6bd 987e dd3d a270 253e 19bd 64bc
00000120: d07e 943d 1adf e23b 2836 d63c 67ca 453d
00000130: b3c3 70bd d209 a93d 426c c2bd c279 993d
00000140: ed66 b1bc 6d07 29be 1bcd 55bd 9f1a 223e
00000150: 4a70 733e cc0b 53bd 8840 8a3e 447d 043d
00000160: 31eb 973c bb53 4e3e a72a 48be 9e82 043d
00000170: 52fe 05bd 328c cd3d a389 4a3d 78c6 573d
00000180: 5317 5b3e f8c3 153e a43e 2fbe 5927 593e
00000190: e783 9cbd 32d4 cbbd 33a2 1dbe ea4b 983d
000001a0: 250f f93b 6781 0b3e 3b1b 0dbe e641 9bbd
000001b0: 4686 3bbe 2e97 b2bd 1466 693d 582f c6bd
000001c0: e410 ab3d edb4 803d 8020 a23a 1165 1dbe
000001d0: 6f57 113d 4cdc 95bd 8b63 28bc 1b3d a8be
000001e0: d69d 0a3d 5f87 2a3e 5bbd 4a3e d77e 2ebe
000001f0: 0aed c2bd 161a 9f3c d69c 3fbe 1e59 403c
00000200: a18c e7bd 3bfb a2bd da15 f0bd 7dbf e5bd
00000210: 0081 76bd 2f61 6e3d 3e97 18bd 8a98 b4bd
00000220: 3db1 2a3d aa41 13be ec77 7d3e c5ff 6fbe
00000230: e69c ecbb 7f41 22be 37b0 3d3d aed8 09be
00000240: 7bb9 30be 880f 5dbc 3c44 1d3e 6a0e 15be
00000250: ce4d 31bd 171f 19bd 671d 613c 78bc ebbc
00000260: 56ae 6a3d 8bb9 513d af0d 493e 1680 453c
00000270: 3022 da3d 7397 32be aa18 a3bd 78bb a53b
00000280: b42b 34be eb77 71bc 2b43 49be 0757 23be
00000290: f3f0 98bd ff99 35be 84da dabd b829 ac3b
000002a0: 6097 e7bb 24fb 553e 6da3 af3d b239 3e3e
000002b0: 0fca 903e cfd1 30bd c655 0dbe d48f 333e
000002c0: 2bda 87bd 5b43 083d 8db5 48be 147e c13d
000002d0: 9066 bebd ec32 41bd 22a3 843e 3aae 173e
000002e0: 51e4 693e fb28 b33c f921 39bc 681b cabd
000002f0: 9379 083e 8136 073e 3525 b73d 9d4d 533d
00000300: 9b9e 403d 6def f2bd 89c7 edbb b4e0 0fbe
00000310: 1c55 573e 1053 39be b59f 0a3e 4e51 7b3d
00000320: 7687 a8bd bd01 1ebe 2dd7 ccbd c62d 28bd
00000330: 3b6b 923d 4502 15be 4f99 e53d 404e 87bd
00000340: 7533 94bc 9c98 da3c b13c 4b3d 1eae 2a3e
00000350: e22f 223e fd51 aebd ee19 24bd 2113 3bbd
00000360: 054c 5cbd b5d3 0ebd 628f 883d 23ff 883d
00000370: ec73 8f3d aa29 3c3c 5923 223c 3744 c03d
00000380: 323d 45bd 232d c23a 5449 283d 5227 61bd
00000390: e2fe c63d a7f3 13bd 841a 343d e032 00bc
000003a0: 25df c43d 5426 43bd 179b 95bc be31 00be
000003b0: 73fd 133e 8253 1e3e e7a7 62bd afeb 0a3d
000003c0: 5ad9 aa3d d955 ed3d 3526 adb9 00e6 1fbe
000003d0: dda5 e53d 07cf b8bc d929 f8bd 4ff6 f3bd
000003e0: 416d b5be 5cdc e1bd edda 9e3d 8676 1abe
000003f0: b4fd 0cbd 1b08 bd3e ff37 8ebd 97e0 88bd

model.0.bias f4 [48]
-0.05871505 -0.04211925 -0.0065733483 0.013595014 0.08290809 0.031166926 0.08536631 0.276489
0.038430117 -0.09261987 -0.020603318 0.008118684 -0.10530325 -0.087404594 -0.034869805 0.0534355
0.073895074 0.031252127 -0.04433113 -0.15363836 -0.01683552 -0.05590708 0.11114391 0.14589067
0.18449092 -0.045062296 0.15946466 0.052290138 0.03250466 -0.06747844 -0.026238125 -0.034433
-0.007279224 -0.03878822 -0.11237837 -0.1083981 -0.24879639 0.10494927 -0.07419347 0.0015464994
0.05662265 -0.0057378877 0.1434207 -0.082439445 0.014979026 -0.010009289 0.04151573 -0.03295025
00000000: 317f 70bd 3c85 2cbd 3e65 d7bb 9fbd 5e3c
00000010: b7cb a93d c851 ff3c 88d4 ae3d f78f 8d3e
00000020: e668 1d3d 7daf bdbd 4ac8 a8bc 3b04 053c
00000030: 3ba9 d7bd 2e01 b3bd a4d3 0ebd 2fdf 5a3d
00000040: 4d56 973d 3b02 003d 8f94 35bd 6053 1dbe
00000050: a5ea 89bc d3fe 64bd 6b9f e33d 5d64 153e
00000060: 30eb 3c3e 3e93 38bd b44a 233e 2f2e 563d
00000070: 9b23 053d 2332 8abd 56f1 d6bc 9e09 0dbd
00000080: 8f86 eebb 66e0 1ebd a126 e6bd d3ff ddbd
00000090: 7bc4 7ebe a5ef d63d bff2 97bd e9b3 ca3a
000000a0: 27ed 673d e404 bcbb e0dc 123e 03d6 a8bd
000000b0: 976a 753c 00fe 23bc 660c 2a3d d7f6 06bd

model.1.weight f4 [48]
1.0819664 0.99624527 1.0041124 0.9705035 0.96408635 0.93063384 1.0710435 0.9934788
0.94425666 0.9527447 1.0005766 0.9658421 0.97030675 0.99024826 1.0059875 1.0993642
1.0068893 0.97931504 1.0188863 0.9983813 1.092197 0.94463336 0.94915754 1.0115793
0.92722523 1.0290014 1.1503291 1.0315331 0.91506237 1.0801679 1.0057784 0.98040795
0.87212545 1.0067201 0.95024776 0.95405793 0.9557404 0.99173754 0.9642415 0.95338136
0.9548914 0.90868783 0.9618095 1.0075755 1.0865781 1.1368867 1.03183 0.88669664
00000000: e07d 8a3f ee09 7f3f c186 803f eb72 783f
00000010: 5dce 763f 053e 6e3f f417 893f a054 7e3f
00000020: ceba 713f 14e7 733f e512 803f 6e41 773f
00000030: 0666 783f e980 7d3f 33c4 803f f7b7 8c3f
00000040: c0e1 803f 64b4 7a3f de6a 823f eb95 7f3f
00000050: 1ccd 8b3f 7ed3 713f fdfb 723f 6e7b 813f
00000060: a25e 6d3f 51b6 833f fc3d 933f 4709 843f
00000070: 8741 6a3f f142 8a3f 59bd 803f 04fc 7a3f
00000080: 9d43 5f3f 34dc 803f 7043 733f 243d 743f
00000090: 67ab 743f 83e2 7d3f 88d8 763f cd10 743f
000000a0: c373 743f c49f 683f 2639 763f 3cf8 803f
000000b0: fe14 8b3f 8185 913f 0113 843f 8dfe 623f

model.1.bias f4 [48]
-0.13043733 -0.32963163 -0.23803285 -0.24849992 -0.30757102 -0.32420957 -0.104235195 -0.3376138
-0.40878636 -0.2684197 -0.22702786 -0.21606627 -0.21217547 -0.28394875 -0.16501614 -0.22871761
-0.24412061 -0.16933548 -0.22985059 -0.32830796 -0.09030405 -0.20537058 -0.3334188 -0.19111666
-0.35136294 -0.363005 -0.08323822 -0.21650828 -0.22814511 -0.0579596 -0.28673825 -0.28254095
-0.32055774 -0.38363346 -0.2106848 -0.26350167 -0.28191453 -0.35274523 -0.3273701 -0.3187759
-0.35352674 -0.33386752 -0.47381762 -0.28062373 -0.15595788 -0.26362258 -0.20296854 -0.41211477
00000000: 5d91 05be 7ac5 a8be e2be 73be c376 7ebe
00000010: f379 9dbe ccfe a5be 4379 d5bd b7db acbe
00000020: 724c d1be 4f6e 89be fe79 68be 7a40 5dbe
00000030: 8744 59be bb61 91be fef9 28be f334 6abe
00000040: c1fa 79be 4866 2dbe f45d 6bbe fb17 a8be
00000050: 54f1 b8bd aa4c 52be deb5 aabe 16b4 43be
00000060: d8e5 b3be cbdb b9be cd78 aabd 59b4 5dbe
00000070: df9e 69be 0c67 6dbd 5bcf 92be 35a9 90be
00000080: 2520 a4be 9b6b c4be c2bd 57be b1e9 86be
00000090: 1a57 90be 069b b4be 0e9d a7be 9836 a3be
000000a0: 7501 b5be aff0 aabe 3998 f2be eaad 8fbe
000000b0: 6cb3 1fbe 8af9 86be fcd6 4fbe b500 d3be

model.1.running_mean f4 [48]
-0.063849434 0.12369055 -0.09297728 0.21957217 0.028119367 0.17178388 0.044306472 0.48949406
0.37974048 -0.013338696 0.20063847 -0.03419204 -0.024122369 0.0868164 -0.036866225 0.15384878
0.2019569 0.083212964 0.1507973 0.43647233 -0.038111698 -0.0032092612 0.29458705 0.24333991
0.31853488 -0.027597014 0.2350825 0.09404684 0.10788314 0.08985211 0.15147811 -0.138696
-0.031525534 0.19430855 0.012237549 0.2005609 -0.111784294 0.33996618 -0.0031693089 0.04964991
0.24385062 0.056489594 0.29805458 0.14261778 0.056737054 -0.084212296 0.10332352 0.12690026
00000000: 7ec3 82bd 7951 fd3d df6a bebd 87d7 603e
00000010: 965a e63c 1de8 2f3e b47a 353d f79e fa3e
00000020: 586d c23e 8c8a 5abc 2c74 4d3e f40c 0cbd
00000030: 469c c5bc cccc b13d 0a01 17bd 898a 1d3e
00000040: cacd 4e3e 8f6b aa3d 9b6a 1a3e 4d79 df3e
00000050: 031b 1cbd 7852 52bb 1dd4 963e 192e 793e
00000060: 0117 a33e 2213 e2bc 78b9 703e a19b c03d
00000070: d6f1 dc3d 6204 b83d 141d 1b3e 5306 0ebe
00000080: eb20 01bd d2f8 463e 0080 483c d65f 4d3e
00000090: 2aef e4bd 0c10 ae3e 2eb4 4fbb b45d 4b3d
000000a0: fab3 793e a261 673d 9c9a 983e 650a 123e
000000b0: 1d65 683d 7f77 acbd 489b d33d 24f2 013e

model.1.running_var f4 [48]
0.0061267777 0.0075164526 0.007170973 0.0055671614 0.007628045 0.00740302 0.014077123 0.006301473
0.005973993 0.0070509384 0.0072804415 0.0064433524 0.0065795984 0.008542072 0.007558986 0.0056238803
0.0070611024 0.005629188 0.005705324 0.006261082 0.0094901 0.006718514 0.0063931737 0.0072712037
0.0054900735 0.0073858066 0.007679237 0.007821158 0.0072187833 0.005721554 0.010345279 0.0060276007
0.006885251 0.0063390103 0.008413744 0.008642058 0.007088267 0.004564643 0.0060561597 0.006750124
0.0067525576 0.006951457 0.0042080614 0.004441688 0.012888063 0.007369027 0.008548293 0.007924402
00000000: 23c3 c83b 934c f63b 7bfa ea3b bc6c b63b
00000010: aef4 f93b 0895 f23b bca3 663c 967c ce3b
00000020: 7cc1 c33b 8f0b e73b c590 ee3b c222 d33b
00000030: ac99 d73b 0cf4 0b3c 5fb1 f73b 8748 b83b
00000040: d260 e73b 0d75 b83b baf3 ba3b c329 cd3b
00000050: 5d7c 1b3c fb26 dc3b d47d d13b 4743 ee3b
00000060: 13e6 b33b a304 f23b 1ca2 fb3b 5024 003c
00000070: 8b8b ec3b e07b bb3b 3f7f 293c 2e83 c53b
00000080: ac9d e13b 79b7 cf3b cdd9 093c 6b97 0d3c
00000090: b144 e83b 0093 953b c072 c63b 2530 dd3b
000000a0: 8f44 dd3b 0cc9 e33b c7e3 893b 948b 913b
000000b0: 7428 533c e177 f13b 240e 0c3c 5ad5 013c

model.4.weight f4 [24, 48]
0.2529195 0.0057842936 0.17422682 -0.014253406 0.095215395 -0.34305665 0.17663424 -0.08760358
-0.15517223 0.02968496 -0.2650903 0.10184436 0.10097515 0.05793075 0.16975366 0.12542841
-0.16627915 -0.21872221 -0.051772226 -0.01504103 -0.057357386 -0.14698482 -0.066426486 -0.11109788
-0.52014035 -0.08253469 0.08641307 0.16315134 0.124718934 -0.03787468 0.16829677 -0.06137799
0.02102774 -0.27718464 0.029003428 0.12637661 -0.29042757 0.18228582 0.025323655 -0.13783404
0.09370462 0.13881621 -0.031810846 -0.0062799547 -0.17923829 0.038438894 0.34559995 -0.002987178
0.15161559 0.19545232 0.020518243 -0.1615323 -0.18848707 -0.073998496 0.1052896 -0.35273775
0.13578619 -0.01972292 0.15308511 -0.13678178 -0.05511177 0.13497892 -0.09539644 0.008719577
0.043859378 -0.2201291 0.22267622 -0.32341608 0.076224 0.17913097 0.10633749 0.16455537
-0.0012744562 0.11386235 -0.054820374 -0.102858774 -0.11229506 -0.23987494 0.11220502 -0.1488694
0.14525335 0.0683415 0.047840107 -0.16363263 -0.00966529 -0.25224406 0.09911273 0.0921832
0.14288469 0.10175464 -0.33075368 0.08576415 0.04083015 0.19492047 0.24177925 0.115753554
0.121463224 -0.15410686 0.09637866 -0.0043938854 -0.13158873 -0.12215625 -0.047019478 0.01194111
-0.17732559 0.18490851 0.10364202 -0.034051165 -0.09108615 0.11470101 -0.2697683 -0.04204009
0.058732178 0.050751567 0.3069611 -0.19223905 0.13415332 0.27958754 0.084627494 0.23219867
-0.26457143 -0.004705831 0.026510084 0.04830361 -0.15190536 0.192029 0.074903615 0.21483603
0.071147576 0.15706712 0.07798323 -0.1296361 -0.14096537 -0.22460549 0.15834923 -0.089266576
-0.07623335 -0.21646424 -0.13983557 0.13032024 0.16251786 0.32217744 0.2318344 0.064328656
0.08741914 -0.07276073 -0.018068051 0.13233474 0.10098102 0.07262414 0.045650166 0.17587763
-0.21476331 0.021369776 0.19780135 0.2185862 -0.22704412 0.014186746 0.23367032 0.020735858
-0.04383536 0.047404975 0.16714904 0.15857488 -0.17713928 -0.19194917 0.032419737 0.15660495
0.19170043 0.35837236 -0.14619194 -0.3318666 0.13840741 -0.0782036 0.122348234 0.1336076
-0.1196477 0.089800306 0.111388765 0.012299646 0.23877135 -0.038925935 0.31141114 0.22816612
0.15159093 0.1138475 0.19852033 -0.17570525 -0.2018552 0.17196707 0.06430743 0.08424018
0.16471107 -0.17057616 0.071794204 0.13315518 0.12508734 0.052282505 0.17981318 0.27960396
-0.107734784 -0.15629964 0.1566614 0.1595864 0.024666814 -0.14446872 0.0642732 -0.095117874
-0.101137474 0.09169905 0.24329858 -0.00862155 -0.3749359 0.113798335 -0.21412499 -0.21318237
0.12209002 0.40293446 0.06440575 -0.22564185 0.13121206 -0.10365557 0.042621285 -0.1172661
-0.13466904 0.23510006 0.115637586 -0.087180205 0.00067247753 0.17436406 0.0706477 0.051000986
0.18844713 0.099052094 -0.053120036 0.06533119 0.19677907 -0.1425676 0.115970455 0.062223434
-0.287754 0.00046695565 -0.16040128 -0.16507071 -0.14212446 0.031876534 0.24050078 -0.15620826
0.01338768 0.037065923 -0.013259784 -0.22068988 0.115600854 0.03662619 0.1400643 -0.0678276
00000000: aa7e 813e 2c8a bd3b 8468 323e 1e87 69bc
00000010: 4a00 c33d 1fa5 afbe 9bdf 343e 8169 b3bd
00000020: 78e5 1ebe e02d f33c eab9 87be c793 d03d
00000030: 0fcc ce3d cb48 6d3d e7d3 2d3e 4e70 003e
00000040: 1545 2abe b7f8 5fbe 1d0f 54bd a76e 76bc
00000050: 94ef 6abd 3083 16be 9c0a 88bd 4987 e3bd
00000060: eb27 05bf f307 a9bd 56f9 b03d 2511 273e
00000070: a46c ff3d 7b22 1bbd fd55 2c3e 7d67 7bbd
00000080: 5e42 ac3c 25eb 8dbe 9998 ed3c df68 013e
00000090: ecb2 94be 22a9 3a3e 8e73 cf3c 5e24 0dbe
000000a0: 35e8 bf3d d625 0e3e 174c 02bd 14c8 cdbb
000000b0: 3e8a 37be 1a72 1d3d 7af2 b03e 88c4 43bb
000000c0: 1e41 1b3e a724 483e e015 a83c b968 25be
000000d0: c102 41be 868c 97bd 13a2 d73d 0b9a b4be
000000e0: 890b 0b3e f691 a1bc 58c2 1c3e 8610 0cbe
000000f0: e1bc 61bd ea37 0a3e 355f c3bd 8fdc 0e3c
00000100: e4a5 333d 8669 61be 3c05 643e cb96 a5be
00000110: 541b 9c3d 1c6e 373e 78c7 d93d 3481 283e
00000120: a70b a7ba aa30 e93d 548b 60bd 9fa7 d2bd
00000130: f4fa e5bd c7a1 75be bfcb e53d 3871 18be
00000140: 4bbd 143e a1f6 8b3d fdf3 433d 508f 27be
00000150: 2a5b 1ebc 2226 81be 9dfb ca3d 8cca bc3d
00000160: 5d50 123e bd64 d03d 8c58 a9be 1da5 af3d
00000170: 843d 273d 3b99 473e fb94 773e 3310 ed3d
00000180: b6c1 f83d 30ce 1dbe 2d62 c53d 95fa 8fbb
00000190: 32bf 06be 0e2d fabd 7f97 40bd a5a4 433c
000001a0: d794 35be a858 3d3e 4442 d43d 3c79 0bbd
000001b0: 608b babd 5de8 ea3d 121f 8abe 3b32 2cbd
000001c0: 2791 703d e0e0 4f3d 012a 9d3e 50da 44be
000001d0: 7d5f 093e 1926 8f3e 2e51 ad3d 7dc5 6d3e
000001e0: e875 87be 5f33 9abb ad2b d93c 02da 453d
000001f0: 148d 1bbe 40a3 443e 1167 993d fafd 5b3e
00000200: d2b5 913d 34d6 203e acb5 9f3d 53bf 04be
00000210: 3a59 10be fbfe 65be 4d26 223e 65d1 b6bd
00000220: 3b20 9cbd cda8 5dbe 0e31 0fbe ab72 053e
00000230: 156b 263e 71f4 a43e ff65 6d3e bebe 833d
00000240: ce08 b33d 9403 95bd 7303 94bc c282 073e
00000250: 23cf ce3d f7bb 943d abfb 3a3d 4419 343e
00000260: eaea 5bbe ab0f af3c 708c 4a3e 10d5 5f3e
00000270: 417e 68be 876f 683c 4647 6f3e 3fde a93c
00000280: b58c 33bd b82b 423d 1e29 2b3e 7461 223e
00000290: 0064 35be 538e 44be 8fca 043d 0c5d 203e
000002a0: 1e4d 443e 957c b73e 57b3 15be 6bea a9be
000002b0: acba 0d3e 3629 a0bd b691 fa3d 6ed0 083e
000002c0: da09 f5bd 39e9 b73d cb1f e43d 7484 493c
000002d0: 7a80 743e cd70 1fbd 4871 9f3e 61a4 693e
000002e0: a73a 1b3e e128 e93d ea48 4b3e 14ec 33be
000002f0: 21b3 4ebe 2318 303e 9db3 833d 1e86 ac3d
00000300: 05aa 283e 84ab 2ebe d708 933d d559 083e
00000310: e516 003e 2e26 563d f220 383e 4028 8f3e
00000320: 0ea4 dcbd 030d 20be d96b 203e 9e6a 233e
00000330: 0f12 ca3c 9cef 13be aba1 833d 29cd c2bd
00000340: 2a21 cfbd b6cc bb3d 4323 793e 6741 0dbc
00000350: 99f7 bfbe 1a0f e93d 9543 5bbe 7b4c 5abe
00000360: 550a fa3d 6d4d ce3e 29e7 833d a80e 67be
00000370: 745c 063e 5f49 d4bd a893 2e3d 3629 f0bd
00000380: aee6 09be 12be 703e 66d3 ec3d 898b b2bd
00000390: 3449 303a 7e8c 323e beaf 903d 69e6 503d
000003a0: 49f8 403e d3db ca3d 6594 59bd 5ccc 853d
000003b0: 7480 493e 3efd 11be eb81 ed3d 00de 7e3d
000003c0: 7e54 93be bad1 f439 3c40 24be 4c08 29be
000003d0: 1389 11be f890 023d d645 763e 0ff5 1fbe
000003e0: 0058 5b3c 70d2 173d 913f 59bc 87fc 61be
000003f0: 24c0 ec3d 5805 163d 046d 0f3e 32e9 8abd

model.4.bias f4 [24]
-0.0894345 0.10504242 0.0943206 0.23366421 0.2490649 -0.08982214 0.15950944 0.18302408
0.1478947 0.3110493 -0.10790316 0.04499515 0.098170854 0.27901122 0.15663444 0.11513996
0.12262814 0.22293894 0.22400561 -0.14467467 -0.012139672 0.17250238 -0.14134276 -0.011992693
00000000: 6f29 b7bd 7b20 d73d 292b c13d ac45 6f3e
00000010: df0a 7f3e acf4 b7bd 7156 233e aa6a 3b3e
00000020: b571 173e db41 9f3e 55fc dcbd d64c 383d
00000030: cd0d c93d 8fda 8e3e c764 203e 80ce eb3d
00000040: 7624 fb3d 1b4a 643e ba61 653e 9925 14be
00000050: 7ae5 46bc 77a4 303e 28bc 10be 007d 44bc

model.5.weight f4 [24]
1.4109131 1.5161393 1.6207052 2.242002 2.3042464 1.3617052 2.1862047 1.6497614
1.482743 2.4564877 1.4961623 1.4905757 1.6859947 2.192046 2.342645 1.2359782
1.5032302 1.8916545 2.2225394 1.4964653 2.115735 2.405308 1.5001884 1.5497268
00000000: cd98 b43f da10 c23f 4573 cf3f f67c 0f40
00000010: c678 1340 5b4c ae3f c7ea 0b40 622b d33f
00000020: 86ca bd3f 1837 1d40 3f82 bf3f 2fcb be3f
00000030: adce d73f 7b4a 0c40 e5ed 1540 8934 9e3f
00000040: d969 c03f bc21 f23f 163e 0e40 2d8c bf3f
00000050: 3468 0740 91f0 1940 2c06 c03f 735d c63f

model.5.bias f4 [24]
0.13651414 0.041953098 0.058892187 0.22688591 0.3511483 0.034487274 0.253168 0.030186016
0.098781176 0.3981168 0.18918549 0.16383111 0.043358948 0.3441795 0.31188205 -0.09562057
0.10499725 0.32089695 0.3844396 0.066895664 0.2970505 0.28312403 0.11190387 0.20802182
00000000: 5dca 0b3e 03d7 2b3d ef38 713d c854 683e
00000010: b6c9 b33e 8742 0d3d 3c9f 813e aa48 f73c
00000020: c94d ca3d f7d5 cb3e d7b9 413e 58c3 273e
00000030: 2799 313d 4c38 b03e 01af 9f3e b8d4 c3bd
00000040: cc08 d73d 9b4c a43e 44d5 c43e 9800 893d
00000050: 0117 983e a2f5 903e db2d e53d ac03 553e

model.5.running_mean f4 [24]
-0.11335265 0.20157713 0.53333795 0.82678866 0.63705766 -0.49264747 0.28722212 0.2754668
0.6388049 0.15866145 0.595619 0.42323485 0.3336236 0.27258414 0.6373111 0.81178916
0.12636517 0.5861389 0.5031605 -0.07732239 -0.25973567 -0.08227079 -0.0165413 0.35839137
00000000: 6f25 e8bd 3c6a 4e3e d688 083f 6ca8 533f
00000010: 3616 233f 4a3c fcbe c70e 933e fc09 8d3e
00000020: b888 233f 2678 223e 7d7a 183f 3db2 d83e
00000030: b6d0 aa3e 2690 8b3e d226 233f 6ad1 4f3f
00000040: df65 013e 330d 163f 20cf 003f 345b 9ebd
00000050: 13fc 84be 977d a8bd 9f81 87bc 137f b73e

model.5.running_var f4 [24]
0.28520873 0.2187652 0.27366903 0.33920538 0.42382413 0.24953839 0.35719573 0.23660135
0.3200182 0.4894338 0.3988386 0.4253474 0.3034572 0.33579662 0.37917316 0.29715326
0.29794738 0.4043296 0.39248958 0.26702 0.33018997 0.33118194 0.29284364 0.39513972
00000000: e106 923e fc03 603e 591e 8c3e 54ac ad3e
00000010: 7aff d83e fe86 7f3e 5ce2 b63e a047 723e
00000020: 6dd9 a33e 1197 fa3e 9334 cc3e 22c7 d93e
00000030: be5e 9b3e 89ed ab3e fc22 c23e 7924 983e
00000040: 8f8c 983e 4a04 cf3e 65f4 c83e d8b6 883e
00000050: a90e a93e ae90 a93e 9aef 953e c14f ca3e

model.8.weight f4 [2, 24]
-0.43557492 -0.45613593 -0.66262907 1.1455674 1.2409197 -0.50410503 1.151553 -0.7565862
-0.5622105 1.2030355 -0.5094976 -0.5955995 -0.72949713 1.1063408 0.8810184 -0.36562043
-0.5869206 0.7980254 1.0766048 -0.5450651 0.8364447 1.0655683 -0.6142585 -0.44072798
0.42082718 0.61217505 0.75976443 -1.1330158 -1.1262851 0.2679989 -1.1100576 0.70318264
0.49797407 -1.155833 0.5881389 0.4208742 0.71919215 -0.80271465 -1.2124639 0.27667156
0.57366824 -0.7680815 -0.98875606 0.559392 -0.8280262 -1.1904328 0.61555123 0.57267696
00000000: ad03 dfbe a68a e9be 0fa2 29bf f4a1 923f
00000010: 75d6 9e3f 070d 01bf 1766 933f a2af 41bf
00000020: 07ed 0fbf 11fd 993f 6f6e 02bf 3579 18bf
00000030: 53c0 3abf 939c 8d3f 6c8a 613f 9a32 bbbe
00000040: 6e40 16bf 654b 4c3f 30ce 893f 6389 0bbf
00000050: 3d21 563f 8b64 883f 0c40 1dbf 19a7 e1be
00000060: a976 d73e 81b7 1c3f ec7f 423f a906 91bf
00000070: 1c2a 90bf 2737 893e 5e16 8ebf c703 343f
00000080: 75f6 fe3e 56f2 93bf 4590 163f d37c d73e
00000090: fa1c 383f b57e 4dbf 0432 9bbf e5a7 8d3e
000000a0: ecdb 123f fda0 44bf 1e1f 7dbf 5034 0f3f
000000b0: 86f9 53bf 1a60 98bf c494 1d3f f59a 123f

model.8.bias f4 [2]
0.0991022 -0.20578426
00000000: 18f6 ca3d 1cb9 52be
