trained_models/run07.pth (torch, 207943 bytes, 14 tensors)

model.0.weight f4 [48, 1024]
000000 6e 6f e4 bb 30 7e a0 3d ef 59 2f 3e 16 bc 9b bc
       -0.0069712913 0.07836568 0.1712415 -0.019010585
000010 ea c3 ee bc 29 b1 93 bd 6e ab b5 3d 38 44 8d 3d
       -0.029146153 -0.07211525 0.08870588 0.06897777
000020 bb f3 74 bd 86 ff 00 bd c5 74 f5 bd 6e 21 96 3d
       -0.059802752 -0.031493686 -0.11985163 0.07330595
000030 9a 43 b1 3d ef e4 88 3d 9e 1b e7 3d e2 ee 81 3c
       0.08655472 0.066842906 0.112845644 0.015860979
000040 49 d7 cb 3d 39 c1 5e 3d 6c ee 66 3d 67 8d 28 3d
       0.09953172 0.05438349 0.05637972 0.041150477
000050 6f 54 f6 bc 48 e0 8d 3d 91 b6 a3 bd aa d5 53 3d
       -0.030069558 0.06927544 -0.07993806 0.051717438
000060 96 41 bc 3d b6 89 24 bc 5d 4d 82 3d 7f 36 24 3d
       0.09192197 -0.0100425985 0.06362412 0.040091034
000070 1a e2 ed bc e1 cf ef bd e9 52 bb bc 40 eb a9 bc
       -0.029038478 -0.11709572 -0.022866683 -0.020742059
000080 87 ef ed bd b9 fa a7 3d 78 eb 05 3c 06 24 f0 3a
       -0.11617952 0.082021184 0.008173816 0.0018321283
000090 26 ca 72 bd 1c 75 0a be 9f 7a 24 bd 91 06 67 3d
       -0.059274815 -0.13521236 -0.040156003 0.056402747
0000a0 44 95 62 3a b8 59 87 bc c0 2e 60 3d c8 02 19 be
       0.0008643458 -0.016522273 0.054732084 -0.14942467
0000b0 18 48 3f 3d 8b 79 11 3e 70 8b a7 bd 94 69 b3 bd
       0.046699613 0.14206521 -0.081808925 -0.08760372
0000c0 2f ac 56 3d 40 cf aa 3c 4b 8d 96 3a fa 4d bf bd
       0.0524103 0.020850778 0.00114862 -0.09341045
0000d0 94 ff ca bd 63 22 4e 3d 7c 86 a2 bd 60 fe 91 3d
       -0.09912029 0.050325762 -0.07935807 0.07128596
0000e0 ca 65 83 3b ee cd 09 3e cb da 0f 3d f3 8e 07 3e
       0.004009937 0.13457462 0.035120767 0.13238125
0000f0 6e 9d 90 3d 33 5e d7 3d a8 56 d9 3c bd aa a7 3b
       0.07061277 0.10516014 0.026530579 0.005116789
000100 1d 20 aa bc b0 49 1f 3c 4e 05 fc 3d 7b 69 a1 bd
       -0.020767266 0.009722158 0.12305699 -0.07881447
000110 3b 24 6c bc 5e 30 60 3c 6c d2 d5 3d 79 ca 0c 3d
       -0.014412935 0.013683407 0.104405254 0.03437278
000120 d7 0f bf bd b8 b8 85 bd 02 da 37 be f0 36 c1 bc
       -0.09329193 -0.06529373 -0.17954257 -0.023585767
000130 62 a3 92 bd 3f 82 4e bd 5e 35 1e be 40 72 e1 3d
       -0.07160069 -0.05041718 -0.15450045 0.110081196
000140 ee b5 1e 3d d6 9c bc bd 47 6b b7 3c cc 2f 3a bd
       0.03874772 -0.092096016 0.022390021 -0.04545574
000150 d3 98 8a 3c c5 fa 0f bc 08 4d 34 3d 97 f9 84 bd
       0.016918575 -0.008787815 0.044018775 -0.06492918
000160 01 98 0a 3d 26 0e ba 3d a0 63 cc 3b 9b 33 1a 3e
       0.03383637 0.0908473 0.006237462 0.15058748
000170 79 28 2a 3b 12 a8 b3 bd 5c ef 8a 3c ed ed 03 3d
       0.0025964065 -0.08772291 0.016959839 0.032209326
000180 5a ad d2 3d d6 e4 a5 bd a5 f4 b4 bd 29 64 86 3d
       0.102869704 -0.081002876 -0.08835725 0.06562073
000190 36 81 a7 bd de 32 31 bd fa 36 d2 3d d3 01 02 bb
       -0.08178942 -0.0432614 0.10264392 -0.0019837513
0001a0 4c 63 62 bb 9e 4f 63 bd ed ba 14 3d 76 03 08 3d
       -0.0034544049 -0.05549585 0.03631108 0.033206426
0001b0 45 e7 08 bd c5 0b f5 bc 4f 07 44 3e 49 7f 87 3d
       -0.03342368 -0.029912839 0.19143413 0.066160746
0001c0 73 ec 2d 3c 95 a3 18 3d 39 2f 99 3d 4e ed 8b bc
       0.010615456 0.03726538 0.0747971 -0.01708093
0001d0 5b e5 e6 bd b2 ad bd 3c e6 8c 9f 3d 43 47 34 3d
       -0.11274215 0.023154113 0.07790546 0.044013273
0001e0 8a b1 20 bd df ea 20 bd 6e 33 b0 bd 4c 5f 67 bd
       -0.039231814 -0.03928649 -0.086035594 -0.056487367
0001f0 62 8c 53 3d 63 56 1e 3e e9 60 4a 3a bb 1f 74 3d
       0.05164755 0.15462641 0.0007720129 0.059600573
000200 6a ce 4b 3d 85 d5 b1 3c 44 2b 05 bd a2 26 90 3d
       0.0497574 0.02170826 -0.032511964 0.070386186
000210 36 45 3d 3c 60 0a 04 3d 80 55 3c bd 3b 45 ad 3d
       0.011552146 0.032236457 -0.045979977 0.0846047
000220 e1 da e0 3c c5 8e c5 bd 26 8a 36 3c 33 6e a0 3d
       0.02744812 -0.09646372 0.011141336 0.07833519
000230 4e 52 c0 bc 7c e2 43 bd 86 e3 a2 bc 37 9e b4 3d
       -0.023476746 -0.047823414 -0.019883882 0.088192396
000240 15 44 fa 3d 02 9c 49 bc fc 5b 1e 3d 3a 61 14 bc
       0.12220017 -0.012305262 0.038661942 -0.009056384
000250 f3 f4 e4 3b 1f 85 be 3d 77 9e c6 bc 6b 73 d9 bc
       0.006987208 0.093027346 -0.024245484 -0.026544293
000260 c3 cf 17 bd e3 de 0d bd ce c8 41 3d ab 3c b2 bb
       -0.03706337 -0.03463639 0.047310643 -0.005439361
000270 94 a7 06 3e f3 de 1a bc 8d 7f 9a bb 4a 71 9e bd
       0.13149863 -0.009452569 -0.0047149123 -0.07736452
000280 3b 60 65 bd 8d 43 1d 3e 26 12 51 3d f8 04 f2 3d
       -0.055999976 0.153578 0.0510427 0.11817354
000290 58 fe b2 bb 9c 7c b5 bc 71 4c 57 3c 5b f4 a6 bd
       -0.005462449 -0.022154145 0.013140784 -0.08152076
0002a0 2c 1b d3 bc b8 16 81 3d 6c 25 e0 3b 97 59 88 bd
       -0.025769792 0.063031614 0.0068403985 -0.06657713
0002b0 53 b5 13 3c 5f 99 df bd f6 88 62 3d b3 d3 a5 bd
       0.009015399 -0.10917925 0.055306397 -0.08097019
0002c0 57 17 0c 3e 60 6e 4b 3d f9 90 9d 3b 91 bd cf 3c
       0.13680778 0.04966581 0.004808542 0.025358947
0002d0 93 58 34 3d 84 18 e6 3c 07 36 95 3d 85 13 bc 3c
       0.044029783 0.028087862 0.072856955 0.022958526
0002e0 2a 1c b7 bc 32 0d d1 3a 3c a5 9c bb c0 1e cb 3c
       -0.022352297 0.0015949367 -0.0047804397 0.024794936
0002f0 f9 d7 a5 3d 46 63 36 3c c6 8c 81 bd 02 c9 e6 3c
       0.08097834 0.011132067 -0.063256785 0.02817202
000300 63 b5 0c bd 9f af 83 3b 0b 99 8e 3d c8 f0 59 bd
       -0.03435267 0.0040187384 0.069627844 -0.053208143
000310 ed 9c 7f bd c9 c3 19 bd aa 5a e3 3d 80 97 0a 3a
       -0.062405515 -0.03754023 0.11101277 0.00052868575
000320 b5 da 85 bd b9 32 48 3d 2f 7e 25 3e 12 90 c7 bd
       -0.06535856 0.048876498 0.16161416 -0.09744276
000330 f6 8a 1f bd 02 b6 e1 bd dd be a5 bc 79 66 98 bb
       -0.038950883 -0.11021043 -0.020232612 -0.0046508876
000340 cd ea 0e 3e 0b 12 d9 3d 30 48 22 bd ae ba d7 bb
       0.13956757 0.105991445 -0.039619625 -0.0065835332
000350 fc f0 9d bc ff 12 0d 3c 70 37 23 bd 18 f3 fc bc
       -0.01927995 0.008610486 -0.03984779 -0.030877635
000360 a9 d8 a4 bc 4b 1d 6c bd 5a 2d 33 3d af 44 84 3d
       -0.020122843 -0.057645123 0.043744422 0.06458413
000370 34 97 f6 bc 17 24 1e bd 98 52 71 3d 88 69 e4 bb
       -0.030101396 -0.038608637 0.05891666 -0.006970588
000380 4b 38 0f 3e a4 9d fb 3c 45 c6 07 be 5b bd 89 3c
       0.13986318 0.030714817 -0.13259228 0.016813925
000390 46 1f 00 bd dc 7c da bd a1 83 21 bd 6c 7a 93 bd
       -0.031279825 -0.10668346 -0.03943217 -0.072010845
0003a0 c1 85 a2 bd 0a 2e 00 3d f1 44 4c bc c4 4e 06 3d
       -0.07935668 0.031293906 -0.012467609 0.03278996
0003b0 53 0d 25 be 25 c6 ba bd 79 b1 ff 3c 38 10 93 3d
       -0.16118364 -0.09119824 0.031212555 0.07180828
0003c0 fa 64 46 3c 77 86 fc 3c 25 00 7e bd a0 e4 48 3a
       0.012109036 0.030825837 -0.062011857 0.00076634623
0003d0 79 24 3d bb a0 41 c0 3c 3a 7d 00 3e 60 c2 0f bd
       -0.002886085 0.023468792 0.1254777 -0.03509748
0003e0 93 d4 08 bd 22 02 06 be 0c bc bf bc 32 2e a0 3d
       -0.03340585 -0.13086751 -0.023405097 0.07821311
0003f0 32 9b a5 bd 03 6c db 3d 24 c3 68 bd 6b 15 f0 b9
       -0.08086242 0.10713961 -0.056826726 -0.00045792325

model.0.bias f4 [48]
000000 92 55 07 39 27 d2 0b b9 f8 2d f2 b7 ec 13 b8 b8
       0.0001290648 -0.00013334361 -2.8870054e-05 -8.7775144e-05
000010 bc cf 09 b8 6a 0f e7 b8 ac a4 d6 38 2d 20 ab b8
       -3.2856813e-05 -0.000110178094 0.00010234988 -8.1599086e-05
000020 60 1d de b6 48 ed fd 37 68 6f 3f 38 4a 83 ca b8
       -6.6195353e-06 3.0270443e-05 4.5641704e-05 -9.656565e-05
000030 f0 af f8 b8 f5 ae 17 39 10 48 a3 38 da 97 37 39
       -0.000118583324 0.00014465659 7.7858684e-05 0.00017508809
000040 0e 69 a4 38 cc 10 41 ba 50 f8 ef 37 60 83 14 b8
       7.839697e-05 -0.00073648687 2.860665e-05 -3.5408302e-05
000050 90 c2 03 b9 c4 25 08 38 0d 71 59 b8 a7 8a 3f b8
       -0.00012565614 3.24601e-05 -5.184212e-05 -4.566708e-05
000060 e8 b9 65 b8 aa e8 8e b8 28 95 d6 37 d0 52 c1 37
       -5.4770993e-05 -6.814425e-05 2.5580244e-05 2.3045955e-05
000070 44 8d 7a b9 46 fd 30 39 18 18 4c b7 43 2b 15 b8
       -0.00023894483 0.0001687902 -1.2164957e-05 -3.556466e-05
000080 26 b7 5f b8 f8 e3 d0 38 5a 19 54 39 25 3c bf 38
       -5.3337913e-05 9.9606754e-05 0.0002022734 9.1187925e-05
000090 24 91 bd b7 a5 5f 6a 39 fc 61 c5 37 e4 c8 21 38
       -2.2598142e-05 0.0002235161 2.3529858e-05 3.8572485e-05
0000a0 02 a2 80 b8 dc 6e bd b7 ec e4 80 36 80 e0 4d 37
       -6.133692e-05 -2.2582179e-05 3.8413473e-06 1.2271223e-05
0000b0 f6 c2 5d 39 5d dc 89 b9 5c 50 01 38 7a af 1c b8
       0.00021148831 -0.0002629486 3.0830837e-05 -3.7356724e-05

model.1.weight f4 [48]
000000 74 47 ca 3e ff 23 dd 3e 50 c8 d7 3e fd f9 f1 3e
       0.3950764 0.43191525 0.42145014 0.47261038
000010 d6 81 a9 3e e9 d7 da 3e 88 07 b6 3e 8a 6a a5 3e
       0.3310687 0.4274285 0.3555262 0.32307845
000020 e1 da f7 3e 64 28 bd 3e c7 74 60 3e 93 5d f2 3e
       0.4840918 0.36944878 0.21919547 0.47337016
000030 c8 11 f8 3e a4 f2 d6 3e 60 fe d0 3e ae 25 ca 3e
       0.48451066 0.41981995 0.40819073 0.39481872
000040 fe ed 9b 3e 90 06 dc 3e 84 f6 d8 3e db f8 db 3e
       0.3045501 0.42973757 0.42375576 0.429633
000050 8a b5 db 3e b8 c7 e8 3e e5 96 00 3f 16 73 c1 3e
       0.4291194 0.45464873 0.50230247 0.37783116
000060 30 9c e8 3e 33 da c4 3e c4 aa d9 3e 19 fe d6 3e
       0.45431662 0.38447723 0.42513096 0.41990736
000070 bd 2b d2 3e 68 f6 ac 3e f8 0e d5 3e bb 4f b9 3e
       0.41048995 0.33781743 0.41612983 0.36193642
000080 d8 ca eb 3e 2d ae cd 3e 61 44 07 3f 1c b7 dc 3e
       0.46053195 0.40171948 0.5283871 0.4310845
000090 91 d8 b4 3e 83 1f d3 3e f3 d6 be 3e 0b 53 e1 3e
       0.35321477 0.4123498 0.37273368 0.4400867
0000a0 ca 7f c2 3e 42 86 b1 3e a0 63 bd 3e df 14 c1 3e
       0.3798812 0.34672743 0.3699007 0.37711236
0000b0 29 64 c0 3e a3 87 e6 3e 84 02 a2 3e f9 9b bc 3e
       0.37576416 0.45025358 0.31642544 0.36837748

model.1.bias f4 [48]
000000 70 fd d8 bd 82 a3 4c be 54 03 ab be 0e c2 a1 bd
       -0.10595214 -0.19984248 -0.33400977 -0.07898341
000010 52 c5 db 3d 9f 97 4e be 22 2a 53 be b9 13 47 bc
       0.10730995 -0.20175026 -0.20621541 -0.012150698
000020 2d 86 9e be ab fb 3d be d5 78 99 bd 8f 63 c3 be
       -0.30961743 -0.18553035 -0.0749375 -0.38161895
000030 b3 d8 78 be 00 28 9c be e8 cc c1 be 79 43 0a 3d
       -0.24301414 -0.30499268 -0.37851644 0.033755753
000040 71 a0 ad be 4a 3b 65 be 03 f5 b8 be 57 b9 d9 bd
       -0.3391147 -0.22385898 -0.3612443 -0.10631054
000050 22 97 a9 be 4b 38 d9 be 31 2e b9 be 95 ac 9c be
       -0.33123118 -0.4242576 -0.36168054 -0.3060042
000060 8c 33 26 bd 12 5b 07 be 75 ea 01 be d8 d7 a2 be
       -0.040576503 -0.13218334 -0.12687095 -0.318053
000070 f5 71 a2 be 74 f7 d7 3c b6 9c bd bd e3 90 fc bb
       -0.31727567 0.026363112 -0.09258406 -0.0077077015
000080 53 a6 8b be e1 bf b2 be cf ce 9e be f2 72 9c be
       -0.27275333 -0.34912017 -0.31017157 -0.30556446
000090 a9 ec 7c bd 20 62 9d be ec b7 ac bd a6 b0 8a 3d
       -0.061749134 -0.30738926 -0.08433518 0.06771974
0000a0 4a a6 80 bd 0d 0e 6f 3d ea 9f f8 bc 94 d2 93 be
       -0.06281717 0.05836301 -0.03034969 -0.28871596
0000b0 a5 d2 83 bc f7 05 3f 3d d0 c7 83 3c 9a 1c 99 3c
       -0.016091654 0.046636548 0.016086489 0.018690396

model.1.running_mean f4 [48]
000000 d6 fe 03 3e 5d 61 8c 3d c1 f6 a2 3d ad 92 b0 3e
       0.12890181 0.06854508 0.07957221 0.34486905
000010 d1 2b 44 3e f3 ec 0c 3e 97 2b 52 3e d2 02 20 3e
       0.1915734 0.13762264 0.2052444 0.15626076
000020 49 28 ae 3e fe c5 56 3d 7d a3 e5 3d 49 0f ce 3d
       0.3401511 0.052434914 0.112128235 0.10061509
000030 3c e7 5b 3d 50 d2 39 3d 5a 72 85 3e 43 4b b9 3e
       0.05368732 0.045366585 0.26063806 0.36190233
000040 be 21 92 3e 3c b1 2b 3e c4 17 f8 3d 44 42 9a 3e
       0.28541368 0.16766828 0.12113908 0.30128682
000050 8f 70 9c 3d b6 63 17 3e 28 c2 66 3e 7d df d1 3d
       0.07638656 0.1478413 0.22535002 0.10247705
000060 e3 39 e4 3b db 9a 2d 3e 46 c9 75 3e 0a c0 1b 3d
       0.0069649084 0.16953604 0.24002561 0.03802494
000070 a9 3b 89 3e 4d 7e b2 3c c2 de 98 3c 21 91 2c bd
       0.2680333 0.02178874 0.018660907 -0.042130593
000080 fe 34 22 3e cb 1a b4 3d 11 6b b2 3d 1c ea 3a 3e
       0.15840527 0.08794173 0.087118275 0.18253368
000090 9c 61 1a 3e 77 67 40 3e 00 e3 09 3e 5e e0 b9 3d
       0.15076298 0.18789469 0.134655 0.09075998
0000a0 89 f9 b3 3d 23 15 72 3c 17 a6 9a 3d 50 9e 0d 3d
       0.087878294 0.014775547 0.075512104 0.034574807
0000b0 4a ef 1d 3e 7e 0c 8f 3e 68 41 92 3d fa 56 81 3e
       0.15423313 0.27939218 0.071413815 0.2526167

model.1.running_var f4 [48]
000000 34 ab 35 3c 9c 15 35 3c a7 4d 50 3c ad 15 6d 3c
       0.011088181 0.011052515 0.012713826 0.0144705
000010 bf fb f6 3b 60 e1 47 3c 19 22 03 3c 5e ca a9 3b
       0.0075373347 0.01219973 0.008003735 0.0051815948
000020 3b ee 73 3c 5d 95 81 3c 6f 6d 51 3c 9f 99 3e 3c
       0.014888342 0.015818292 0.012782439 0.011633306
000030 3b d6 2c 3c cf e8 d4 3b fa 40 01 3c ac 46 12 3c
       0.010549123 0.0064974795 0.007889027 0.008927982
000040 c4 63 26 3c 7e aa f0 3b 07 b7 34 3c de 79 59 3c
       0.010155622 0.007344543 0.011029965 0.013273684
000050 4a b1 45 3c d1 67 bf 3c 5e 9b 55 3c a0 2b 0f 3c
       0.012066195 0.023364933 0.013037531 0.008738428
000060 4e 38 64 3c 00 84 56 3c 85 22 b5 3c 7b ff 70 3c
       0.01392944 0.013092995 0.022111187 0.014709349
000070 15 ae b9 3b a5 cb f1 3b 99 b8 5e 3c da 6e 3a 3c
       0.005666504 0.0073790126 0.013593816 0.011378968
000080 b3 63 31 3c 91 9e 28 3c 6a 04 15 3c 18 cd 28 3c
       0.010826993 0.010291711 0.009095291 0.010302804
000090 6a f5 6f 3c ad d4 5d 3c ac 10 20 3c ed 62 3f 3c
       0.014645914 0.013539475 0.0097696 0.011681301
0000a0 a3 20 05 3c 08 ec 2f 3c ea 27 71 3c cc 07 36 3c
       0.008125457 0.010737427 0.014718989 0.011110257
0000b0 00 39 56 3c ce 06 14 3c 72 2c 9f 3c b6 1c 14 3c
       0.013075113 0.0090348255 0.019430373 0.009040048

model.4.weight f4 [24, 48]
000000 b0 71 5a be be 83 82 3d b6 7c 44 bc 54 6b 9e bd
       -0.21332431 0.06372784 -0.011992624 -0.07735315
000010 ca 80 3e bd f7 95 ef bb cb ef 18 3e f1 fc 86 bd
       -0.04650954 -0.0073115784 0.14935224 -0.065912135
000020 e6 50 1a 3e c3 d5 55 3d 8b 9d 05 bd e0 b6 42 3e
       0.15069923 0.052205812 -0.032620948 0.19015074
000030 73 aa ff 3d 40 7e 2c 3e b6 c7 9f 3d 07 9b 8d bd
       0.124836825 0.16845036 0.07801764 -0.06914335
000040 e7 30 51 3d 58 80 db 3c 1b 5f 79 3e 1a 73 19 3e
       0.051072028 0.026794598 0.24352686 0.14985314
000050 b7 bc 29 3e bb 59 6b 3e 28 31 73 3e 00 15 36 3e
       0.16575895 0.22983448 0.2374922 0.17781448
000060 0f 96 8e be fc 65 c1 bd 32 fe c7 bd 7c 4e 1d 3e
       -0.2784886 -0.0944328 -0.09765281 0.1536197
000070 ec 30 8b 3e 42 88 da bd 10 56 3c be c8 20 4c be
       0.27185762 -0.1067052 -0.18392205 -0.1993438
000080 e5 49 b2 3c 51 e1 16 3e 10 2b cb 3d 0f b8 38 3e
       0.021763751 0.14734389 0.09920323 0.18038963
000090 02 4c c2 bd 21 00 53 3e 03 ad 47 be 93 09 1a be
       -0.094871536 0.20605518 -0.19499592 -0.15042715
0000a0 96 e0 91 bd 32 34 de bd 95 3a af bd 39 59 41 3e
       -0.071229145 -0.10849799 -0.085560955 0.18881692
0000b0 b7 62 09 be 97 7b 13 be 6d 6d 6f 3c 50 e5 da bd
       -0.13416563 -0.14402615 0.0146134915 -0.10688269
0000c0 df cb 27 bd 5c 58 9b 3d 2d 4c 37 3e f2 a3 1a be
       -0.04096591 0.075852126 0.17900153 -0.15101603
0000d0 db eb bd bd 2e ff 27 3e 64 e4 53 3c 66 8f a3 bc
       -0.092735015 0.16405937 0.012932871 -0.019965839
0000e0 2a f8 70 3e 8e 75 9f 3d d0 f5 82 bd aa 0a 36 3e
       0.23532167 0.07786094 -0.06394541 0.17777506
0000f0 15 d8 48 3e 59 8b 2b 3e fb e5 46 3e 54 89 60 be
       0.19613679 0.16752376 0.19423668 -0.21927387
000100 54 20 b4 3d e9 dd 11 3e c8 57 99 3e 1f 95 f4 3d
       0.087952286 0.14244808 0.29949784 0.11942505
000110 14 45 8b 3e 27 10 af 3d a2 07 0f 3e 98 c3 94 3d
       0.2720114 0.08548003 0.13967755 0.07263869
000120 1b e2 64 be 36 49 8d bd 43 5a 56 bd 03 a2 04 3e
       -0.22351877 -0.068987295 -0.052332174 0.12952428
000130 d4 1f c2 3d 50 cc 47 bd a0 30 bf bd 96 49 14 be
       0.09478727 -0.048778832 -0.09335446 -0.14481196
000140 1c ec df 3d ab 6e 37 3d 8e cd 61 3e b7 6b 80 3e
       0.10933706 0.044783276 0.22051069 0.2508218
000150 da c6 2c 3d 06 45 b4 bc 56 90 c2 bd a3 1d 2c be
       0.042181827 -0.02200557 -0.09500186 -0.1680818
000160 1d 31 0c be 89 4c d5 3d 83 61 d9 bd f5 2e 96 3e
       -0.1369061 0.104149885 -0.10614302 0.293327
000170 ec a7 3e be 2f 27 39 bd cb 1a 3e 3d 4f 55 36 be
       -0.18618745 -0.045203384 0.04641227 -0.1780598
000180 35 2d 14 be 03 56 8c 3d 74 dd fa 3d f9 12 6d be
       -0.1447037 0.06852343 0.1224927 -0.23151769
000190 51 9d 09 be ca 00 ff 3c 79 1c 05 3d 12 91 06 3d
       -0.13438918 0.031128306 0.032497857 0.032853194
0001a0 44 ff 0c 3e 02 d9 74 3e 9e 77 bb bd 52 ae 01 3e
       0.13769251 0.23910907 -0.091536745 0.12664154
0001b0 1e 16 0e 3e d6 d2 2d 3e 5b b1 f5 3d 12 ae e4 bb
       0.13875625 0.16974959 0.119967185 -0.0069787586
0001c0 0e 19 7e 3d 00 05 94 3d 52 ba 58 3e 0d ab f2 3d
       0.062035613 0.07227516 0.21164826 0.118490316
0001d0 41 4d a6 3d 67 2c a6 3d eb 1d 16 3e 33 20 3b 3e
       0.08120204 0.08113938 0.1465985 0.18274002
0001e0 27 fb 80 be 53 42 81 3d 13 4b 26 be 3c f6 69 3e
       -0.25191614 0.063114785 -0.16239576 0.22847837
0001f0 ac ab e9 3d ce 29 3d be 61 4e 19 be 37 b4 76 bd
       0.11409697 -0.18472978 -0.14971305 -0.06023046
000200 74 01 01 3e f5 1e 8e 3e 87 92 bc 3e 56 cd 4f 3e
       0.1259821 0.27757993 0.36830541 0.20293173
000210 3a 41 4f 3c 9b 55 00 3e 01 5b 2b be a7 23 2b be
       0.012649829 0.12532656 -0.16733934 -0.16712819
000220 97 b4 bc bd 5a d1 fd bc cc 31 28 be 65 24 21 3e
       -0.09214132 -0.030983616 -0.16425246 0.1573654
000230 e2 0f 18 be 92 13 14 be e9 48 17 be e4 84 c9 bd
       -0.14849809 -0.1446059 -0.14773907 -0.098398
000240 cc 80 3b 3e b2 0e 08 bd e5 41 36 be b3 68 18 3e
       0.18310851 -0.03321714 -0.17798574 0.1488369
000250 3a 98 33 3e 7f 04 23 bd 37 1a d6 bd 0c 09 32 3e
       0.17538539 -0.03979921 -0.10454219 0.17386264
000260 e4 3d 13 be 1a 0e 63 be 57 bd 29 3d 9b 8b 59 be
       -0.14379078 -0.22173348 0.041440334 -0.21244662
000270 16 1f 5f be 26 26 df bd 05 e9 a1 bd 68 91 25 3e
       -0.21789202 -0.10895948 -0.07905773 0.1616875
000280 25 0f 9a bd 23 70 00 3d db 57 ad bd 13 d3 6c bd
       -0.0752242 0.031356942 -0.08464023 -0.057818484
000290 b8 e1 78 bd 76 a8 42 be 93 43 35 be 1e 83 35 be
       -0.060762137 -0.19009575 -0.17701559 -0.17725798
0002a0 88 78 58 3e 5a 67 5d 3d a0 8c fa 3d c9 ab 26 be
       0.21139729 0.05405364 0.12233853 -0.16276468
0002b0 10 5f 36 be b7 f2 d8 3d 9c d1 61 3e 27 2d af 3d
       -0.17809701 0.10593169 0.22052616 0.08553534
0002c0 d2 40 56 be ec bd 1f be 81 a9 e4 bd 60 41 8a ba
       -0.20923164 -0.15599793 -0.11165143 -0.0010548048
0002d0 d7 5b a5 3d ae 5a 29 be 8f 35 a9 3d c5 95 60 3e
       0.08074158 -0.16538498 0.082621686 0.21932133
0002e0 ce 96 37 3e 8c cb 7b 3e a4 ea 33 3e c8 8c 45 be
       0.17928621 0.24589366 0.17569977 -0.19291985
0002f0 36 f3 f2 3c f0 e7 67 3e d7 4a 58 3e 75 73 84 3e
       0.029656988 0.22647071 0.21122299 0.25869337
000300 d1 0d 63 3e aa 85 f0 bd e6 6a 20 bb 71 f6 48 3e
       0.2217324 -0.117442444 -0.002447778 0.1962526
000310 72 b2 ef 3d ac a0 e0 bd 66 4f 44 be 6d d0 0e 3e
       0.117039576 -0.10968146 -0.19170913 0.13946696
000320 c4 0a 31 be fb e3 30 be 29 f6 28 3c 2d d9 d3 bd
       -0.17289263 -0.17274468 0.010312595 -0.10344157
000330 12 7e 30 be 51 b6 48 be 25 ff 2b be 97 0e 58 3d
       -0.17235592 -0.19600798 -0.16796549 0.05274829
000340 01 74 2a be 2f 35 3a be f3 38 83 be 6a 09 37 be
       -0.16645814 -0.1818435 -0.25629386 -0.17874685
000350 42 6b 8c bd a0 0b 81 be 05 1d 33 be 4a 45 b2 bd
       -0.06856395 -0.25204182 -0.17491539 -0.08704622
000360 24 2e 06 3e 61 80 0f 3d e0 c0 42 3e fb a3 01 be
       0.13103539 0.03503454 0.19018888 -0.1266021
000370 05 32 40 be 3b d8 63 3e da 41 74 3e 0c a1 02 3e
       -0.18769081 0.22250454 0.23853245 0.12756747
000380 10 20 2d be 5b 39 5a be cd 2d ae bd 1e e7 b2 bd
       -0.16906762 -0.21310942 -0.085048296 -0.08735488
000390 9a c6 35 3e fd 90 06 be 52 b8 42 3e ec 6c e9 3d
       0.17751542 -0.13141246 0.19015625 0.11397728
0003a0 55 4e ad 3d 9f 9b 55 3d 7a fb 2c 3e 11 26 9c bd
       0.08462206 0.052150365 0.16892806 -0.07624448
0003b0 b9 ed 96 bc 55 01 1f 3e 56 b3 b3 3d 5f 55 fe 3d
       -0.018423902 0.15527852 0.0877444 0.12418627
0003c0 91 a3 c3 bd c0 d0 60 3d d5 69 4d 3e 46 f8 71 bd
       -0.09552682 0.05488658 0.20059903 -0.059074663
0003d0 11 71 f7 bd f3 f8 71 bc d9 d2 45 3e 2e eb 34 bd
       -0.120821126 -0.014768827 0.19318713 -0.044169597
0003e0 e2 b6 27 3e f9 fb 4a 3c 5c 81 8f bd e7 b7 18 3e
       0.16378358 0.0123891765 -0.07007095 0.14913903
0003f0 04 95 32 3e 14 9c 4b 3d 0c 8a 2c 3e df 27 56 bc
       0.17439657 0.049709395 0.16849536 -0.013071029

model.4.bias f4 [24]
000000 42 9d 44 39 4c 8a 1b b7 d4 10 64 38 ec e0 76 b8
       0.000187506 -9.27092e-06 5.437511e-05 -5.8860445e-05
000010 54 ec 3c b9 8c 2a 17 38 c5 70 31 39 59 38 62 b9
       -0.00018017116 3.604083e-05 0.00016922045 -0.0002157403
000020 83 dd ba 38 f5 02 1b b8 48 84 dc b8 bf 4b fb 38
       8.910431e-05 -3.6957634e-05 -0.00010515057 0.000119827215
000030 57 74 8b b8 38 bc be b8 44 7c a9 b8 6e 98 1a b9
       -6.6497065e-05 -9.0949645e-05 -8.081694e-05 -0.00014743369
000040 86 d0 35 b8 44 10 38 b7 b0 a0 41 38 9a 6e a3 38
       -4.3347965e-05 -1.0971042e-05 4.6164438e-05 7.793047e-05
000050 a1 6e 8d 38 94 c4 1f b8 28 47 85 38 7a d4 4d 39
       6.74401e-05 -3.809163e-05 6.355188e-05 0.00019629477

model.5.weight f4 [24]
000000 9f 05 b6 3e 6d d9 bc 3e f9 ac c0 3e c6 88 d4 3e
       0.35551164 0.36884633 0.37631968 0.415106
000010 41 90 ab 3e 1a 23 bd 3e 0a 54 c0 3e 40 b7 ab 3e
       0.33508494 0.36940843 0.37564117 0.33538246
000020 c2 c2 af 3e e5 d6 c6 3e 75 15 a7 3e 20 ac b9 3e
       0.34328276 0.38835827 0.32633558 0.36264133
000030 fd 19 bd 3e 27 94 c0 3e e7 19 d5 3e 9b 28 b0 3e
       0.3693389 0.3761303 0.41621324 0.3440598
000040 3f b9 ca 3e 1f 20 c8 3e 95 e3 d4 3e 90 ec ae 3e
       0.39594457 0.39087006 0.4157988 0.34164858
000050 f0 7b fc 3e 0d 4f eb 3e 3e 0f b4 3e e9 92 b9 3e
       0.49313307 0.45958748 0.3516788 0.36244896

model.5.bias f4 [24]
000000 1b 94 6c bc 8a a7 20 3c c7 2e 37 3c d6 2f d2 3d
       -0.014439608 0.009805569 0.011180586 0.1026303
000010 32 eb 33 3e a0 0d f2 3c d1 1b eb 3d d4 d2 61 bd
       0.17570189 0.029547513 0.11479915 -0.055132702
000020 ee 87 ce bc fc 77 a2 3d db 62 4e bd ad 0b 86 3c
       -0.0252113 0.079330415 -0.050387245 0.01636299
000030 15 57 80 bd 98 ab e5 3d 20 27 cf 3d b0 c9 e0 bc
       -0.062666096 0.112143695 0.101148844 -0.027439922
000040 98 24 76 3c 76 9c 22 3e 8a 16 ad 3d 62 bb a4 bc
       0.015023373 0.15879998 0.084515646 -0.020108882
000050 10 e1 d2 3d f8 d1 ae 3d 77 66 82 bb 0d 63 4a bd
       0.102968335 0.08536142 -0.0039795 -0.04941087

model.5.running_mean f4 [24]
000000 8b 80 03 be 78 ee 16 3b 30 aa 95 bd a4 00 83 3e
       -0.12842004 0.0023030322 -0.07307851 0.25586426
000010 27 17 e4 3d 65 a1 51 bd ce d4 64 3e 3b b2 00 3d
       0.111372285 -0.05117931 0.22346804 0.031419974
000020 86 57 84 3d af ed 29 3e cd da 50 bd 71 42 8e bd
       0.06462006 0.16594575 -0.050989915 -0.069462664
000030 8e b1 e2 bd b1 dd 48 3e e1 83 5c 3e 00 ca 03 3a
       -0.11069022 0.19615819 0.21534683 0.0005027354
000040 fc 4b 37 bd 37 df 2c 3e 66 02 1b 3e 5e c6 ea bd
       -0.0447502 0.16882025 0.15137634 -0.11463617
000050 f4 dc 2e 3e b6 9a 83 3e c8 e2 d1 bd 22 b2 24 be
       0.17076474 0.25703973 -0.10248333 -0.16083577

model.5.running_var f4 [24]
000000 f3 76 20 3f 2e b9 20 3f c4 3d 34 3f 50 d8 51 3f
       0.626815 0.6278256 0.70406747 0.8197069
000010 e9 4e 3d 3f 2f 06 27 3f 2c 89 2e 3f 17 8f f4 3e
       0.7394853 0.6524381 0.6817806 0.4776542
000020 72 4a 10 3f 77 0a 30 3f 00 f4 2b 3f 9c 4c 2e 3f
       0.56363595 0.6876597 0.6716919 0.68085647
000030 05 81 49 3f 28 06 1b 3f 63 de 31 3f d0 ca 25 3f
       0.78712493 0.6055627 0.6947996 0.6476259
000040 cf 35 10 3f 7f 9e 41 3f f1 86 36 3f 50 f0 17 3f
       0.56332105 0.7563247 0.71299654 0.5935106
000050 96 94 33 3f 5d dc 4c 3f de 92 47 3f e9 84 38 3f
       0.701486 0.8002375 0.77958477 0.72077805

model.8.weight f4 [2, 24]
000000 71 76 4d be 4d a4 4b be 88 a2 56 be dd 76 56 3e
       -0.20064713 -0.19886895 -0.20960438 0.2094378
000010 93 59 5c 3e 45 81 56 be f1 56 4e 3e cb dc 3b be
       0.21518545 -0.2094775 0.20150353 -0.18345945
000020 3f c4 2e be 1f ab 4d 3e 1c 50 29 be d4 35 4b be
       -0.1706705 0.20084809 -0.16534466 -0.19844753
000030 9e b8 4d be 38 d4 54 3e a5 ea 6d 3e 34 e4 37 be
       -0.20089957 0.2078408 0.23234041 -0.17958146
000040 0d 60 72 be 3b 3b 7b 3e a7 cd 60 3e 98 9b 2d be
       -0.23669453 0.24534313 0.2195345 -0.16953886
000050 6f cd 89 3e 84 f7 79 3e dd 36 40 be c1 22 47 be
       0.26914546 0.24410826 -0.18770929 -0.19446851
000060 62 74 4d 3e c2 bc 4b 3e 60 af 56 3e b0 76 56 be
       0.20063928 0.19896224 0.20965338 -0.20943713
000070 6f 58 5c be ea 63 56 3e 68 56 4e be ef d4 3b 3e
       -0.2151811 0.20936552 -0.20150149 0.18342946
000080 7d bb 2e 3e 9f aa 4d be 83 5b 29 3e ea 1c 4b 3e
       0.17063709 -0.20084618 0.16538815 0.19835249
000090 1e b7 4d 3e ea d0 54 be b5 ed 6d be bc d7 37 3e
       0.20089385 -0.2078282 -0.2323521 0.1795339
0000a0 04 5e 72 3e ee 3a 7b be e0 cc 60 be e1 9d 2d 3e
       0.23668677 -0.24534199 -0.21953154 0.16954757
0000b0 57 cd 89 be e2 f8 79 be 00 37 40 3e 5a 34 47 3e
       -0.26914474 -0.24411348 0.18770981 0.19453564

model.8.bias f4 [2]
000000 33 9d d9 3e bf 0e dd be
       0.42502746 -0.43175313
