trained_models/run02.pth (torch, 207943 bytes, 14 tensors)

model.0.weight f4 [48, 1024]
000000 42 f1 7b bd 03 37 cc 3c d5 36 cd 3b 10 81 a7 3d
       -0.06150938 0.024928575 0.00626264 0.081789136
000010 06 55 34 bd 02 d2 81 3c 0e f9 10 3d 33 b0 ba bc
       -0.044026397 0.01584721 0.035393767 -0.022789096
000020 18 6c 72 3d 7e 74 ba 3d a0 c0 39 bc a5 21 05 3c
       0.059185117 0.0910425 -0.011337429 0.008125697
000030 2d 71 0c 3e 37 e2 c5 3c 83 23 df 3d 78 35 9e bd
       0.13715048 0.02415572 0.10895445 -0.07725042
000040 e8 15 9d bd ca 9d eb bd 6b bf 46 bd c1 99 99 3d
       -0.07670194 -0.11504705 -0.048522394 0.07500029
000050 b0 8c ac bc bc 13 f3 bd 13 2a d1 bc 36 c2 b5 3d
       -0.021063179 -0.118689984 -0.025532758 0.088749334
000060 42 b2 ca 3d 90 56 aa bd af f6 42 3d 2c 10 ad 3c
       0.09897281 -0.08317292 0.047598537 0.021125875
000070 85 2c ea 3c 3a da a8 bc cd 9a 4c bd 47 b7 14 3c
       0.028585682 -0.020611871 -0.049952317 0.0090769
000080 21 f0 05 3d 55 55 d2 bc 9f c0 f8 3d 03 c6 85 bd
       0.032699708 -0.025675455 0.121461146 -0.06531908
000090 df 27 ca 3c 1f 3f 9f 3c 3a c5 ce bd 75 1b d1 3c
       0.024677215 0.019439278 -0.10096212 0.025525788
0000a0 10 e5 13 3d 9c b2 bf 3c a0 2a 0c 3d 6d 19 00 3d
       0.036107123 0.023400597 0.034220338 0.031274248
0000b0 fc 8f fa 3d c6 28 04 3d ff 9e 31 bd 63 3e 16 3d
       0.12234494 0.032265447 -0.04336452 0.03668059
0000c0 11 b0 55 3c 09 b6 c6 3d 0d b0 0d 3c 31 13 64 bd
       0.013042466 0.09702689 0.008647931 -0.055682365
0000d0 83 fa 0f bd 82 19 f8 3d 57 bf 03 be 92 35 cc bb
       -0.035151016 0.1211424 -0.12865959 -0.006231972
0000e0 86 41 15 3d 99 fa 39 be 01 a2 80 bd a4 d5 84 bd
       0.03643944 -0.18162002 -0.062809 -0.06486061
0000f0 ef 45 fe 3d 6a c1 94 bb 38 20 9f 3b 4d 7d ab 3c
       0.124156825 -0.0045396583 0.0048561357 0.020933772
000100 99 1e 0a bd 1e b7 05 bd 50 87 db 3d 96 88 b4 bc
       -0.033720586 -0.032645337 0.10719168 -0.022037786
000110 0b 5e 4d bd d2 c4 3e bd ed cd da 3d 63 ee be 3d
       -0.050138514 -0.04657442 0.106838085 0.093228124
000120 15 73 57 3d 5e 82 1c 3d c4 df 21 be 94 15 cf 3c
       0.052599985 0.038210265 -0.15808016 0.025278844
000130 d0 89 8d 3d 42 ab 2d bc d7 57 6f bd 14 38 ba 3d
       0.06911051 -0.010599913 -0.05843338 0.09092727
000140 d8 71 35 3e cf f9 bb 3d 4f 1e b8 bc 98 e7 4d be
       0.17719209 0.091785066 -0.02247539 -0.20107877
000150 f6 51 16 be 43 8a 1c 3c 5f 72 1b 3e 62 6d 82 bd
       -0.14679703 0.009554449 0.15180348 -0.06368519
000160 19 44 4c 3d a9 6d 9d bd 47 b6 9e 3c 37 48 af 3d
       0.04986963 -0.07686932 0.019374026 0.08558696
000170 9f 81 78 3d 03 fe 7f bd 27 da 15 3d a2 ae 84 3b
       0.06067049 -0.062498104 0.036585 0.004049138
000180 ad 1b 4e bd 3c e4 c5 bd a4 35 b6 bd 72 30 fc 3c
       -0.050319362 -0.09662673 -0.0889695 0.03078482
000190 dd 0c 4f 3d d1 e5 84 3b 3b 89 b3 3d c8 89 21 3d
       0.050549377 0.0040557166 0.08766409 0.03943804
0001a0 63 06 e2 3d 8c ed 71 3d 12 3b 92 3b e1 6e 0f 3c
       0.110363744 0.059064433 0.004462608 0.008754463
0001b0 1b 36 9e 3d eb ca 46 bd 62 af 22 3c bb ba d6 bd
       0.077251635 -0.04853336 0.00992951 -0.10484835
0001c0 d5 0b ab bc a0 f6 6f bd fb 76 86 bd 1c e5 9e 3d
       -0.020879665 -0.05858481 -0.065656625 0.07758543
0001d0 c9 58 8d bc 58 2c 8b 3d cf 29 40 3d 69 34 e9 3d
       -0.01725425 0.06795567 0.04691487 0.113869496
0001e0 78 aa f5 bc e4 18 5a bd 6b fd 63 bd 40 1f ae bb
       -0.029988512 -0.053246394 -0.0556616 -0.005313784
0001f0 7b 1a b0 3d 1b d9 82 3d 8e 57 2f bd 84 3f 8d 3d
       0.08598801 0.06389066 -0.042808108 0.0689688
000200 8e 72 95 3d e3 dc 38 bd 9a f9 99 3d ea 51 80 bc
       0.0729724 -0.04513253 0.07518311 -0.01566406
000210 5c 6c 11 3d 79 61 03 ba a6 7d 1f 3d f6 ff 82 bd
       0.03550373 -0.0005011778 0.038938187 -0.06396477
000220 1a 65 2a 3c 92 cc 8c bd 79 28 bf bd c2 55 8e bc
       0.010400081 -0.06874956 -0.093338914 -0.017374877
000230 25 e7 c3 3b 3e 68 a3 bc 0f 75 93 3d d8 6a fd 3c
       0.0059784823 -0.019947167 0.072000615 0.030934736
000240 38 6c 25 3e d1 09 2c bd 35 af 21 3d 88 81 3a bd
       0.16154563 -0.04200155 0.03947373 -0.045533687
000250 59 95 b2 3d f1 d4 f6 3d b3 ad 2d bc 42 d8 e0 3a
       0.08719892 0.12052334 -0.010600495 0.0017154294
000260 82 4c 48 3d d9 f6 fb ba 4e 03 bb 3c de 9f 71 3d
       0.04890109 -0.0019223347 0.022828724 0.05899035
000270 6f 71 91 3d ce 96 7e bd 31 99 8a bd 27 5c 84 bd
       0.07101714 -0.062155537 -0.067675 -0.06462889
000280 f0 aa eb 3b 10 9e 00 be 0a dd 64 3d ee 35 60 3d
       0.007192008 -0.12560296 0.05587486 0.05473893
000290 98 b8 ac 3c 01 bf 2b bd d8 4f 08 3d 12 0a 82 bd
       0.021084115 -0.041930202 0.03327927 -0.06349577
0002a0 73 76 05 be bd 32 89 bd 95 17 56 bc 9a fc 5b 3d
       -0.13033466 -0.06699131 -0.013067146 0.053707696
0002b0 c8 93 a1 3a 33 70 b9 3c 2d 8a e5 bd ca b8 78 3c
       0.0012327367 0.022636509 -0.112079956 0.015180776
0002c0 d9 b0 72 3b e7 e9 66 3d f6 17 63 bb 56 88 b8 bd
       0.003703168 0.05637541 -0.0034651733 -0.09010379
0002d0 45 85 cc 3d cd be 90 3b aa 2f 3b bc db 44 4b bc
       0.09986357 0.0044172765 -0.011424938 -0.012406553
0002e0 5e 0f 52 bd 37 98 97 3d bb e1 9c bc b9 38 a3 3d
       -0.051284187 0.074020796 -0.019150605 0.07969803
0002f0 e9 cd 57 3c 93 68 14 3d 22 2c c9 bd 08 6e 30 3d
       0.013171651 0.036232542 -0.09822871 0.043073684
000300 22 cb 6f bd 18 71 84 3c 8f df 98 bd 0b 10 4b bd
       -0.058543332 0.016167209 -0.074645154 -0.049575847
000310 8f 55 bc 3d a8 cb d3 3c 8e 27 39 3d d2 eb 0e bc
       0.091960065 0.025853947 0.045203738 -0.008723216
000320 37 d7 91 3b 6f cf 17 bc 8e 9d 1b bd 22 75 24 bd
       0.0044507044 -0.009265765 -0.037992053 -0.04015077
000330 36 e9 31 ba 46 5b b9 bc 64 19 3c bc a1 ee db bc
       -0.00067867653 -0.02262653 -0.011480663 -0.026847186
000340 fa 54 4e bd 4b 7c 3b 3d ba 0d 76 3d fb 81 6d 3d
       -0.05037401 0.045772832 0.060071684 0.057985287
000350 35 06 37 bd b5 75 c5 bd a5 21 36 3d 8e ba 3b 3d
       -0.044683654 -0.096415915 0.04446568 0.04583221
000360 ae 73 1e bd c8 e3 81 3d 40 e0 4e 3d 93 27 d7 3d
       -0.03868454 0.06342274 0.05050683 0.10505595
000370 a6 6a c4 3c d5 9a ab bc 5c 8b 58 bd 5f e6 94 bd
       0.023976635 -0.020947853 -0.05286728 -0.07270502
000380 04 e6 85 bb df a0 c6 3c cb 77 b2 bb 7d f4 d3 bd
       -0.004086258 0.024246631 -0.0054464093 -0.10349367
000390 8c 48 97 bd 3a 8d 60 bc bc 89 53 bd f8 db a4 3d
       -0.07386884 -0.013705546 -0.051645026 0.08049768
0003a0 9e 41 81 3c 40 b6 da bc 85 a1 2c bb 5d 8a 6b bd
       0.015778359 -0.026698232 -0.002634139 -0.057505
0003b0 5a d8 64 3d ee 02 12 3d d4 07 5c bd 66 c9 8b 3b
       0.05587039 0.035647325 -0.053718403 0.004265952
0003c0 0d 7a 3a bc 84 c1 10 3c f9 f2 03 3d 62 0c de 3d
       -0.011381638 0.0088352 0.03221414 0.108422056
0003d0 0b d8 16 bd d7 04 86 bd dd b1 fb bb ed fe 85 bd
       -0.03682713 -0.06543892 -0.007681115 -0.06542764
0003e0 76 57 15 bc 13 9b 50 3d b9 61 40 bd f6 1c 21 bd
       -0.009115091 0.05092914 -0.046968196 -0.03933426
0003f0 a9 dd af 3a 8a 5d 62 bc ad 40 c5 bc d5 4c 3d bd
       0.00134175 -0.013816247 -0.024078691 -0.04621585

model.0.bias f4 [48]
000000 dd 33 8a b7 a8 7b 0f b9 9f 2c 9e 39 fa 44 2f 39
       -1.6475033e-05 -0.00013683608 0.00030169354 0.00016714996
000010 d6 ce 16 39 b4 8e 0d b8 2a fd cb 39 95 3d c1 38
       0.00014382167 -3.3749922e-05 0.000389078 9.214428e-05
000020 9c 07 f8 b8 13 37 4f 39 a1 d8 82 b8 ec f6 26 b9
       -0.00011826979 0.00019761575 -6.239233e-05 -0.00015922979
000030 3d 4b a6 b8 fe 55 5f 39 a0 58 32 39 48 6c 0a 37
       -7.929511e-05 0.00021298972 0.00017008418 8.250652e-06
000040 34 1b c6 36 00 dd 4a b7 c0 a3 40 b7 74 1d e8 36
       5.9040267e-06 -1.2091594e-05 -1.1482218e-05 6.9175676e-06
000050 22 83 ff 38 5c 6a 80 39 6c e0 a9 38 c5 ac 1b 39
       0.00012183773 0.00024493306 8.10035e-05 0.00014846314
000060 0d 30 64 38 76 0c 43 37 50 17 7e 38 e8 07 83 38
       5.4404187e-05 1.1625807e-05 6.058003e-05 6.2480394e-05
000070 68 b7 e7 36 3e 90 97 b8 7c 42 e4 b7 80 26 0e b9
       6.9056878e-06 -7.227108e-05 -2.7210677e-05 -0.00013556518
000080 b7 e3 a9 b7 4c 48 c0 b9 ce a8 b9 37 c8 3a 9f b9
       -2.0252408e-05 -0.0003667496 2.2132324e-05 -0.0003037064
000090 90 46 97 b7 3c fb b9 b9 c6 23 6d 39 20 45 e1 b5
       -1.8033461e-05 -0.00035473134 0.00022615408 -1.6783924e-06
0000a0 7f a1 9d 38 90 c8 56 37 aa 21 0b 38 dd e0 87 b9
       7.5164244e-05 1.2802091e-05 3.3171535e-05 -0.00025916743
0000b0 93 d7 ee b7 52 9c 9c b8 81 95 c0 b8 81 4d 93 38
       -2.8472195e-05 -7.4677766e-05 -9.183121e-05 7.0239425e-05

model.1.weight f4 [48]
000000 88 51 db 3e db 9b bf 3e 67 73 c7 3e d6 24 d7 3e
       0.4283564 0.37423596 0.38955233 0.4202029
000010 a4 c6 e3 3e fe ef d6 3e 9d 14 d2 3e 46 ee d8 3e
       0.44487488 0.41979975 0.41031352 0.42369288
000020 a9 99 c7 3e 93 f9 c6 3e ca e7 d3 3e 60 c4 d6 3e
       0.3898442 0.38862285 0.4138778 0.41946697
000030 07 71 d6 3e 04 84 be 3e 0c 85 cc 3e 25 0d c7 3e
       0.41883108 0.37210095 0.39945257 0.38877216
000040 79 17 c9 3e 85 be ac 3e 73 1e dd 3e 06 2c d8 3e
       0.3927572 0.33739105 0.43187293 0.42221087
000050 cf 17 c9 3e 53 6c d1 3e 2e 90 d5 3e f9 65 d1 3e
       0.39275977 0.40902957 0.41711563 0.4089811
000060 db eb d9 3e ba d8 d4 3e ef c8 cd 3e ea 62 c3 3e
       0.42562756 0.415716 0.40192363 0.38161403
000070 57 72 ce 3e 28 ae c6 3e 2a f8 c9 3e b3 7b d1 3e
       0.4032161 0.38804746 0.39447147 0.40914688
000080 d9 24 d0 3e bd 86 d0 3e b7 7b d9 3e f7 bf c9 3e
       0.40653113 0.40727797 0.424772 0.3940427
000090 75 5f dc 3e 75 02 d7 3e 99 6a d7 3e c0 86 d5 3e
       0.43041578 0.41994062 0.42073515 0.4170437
0000a0 55 70 d6 3e 2c 2a e1 3e 16 e4 d2 3e f0 28 b6 3e
       0.41882578 0.43977487 0.4118964 0.35578108
0000b0 d4 96 bf 3e 93 35 d1 3e c3 cf dc 3e c9 88 d4 3e
       0.3741976 0.40861186 0.4312726 0.4151061

model.1.bias f4 [48]
000000 a6 62 5d be 32 fb f0 be 4c 05 e3 be 2c b9 2b be
       -0.21619663 -0.47066647 -0.4433998 -0.16769856
000010 d6 1d a1 be 13 16 86 be 90 51 eb be 9a ee 70 be
       -0.31468076 -0.26188716 -0.45960665 -0.2352852
000020 3f 62 eb be 3e c0 e3 be 83 9a e9 be f2 98 e1 be
       -0.45973393 -0.44482607 -0.45625696 -0.44062
000030 74 b5 fb be de b1 04 bf 0e a0 f3 be ed 80 e7 be
       -0.49161875 -0.51833904 -0.4758305 -0.4521555
000040 ae ab ed be 1b bd e4 be bf 09 8d be 89 d8 47 be
       -0.46420044 -0.44675526 -0.27546498 -0.19516195
000050 ae c4 f0 be 8d 67 e7 be 14 70 d7 be a3 02 e5 be
       -0.47025055 -0.4519619 -0.42077696 -0.44728574
000060 3e da 78 be 5d e3 36 be 0a 49 5f be 71 2c d7 be
       -0.24302003 -0.1786017 -0.21805206 -0.42026094
000070 3a f1 d8 be b9 22 ee be 62 4c 53 be e1 ef 2d be
       -0.4237154 -0.46510866 -0.20634606 -0.16986038
000080 43 18 ed be 3f e1 67 be 19 a3 e0 be 6a bf d1 be
       -0.46307573 -0.22644518 -0.43874434 -0.4096635
000090 1e 54 33 be 49 48 62 be a2 79 52 be a1 36 7e be
       -0.17512557 -0.22097887 -0.20554212 -0.24825527
0000a0 3d 65 4c be f1 59 65 be a7 5e 8d be 65 85 e2 be
       -0.19960494 -0.22397591 -0.27611277 -0.44242397
0000b0 9e 3a f3 be 3c f4 63 be 90 a8 e5 be cd d7 84 be
       -0.4750566 -0.22261137 -0.44855165 -0.25945893

model.1.running_mean f4 [48]
000000 a4 1c 95 3d 92 3c 93 3d 55 ce ce 3d 33 05 83 3a
       0.072808534 0.07189287 0.100979485 0.0009996056
000010 b2 f9 2b 3e 92 3d b0 3d ae 7d fc 3d 56 6b e8 3d
       0.1679447 0.086054936 0.12328659 0.11348598
000020 c0 cb d5 b7 c6 06 9b 3d dc 54 5b 3d b2 9d 05 3e
       -2.5486457e-05 0.07569651 0.053547725 0.13048437
000030 b4 6e d0 3d ec e0 98 3d de 89 6e 3d 46 6c 4e 3c
       0.10177365 0.074647754 0.05823695 0.012599057
000040 70 8a 84 3d ac 8f 1a 3c 62 72 11 3d 52 51 af 3d
       0.06471717 0.009433668 0.035509475 0.085604325
000050 ce ef 66 3d 88 5c dc 3d 0f a7 16 3d ab 7b ab 3d
       0.05638104 0.107598364 0.036780413 0.08373197
000060 5f a0 43 3d ed 55 70 3d 22 a0 6d 3d 45 32 be 3d
       0.047760364 0.058675695 0.058014043 0.09286932
000070 1d 8c 1a bd 3e fd a6 3d be c5 88 3d a1 45 99 3d
       -0.03773128 0.08153771 0.06678341 0.07483984
000080 60 f7 c9 3d ca b1 20 bc 98 ae 7d 3d e9 16 cf 3d
       0.09861636 -0.009808013 0.061934084 0.10111792
000090 66 d8 81 3d d8 ac 93 3d 68 3e 3f 3d 32 55 67 3d
       0.06340103 0.07210702 0.046690375 0.056477733
0000a0 d3 c8 dd 3c 01 ea 9e 3d 2d af a7 3d 47 b8 e9 3d
       0.0270733 0.077594765 0.08187709 0.11412101
0000b0 03 94 dc bc 25 4c 9c 3d 7b d6 17 3d 4e c0 38 3d
       -0.026926046 0.07631711 0.03706978 0.04510527

model.1.running_var f4 [48]
000000 69 7b 10 3b cc bf ba 3a 10 32 ca 3a 53 1b b6 3a
       0.0022046214 0.0014247834 0.0015426297 0.0013893641
000010 77 3f c4 3a d8 64 c4 3a 06 4b b8 3a 26 bb d5 3a
       0.0014972527 0.0014983667 0.0014060445 0.0016306385
000020 4a 77 b0 3a f8 17 bb 3a d4 1e b8 3a fa b7 a2 3a
       0.0013463285 0.0014274111 0.0014047273 0.0012414448
000030 21 e4 b2 3a a1 ba 93 3a 2e 51 d2 3a d3 e8 d6 3a
       0.001364831 0.001127083 0.0016045922 0.0016396291
000040 90 b4 b6 3a 48 eb a4 3a a7 83 f5 3a 43 52 c1 3a
       0.001393931 0.0012582326 0.0018731252 0.0014749247
000050 a4 01 b0 3a a3 7e cb 3a be 3f c2 3a a6 3c bc 3a
       0.0013428223 0.0015525412 0.0014820022 0.0014361336
000060 6a 72 ac 3a 86 23 07 3b 51 81 f8 3a 3a ba bc 3a
       0.0013156657 0.002062054 0.0018959438 0.0014398762
000070 e1 22 ad 3a 78 d7 b9 3a f1 92 04 3b 88 d5 f7 3a
       0.0013209247 0.0014178595 0.0020229185 0.0018908242
000080 eb c6 b4 3a 5b 57 9e 3a ec bc c0 3a e6 0d b7 3a
       0.0013792192 0.0012080477 0.0014704741 0.0013965934
000090 36 38 f1 3a 22 1d 99 3a e3 4e e4 3a 2a ef a8 3a
       0.0018403593 0.0011681656 0.001741853 0.0012888659
0000a0 20 18 dd 3a dc 20 cb 3a 3c 6d ea 3a 7b 70 8d 3a
       0.0016868152 0.0015497464 0.0017885338 0.0010790968
0000b0 32 08 b9 3a 35 83 d7 3a a4 d3 d3 3a 52 42 e0 3a
       0.0014116822 0.0016442301 0.0016161096 0.0017109609

model.4.weight f4 [24, 48]
000000 3d 3d 04 bd c1 7a 9c 3d c4 03 04 3e 89 b5 33 bc
       -0.032284964 0.07640601 0.12892061 -0.010968574
000010 28 98 5a bd 1d 24 b1 bb 8c b3 ca 3d 0d f4 fa bc
       -0.053367764 -0.0054059164 0.09897527 -0.03063395
000020 67 7c 1c 3e e8 86 07 3e 6f 63 bd 3d 4d 97 e8 3d
       0.1528183 0.13235056 0.09247481 0.11356983
000030 e4 75 c3 3d 3d 67 d8 3d 4d 01 06 3e 41 96 f2 3d
       0.0954397 0.10566566 0.13086434 0.11845065
000040 b8 82 cd 3d d8 54 d2 3d 0c 96 c3 bc ef 4a 29 bd
       0.10034698 0.10270089 -0.023875259 -0.041331228
000050 f5 a6 00 3e 79 0a cb 3d 91 c7 66 3d d9 b2 a2 3d
       0.12563689 0.09914107 0.056342665 0.07944269
000060 a5 68 01 bd 1e bf 86 bd 0b e9 a9 bc 91 e3 be 3d
       -0.031593937 -0.065794215 -0.020741006 0.093207486
000070 04 25 bd 3d 5e 81 e8 3d 3c 1f b8 bc e9 9b 4f bc
       0.09235576 0.113528 -0.022475831 -0.012671449
000080 32 1f e8 3d f4 ce 1a bd 7c 1b ca 3d b3 7f dd 3d
       0.11334075 -0.037795022 0.098685235 0.10815372
000090 ad 94 40 bd f9 46 e5 bc 10 3f e9 bc b3 d6 13 bd
       -0.04701679 -0.027987944 -0.028472453 -0.036093425
0000a0 70 dc c4 bc 4b 75 0f bd 68 0e e4 bc 8c 1b b0 3d
       -0.024030894 -0.03502397 -0.0278389 0.08599004
0000b0 73 87 c4 3d 94 5b 08 bc 96 f6 d8 3d b6 d6 2a bc
       0.095961474 -0.008322615 0.105939075 -0.010427168
0000c0 af 39 8b bc 69 a4 f3 3d b3 61 08 3e 0d 51 1c bd
       -0.01699528 0.11896593 0.1331852 -0.038163234
0000d0 46 ce 77 bd 3e 5a 1e bc 04 d3 df 3d b6 91 7d bd
       -0.060499452 -0.00966507 0.1092892 -0.06190654
0000e0 ba 71 e6 3d af 1f ef 3d 18 93 db 3d 91 27 91 3d
       0.1125216 0.11675965 0.10721415 0.07087625
0000f0 1b ee df 3d 20 5e e6 3d 74 a3 da 3d ce 8c 10 3e
       0.10934087 0.11248422 0.106757075 0.14116213
000100 45 88 ce 3d 3f e7 c3 3d ad e4 c8 bc 75 3f 3a bd
       0.10084585 0.09565591 -0.024523104 -0.045470674
000110 bb 32 bc 3d f7 ff db 3d 57 0d dd 3d 48 33 d5 3d
       0.091893636 0.10742181 0.1079356 0.10410172
000120 7c 2a f7 bc 69 44 44 bd 14 38 f3 bc df 26 92 3d
       -0.030171625 -0.047916804 -0.029689826 0.0713632
000130 b6 3b 93 3d 43 fa df 3d 87 69 3a bd 7e 76 d3 bc
       0.07189123 0.109364055 -0.045510795 -0.025813337
000140 38 03 87 3d 39 d5 d9 bc 68 02 a4 3d 1b 8b b4 3d
       0.06592411 -0.02659093 0.080082715 0.08815595
000150 c3 eb 80 bc 8d 4b 29 bd f3 05 25 bd 98 aa 38 bd
       -0.01573742 -0.041331816 -0.040288877 -0.045084566
000160 67 b5 4d bd 92 1f 02 bd 2a df 37 3a b2 74 f3 3d
       -0.050221827 -0.03176839 0.000701415 0.11887492
000170 81 7a fc 3d ec 8f b1 bc 17 86 c1 3d 05 ef 88 bd
       0.12328053 -0.021675073 0.09449404 -0.06686214
000180 de 6c 36 bd ee c0 bf 3d a1 5d c5 3d 50 11 ac bc
       -0.044537418 0.0936297 0.09636999 -0.021004349
000190 62 87 84 bd e4 89 95 bd 81 04 f5 3d e7 d7 63 bd
       -0.06471135 -0.07301691 0.1196375 -0.055625822
0001a0 9b f0 f4 3d 3c 5e de 3d 26 c9 bf 3d 12 81 f9 3d
       0.11959954 0.108578175 0.09364538 0.12182821
0001b0 c8 c1 d9 3d 9d bd d7 3d 7d 69 ce 3d 25 14 ce 3d
       0.10632664 0.10534213 0.10078714 0.10062436
0001c0 d5 1f bb 3d 7d c9 cc 3d b5 7e 7c bd 70 49 45 bd
       0.09136931 0.09999368 -0.061644275 -0.04816574
0001d0 66 85 09 3e 7a 59 ab 3d a2 09 b2 3d 53 dc e5 3d
       0.13429794 0.08366676 0.086932436 0.11223664
0001e0 b7 1b 71 bd f4 01 51 bd 90 61 0a bd 47 f9 ff 3d
       -0.05886432 -0.051027253 -0.03378445 0.12498718
0001f0 7e a8 83 3d 76 3e b0 3d e9 ef 02 bd dc 99 7d bd
       0.06428622 0.086056635 -0.031967077 -0.06191431
000200 d0 49 b6 3d 93 5c 00 bd 03 a1 0e 3e 29 24 a3 3d
       0.08900797 -0.031338286 0.13928609 0.079658814
000210 70 b4 8d bd 56 46 15 bd ec 1e 88 bd d4 dd fa bc
       -0.06919181 -0.03644403 -0.06646523 -0.030623354
000220 80 50 33 bd b2 21 b6 bc a0 ea 54 bd 67 14 c9 3d
       -0.043777943 -0.022232864 -0.05198157 0.098183446
000230 05 66 8f 3d 1a 7e 38 bd b2 15 a5 3d 9b 27 0a bd
       0.070018806 -0.045042135 0.08060779 -0.033729177
000240 7e ea 8c 3d ec 5f 5b bd ce 41 59 bd 72 fc c4 3d
       0.06880663 -0.053558275 -0.053041272 0.096184626
000250 f9 7b e8 3d a8 ba c2 3d 25 f7 19 bd 33 73 01 3e
       0.11351771 0.09508258 -0.03758921 0.12641601
000260 4c 19 90 bd c4 8a 87 bd fc 2d a3 bd 0c ba ed bc
       -0.07036075 -0.06618264 -0.07967755 -0.029019378
000270 70 84 61 bd 83 8b 9e bc 44 54 a5 bd a3 74 40 bd
       -0.055057943 -0.019353634 -0.08072713 -0.046986233
000280 ff 35 90 bd 33 8c a0 bd aa ac dc 3d 66 2d ba 3d
       -0.07041549 -0.07839241 0.107751206 0.0909069
000290 de 91 b2 bd 3c f3 45 bd 55 7c 81 bd 39 c0 22 bd
       -0.08719228 -0.04832767 -0.063225426 -0.0397341
0002a0 88 41 de 3d 41 53 ab 3d 4f 9c d4 3d a3 36 58 bd
       0.10852343 0.08365489 0.10381376 -0.05278648
0002b0 35 f3 00 bd f2 70 9f bd 4d 07 8f 3d 9f 66 b3 3d
       -0.03148194 -0.077852145 0.069838144 0.08759808
0002c0 d4 42 37 bd fe a3 c8 3d 29 c4 93 bc f0 11 dd bc
       -0.044741467 0.09796904 -0.018037872 -0.026986092
0002d0 70 6f ef 3d ea ee d1 3d 96 53 be 3d 1e 5e d1 3d
       0.11691177 0.10250647 0.092932865 0.102230296
0002e0 77 b8 8f 3d a5 09 05 3e 6f bf f2 3d c0 e1 64 bd
       0.07017606 0.1299196 0.11852919 -0.055879354
0002f0 88 38 7f bd b8 b7 fb 3d 68 0a 1e bd 2b e5 d4 3d
       -0.06230977 0.12290901 -0.038584143 0.10395273
000300 cb 17 d7 3d cd 4d a6 bc ab 18 7f bd 1b 67 bd 3d
       0.10502585 -0.02030077 -0.062279385 0.092481814
000310 1b b0 1b 3e 48 ad 02 3e 9c 4b eb bc 89 58 ba 3d
       0.15203898 0.12761414 -0.028722577 0.09098918
000320 32 36 d2 bc 33 17 58 bd 39 5f 8b bd 27 e7 0f bd
       -0.025660608 -0.0527565 -0.06805272 -0.035132553
000330 41 fb 1e bd 83 cb d9 bc 4d 4d c1 bc c6 2f 67 bd
       -0.038813833 -0.0265863 -0.02359643 -0.056442045
000340 ec 07 f4 bc e4 65 83 bc 8c 5d f7 3d 63 9b b1 3d
       -0.029788934 -0.016039796 0.120783895 0.08672216
000350 5c b3 68 bd 3a b9 8a bd 65 94 c8 bc 3f 75 72 bc
       -0.056811675 -0.067736104 -0.024484823 -0.014798461
000360 05 cf a1 3d 8a 6c f5 3d d4 86 be 3d 74 5e 64 bd
       0.07900814 0.11983593 0.0930306 -0.05575414
000370 e0 3c 50 bc a9 84 16 bd 92 e2 be 3d f4 75 c5 3d
       -0.012709826 -0.03674761 0.093205586 0.096416384
000380 27 45 55 bd 3a 40 c1 3d ea 2f 29 bd b9 94 0f bd
       -0.052067902 0.09436078 -0.04130546 -0.035053942
000390 b8 6a d5 3d e7 a1 c7 3d ef 17 0a 3e 96 08 07 3e
       0.104207456 0.09747677 0.13485692 0.13186869
0003a0 b1 1a b8 3d a4 5e ed 3d 19 55 c1 3d 7f 46 9a bd
       0.08989466 0.11590317 0.09440059 -0.07532977
0003b0 e0 cc 08 bd 8c 4e cb 3d b5 eb 2e bd 29 20 d6 3d
       -0.03339851 0.09927091 -0.042705256 0.10455353
0003c0 22 e1 db 3d 6e a9 26 bd d7 49 19 bd 1a 60 df 3d
       0.107363 -0.040688924 -0.037423935 0.10907002
0003d0 15 a3 f1 3d 09 7b ff 3d 2b ad 0b bd 70 4d da 3d
       0.117986836 0.12474639 -0.034100693 0.10659301
0003e0 b5 19 24 bd c1 95 f4 3b 72 7e 2a bc 43 d7 c8 bb
       -0.04006358 0.007464141 -0.0104061235 -0.006129177
0003f0 2b 9a 30 bd f5 0f 4f bd bf 1f 85 bd 20 47 a1 bc
       -0.043115776 -0.050552327 -0.06500196 -0.019687235

model.4.bias f4 [24]
000000 02 f2 44 b7 a8 1c f7 37 23 b2 e9 37 dc 49 c9 36
       -1.1738857e-05 2.9458039e-05 2.7858716e-05 5.998865e-06
000010 a1 e5 8c b8 c5 99 e5 37 74 62 c2 38 5c e4 3e 38
       -6.718492e-05 2.7370532e-05 9.268979e-05 4.5512206e-05
000020 1c 11 38 38 47 4e b1 b7 04 8c c1 b6 aa e6 0c 38
       4.3884953e-05 -2.1136495e-05 -5.768148e-06 3.3593424e-05
000030 18 1e 08 37 4c a7 12 36 ae 01 71 38 a0 b4 35 b6
       8.113238e-06 2.1853075e-06 5.7460442e-05 -2.707624e-06
000040 80 00 5e 35 e4 9d 1c b8 48 2b 69 38 70 c2 44 b7
       8.270217e-07 -3.7340345e-05 5.5591838e-05 -1.1727781e-05
000050 5a 06 16 b8 53 e2 5d 38 24 fe c2 37 c8 bc 5e b7
       -3.5768702e-05 5.2901287e-05 2.3244946e-05 -1.3276185e-05

model.5.weight f4 [24]
000000 b6 37 0b 3f d9 10 12 3f ea 51 0f 3f f6 f5 1c 3f
       0.54381883 0.5705696 0.55984366 0.61312807
000010 85 f4 21 3f 23 1b 1b 3f d3 78 1c 3f 9a 6e 10 3f
       0.6326373 0.6058828 0.61121863 0.56418765
000020 00 37 10 3f 7a fa 1e 3f 1d 29 0f 3f 4a cf 11 3f
       0.56333923 0.62100947 0.5592211 0.56956923
000030 88 3d 15 3f 8c 8b 1c 3f 3f 1f 21 3f 30 b2 0f 3f
       0.58297014 0.6115043 0.629383 0.5613127
000040 fc 1c 10 3f 11 6a 1d 3f 7b ac 1f 3f 20 9b 10 3f
       0.56294227 0.6148997 0.6237256 0.564867
000050 4a 69 23 3f 88 26 21 3f a3 a7 0d 3f 35 f5 0f 3f
       0.63832533 0.6294942 0.5533392 0.5623353

model.5.bias f4 [24]
000000 bf f6 2b 3c ca 34 ab ba 0a 43 9a 3c 02 8f a0 3e
       0.010495841 -0.0013061997 0.018830795 0.31359106
000010 39 b9 9c 3e bb 44 9f 3e a3 ae a1 3e 82 b9 ed 3b
       0.30610064 0.31107125 0.3157855 0.0072547803
000020 d7 9c 8e 3c 1d f6 a2 3e d7 d3 8e 3c 8f d3 e5 3b
       0.017408771 0.31828395 0.017434997 0.007013745
000030 35 27 f1 3b 42 f9 a4 3e 1a c9 9b 3e 68 5c 86 3b
       0.00735941 0.3222142 0.30426866 0.004100371
000040 aa 6c 83 3c 63 22 a3 3e 0c 99 a1 3e 73 88 7a 3c
       0.016043026 0.31862172 0.31562078 0.015291321
000050 74 9d a0 3e 64 06 9d 3e 36 7e cb 3c a7 01 2c 3c
       0.31370127 0.30668938 0.024840456 0.010498441

model.5.running_mean f4 [24]
000000 8f d7 de 3c 9c d1 8d 3c 21 6e 42 bb 37 f1 fd 3d
       0.027202396 0.017311864 -0.0029667693 0.12399524
000010 b0 62 11 3e e9 a6 16 3e cd 24 14 3e a2 2e b7 3c
       0.14197803 0.14712109 0.14467163 0.022361103
000020 45 4a 95 ba f4 bd 0e 3e ec 1c 77 3b f1 93 59 3c
       -0.0011389932 0.13939649 0.0037706448 0.013279901
000030 97 b7 b9 3b da 30 09 3e 4d 90 06 3e bc 97 21 3c
       0.0056676376 0.13397542 0.13140984 0.009862836
000040 5c d0 ad 3c d4 3e 10 3e 0f 8c 0a 3e e0 b4 20 3b
       0.021217518 0.14086467 0.1352999 0.0024521872
000050 2e a9 14 3e ff 8e 17 3e fa 6b 79 3c 5f fb 13 3a
       0.14517662 0.14800642 0.0152234975 0.0005645062

model.5.running_var f4 [24]
000000 a3 85 37 3d 44 a7 41 3d 80 37 5b 3d fd 23 8e 3d
       0.04480518 0.047278658 0.053519726 0.06940458
000010 6a e6 8c 3d e7 01 90 3d d9 8d 93 3d bb ce 4b 3d
       0.068798855 0.07031613 0.0720479 0.0497577
000020 60 4a 45 3d f0 71 8f 3d 29 e6 50 3d 13 fd 49 3d
       0.048166633 0.07004154 0.051000748 0.049313616
000030 45 3a 47 3d 9e f3 8f 3d b1 b2 90 3d e1 24 44 3d
       0.048639555 0.07028888 0.07065333 0.047886733
000040 87 5f 44 3d c3 bb 8e 3d f5 f2 90 3d 9f 60 4c 3d
       0.047942664 0.069694065 0.070775904 0.049896833
000050 47 0b 95 3d e2 3f 92 3d b8 75 4a 3d 70 f4 51 3d
       0.072775416 0.07141091 0.04942867 0.051258504

model.8.weight f4 [2, 24]
000000 59 ae a5 be 88 c5 a0 be 4a a3 a1 be bb f7 f9 3e
       -0.3235958 -0.31400704 -0.31569892 0.48821816
000010 e9 df fa 3e 91 0f e7 3e 66 57 fd 3e 58 11 b0 be
       0.48998955 0.45129064 0.49480742 -0.34388232
000020 5e ca b3 be 52 40 00 3f ec 89 a4 be c9 79 bf be
       -0.3511533 0.50098145 -0.32136476 -0.37397602
000030 4a 0e b3 be eb 29 01 3f 23 c3 eb 3e 5a 94 b4 be
       -0.3497184 0.50454587 0.46047315 -0.35269433
000040 c2 a5 ae be 0e 02 fe 3e 58 fc 00 3f 4d c4 ad be
       -0.34110838 0.49610943 0.50385046 -0.33938828
000050 48 89 00 3f cf 27 f6 3e 24 d4 a9 be d8 04 9e be
       0.50209475 0.48077247 -0.33169663 -0.3086307
000060 b5 0e a3 3e 33 38 bc 3e fb 53 b2 3e d1 59 f9 be
       0.31847158 0.36761627 0.34829697 -0.48701337
000070 ae 47 f5 be 69 12 f3 be 3c 73 fb be b3 f1 a6 3e
       -0.4790625 -0.47474983 -0.49111354 0.32606277
000080 ef 5d a8 3e d2 0c fe be 71 37 b2 3e d2 5c a0 3e
       0.32884166 -0.49619156 0.34807923 0.31320816
000090 e5 46 b1 3e 3b 32 f3 be 3d 14 fd be 71 41 a5 3e
       0.346244 -0.4749926 -0.49429503 0.3227649
0000a0 bf 5b ac 3e 3a 83 fc be 84 c2 fd be 5d 51 b0 3e
       0.33663747 -0.49318868 -0.49562466 0.34437075
0000b0 27 50 00 bf 8e 2e fc be d7 0e aa 3e b0 44 b5 3e
       -0.501223 -0.49254268 0.33214447 0.35403967

model.8.bias f4 [2]
000000 f0 b3 b0 3e ad b3 d7 be
       0.3451228 -0.4212927
