trained_models/run03.pth (torch, 207943 bytes, 14 tensors)

model.0.weight f4 [48, 1024]
00000000: f249 c8bd aa6d 703d 8b9e 173e 7d5a c6bb
00000010: a0e1 aa3c 37a3 7c3e 01b9 24be c63e 1dbb
00000020: 38bc 05bd d3fc 64bc d573 a5ba 1e42 1dbe
00000030: 897a 1b3e d700 2cbd 8900 8d3d 87e4 903c
00000040: 4e54 e33d 7c16 54be 1a45 e33d 80c7 11bd
00000050: d876 a1bd b560 36be 1c5d 9a3c 9eda 0fbc
00000060: 0f67 20be 8340 c7bc c58a 1b3e c47f babd
00000070: 1f26 81bb 3f92 2dbe 5f2d 2f3e df1c b03d
00000080: 7926 083d dc4b c9bd 936d 79bd 0929 523d
00000090: f5ce 97bc a23d 133e 08ae 10bd 341c 96be
000000a0: fa7a 04bd 15f6 2dbd d2b9 8b3d a388 d2bd
000000b0: f5f0 6bbd 28c9 803d e762 0abe 4c03 e93d
000000c0: d178 19be 98cd b2bd 628c 123e 1328 5cbe
000000d0: 0881 523e ff7e 59be 0218 0d3e 9307 f2ba
000000e0: 07e0 073e e417 8fbd 61ce 19bd 26df d03c
000000f0: 22d4 26be 1c2b ca3d bedc 10be 936e 2ebc
00000100: 1b22 06be e32b 573d 25b6 333d 11fb b63b
00000110: 746a 3f3e 902e c2bd bb62 d1bc c840 993e
00000120: 05df bfbd 2019 94bd baad d1bd 3301 a1bb
00000130: 9cea dbbc 343b b73c 97ba a33b 3af9 0fbd
00000140: e922 5fbd bbfa efbc 9b46 fd3d bc41 27be
00000150: a5e8 c3bd 98b2 02bd 298b 323e 5164 0b3d
00000160: 1bb6 31be ed4a 21bd dbf9 9a3d aa9f 49bd
00000170: a454 883d f119 403d e83b 5cbe 58c9 3c3e
00000180: 467d 2a3e 0d3f 813d 7084 cabd 5515 2ebe
00000190: f136 703e 8d0c efba 05fe 86bd 5a89 fa3d
000001a0: 8139 bb3d b7d3 5b3e 5798 00bd 9e12 e9bd
000001b0: 6bed 42be 4372 e6bd f9de 033d b0b1 5e3d
000001c0: 0062 083e ddce 14be b47a 043d 79e2 98bd
000001d0: 6950 053e b14b a6bd 559d acbc 267c 883c
000001e0: d531 56bd b8ea acbd d123 e53d 9418 05be
000001f0: 4741 673e dba7 413e 7a67 503d 2ece b3bd
00000200: 5b60 63bd 6372 12be 57c0 35bd d971 d63d
00000210: 44f7 7cbe 52c7 7a3d 6086 41be d707 9abb
00000220: e67e 103e 498f acbe b402 6b3e d43f 61bd
00000230: d944 323d 598f 4bbe b991 e3bd 0f2e 823c
00000240: 85ab c93d 5761 0e3d 782c be3d fc0a cc3d
00000250: be30 d6bd c3d1 97bd 2f2b 6a3d 1eb9 e93d
00000260: 3a2f b7ba c46d 09be 5d06 933c c01b 16be
00000270: 4b4b 3e3c 4857 87bd 13c2 f53c 8843 303d
00000280: 0b1d 803e 1888 83bc ed70 e4bd fb12 6cbe
00000290: 3d7b 3dbe 22f4 d5bd 2b29 74be 2ca4 bcbd
000002a0: 71da 16be 7d30 42be fe6a cebd 2606 21bd
000002b0: 8bf8 31bd 2011 0e3e a65d bcbc a21b 1a3d
000002c0: 97ce fbbd e535 c03d 0cba 52be 614c 42bd
000002d0: 64e6 7fbc 79b8 bfbb bf04 e03c d746 ab3b
000002e0: f5a2 b13d b90c 01bd 7c8c aabc b19d 263e
000002f0: 5a44 9f3d e008 c2bd 1f91 84be 66ce 223d
00000300: a687 7b3e 4b77 7b3c e5d3 983d e8d7 8abb
00000310: 791d d13e 8adc 10bd 4f2e 173d 7bde b5bd
00000320: dd8a c13d abeb 2ebd 4764 59be c901 af3d
00000330: 9f71 ff3d 3968 1cbe 8493 d8bd 5361 2dbd
00000340: 5921 9ebd 7a3c d03e c383 023e ea30 9bbe
00000350: c632 56bd 15bc 6bbc ca0a 4d3e 171b 8d3d
00000360: dbdd b4bd e0ba 0abd 5891 5c3e 20f8 c4bb
00000370: e2e2 8f3a 5608 ecbc 5e7e 5abe d352 d63d
00000380: 15eb 023e 5112 203d 6409 41bd 7ce1 febd
00000390: 7ccb 1ebd f443 39be ed97 febd bacd 93bd
000003a0: c6bb 9cbc af6e 413d 86fb 633e 40ad ebbd
000003b0: b6cc e9bd cc5e 613d ae7b 8d3c 7a39 5dbd
000003c0: c6eb 193c 2244 fe3d 9460 7cbd 4d88 0ebe
000003d0: ac9b cd3d 06fd 143e f1bf 8ebd db99 83be
000003e0: c7d4 2e3d 1efd 8dbc c5ac 18be c1df c4bd
000003f0: 0e46 9bbe ec34 8ebd bac3 efbd 35bc e73d
-0.09779729 0.058698334 0.14806573 -0.0060532675 0.02085954 0.24671637 -0.16086198 -0.0023993715
-0.032650203 -0.013976294 -0.0012623022 -0.15357253 0.15183462 -0.04199299 0.06884868 0.017687095
0.11100064 -0.20711702 0.110971645 -0.03559065 -0.07883996 -0.17810328 0.018843226 -0.00878015
-0.15664314 -0.024322754 0.15189655 -0.091064006 -0.003941312 -0.1695032 0.17107151 0.08599257
0.033239815 -0.09828922 -0.060895514 0.051308665 -0.018531302 0.1437898 -0.03532222 -0.29318392
-0.032343842 -0.04247101 0.06822552 -0.10279968 -0.05760284 0.062883675 -0.13514291 0.11377582
-0.14987494 -0.0873062 0.14311364 -0.21499662 0.20557034 -0.21239851 0.1377869 -0.0018465392
0.13269053 -0.06986979 -0.037550334 0.02549703 -0.1629186 0.09871504 -0.14146706 -0.01064648
-0.13098948 0.052532088 0.04387488 0.0055841287 0.18692952 -0.09481537 -0.025559774 0.29932237
-0.093687095 -0.07231355 -0.10238214 -0.004913473 -0.026845269 0.022367097 0.0049966085 -0.03514979
-0.054476652 -0.029294362 0.123669825 -0.1633367 -0.09565858 -0.0319086 0.17435898 0.034031216
-0.17354624 -0.039378095 0.075671874 -0.049224533 0.06656769 0.04689974 -0.21507227 0.18436182
0.1664935 0.06310854 -0.09888542 -0.17000325 0.23458458 -0.0018237993 -0.06591419 0.12233229
0.091418274 0.21467482 -0.031395283 -0.11380504 -0.1903588 -0.112522624 0.032195065 0.054368675
0.13318634 -0.14532037 0.03234358 -0.07465071 0.13018955 -0.08119906 -0.021071116 0.016660761
-0.052293617 -0.084432065 0.11188472 -0.12997657 0.22583495 0.18911688 0.050879933 -0.0877956
-0.055511814 -0.14301448 -0.044372883 0.104709335 -0.247037 0.061225243 -0.18898916 -0.0047006416
0.14110908 -0.33703068 0.2295025 -0.054992512 0.04352269 -0.19878902 -0.11111779 0.015891103
0.09847168 0.0347608 0.092858255 0.099630326 -0.104585156 -0.07413056 0.05717009 0.114122614
-0.0013975867 -0.13420779 0.01794737 -0.14659023 0.011614631 -0.066084445 0.029999768 0.043033153
0.25022158 -0.016056105 -0.111543514 -0.23054115 -0.18504043 -0.10446955 -0.2384383 -0.09211001
-0.14731766 -0.1896381 -0.10079001 -0.039312504 -0.04344992 0.1387372 -0.022993874 0.03762401
-0.12295263 0.093852796 -0.20578784 -0.04743612 -0.015618894 -0.0058508483 0.027346013 0.0052269506
0.0867366 -0.031506274 -0.020818941 0.16271092 0.07776709 -0.09474349 -0.2589197 0.03974762
0.24563465 0.015348266 0.07462291 -0.004237164 0.40842798 -0.035366572 0.036909398 -0.088803254
0.09450314 -0.04270522 -0.21229659 0.08545262 0.124728434 -0.15274133 -0.105750114 -0.042329144
-0.07721204 0.4067114 0.12745576 -0.30310756 -0.052294515 -0.014388104 0.20023647 0.068899326
-0.08831378 -0.033869624 0.21539819 -0.006011024 0.001097765 -0.028812569 -0.21337268 0.10465016
0.12784989 0.039079968 -0.047128096 -0.124453515 -0.038768277 -0.18092328 -0.12431321 -0.072169736
-0.019132506 0.047224697 0.22263917 -0.11507654 -0.11415999 0.055022046 0.01727089 -0.054009892
0.009394592 0.12415339 -0.06161554 -0.13919182 0.10039458 0.14549646 -0.06970204 -0.2570332
0.04268339 -0.01733261 -0.14909656 -0.0961299 -0.30326885 -0.06943688 -0.11707254 0.113151945

model.0.bias f4 [48]
00000000: cc4c 42bb 7084 46bd 78da d4ba 8920 163e
00000010: 071d 8ebc 58e3 6a3c f825 5abe e75d 72bd
00000020: 9862 663d f0af ac3b 4b58 03be 0325 29be
00000030: 9275 063e 497b c3bd ad17 f53d f8c9 15bc
00000040: 229b 94bd adf5 a83d 17f8 a7bd 5cec 23be
00000050: a75c 69bd bb15 81bd 64a7 04be 35fd 213e
00000060: 624a 983d 24eb 49bd cd10 903d 9caf b6bd
00000070: ef0b 9f3d a1ca 70bd a362 ca3c 7852 c03c
00000080: b0cf 8b3d 2a86 bfbd d5c2 afbd a441 5a3c
00000090: 2eaa 883d ee35 ae3d 35db 923e b571 91bc
000000a0: 0f1e b1bd 2a07 25be f11d 03bc 17de e8bd
000000b0: 3749 0a3e cf30 f43d 2bb8 093e 861b 03be
-0.0029647825 -0.048466146 -0.0016239425 0.14660849 -0.017347826 0.01433643 -0.21303546 -0.059171584
0.05624637 0.005269997 -0.1282665 -0.16518025 0.13130787 -0.09544999 0.119674064 -0.009142391
-0.07256152 0.08249984 -0.08201616 -0.16008133 -0.056973126 -0.06302973 -0.1295448 0.15819247
0.074360624 -0.049296513 0.070344545 -0.089202136 0.07765948 -0.058786992 0.024705237 0.023476824
0.068267226 -0.09351762 -0.08582083 0.013321314 0.06673084 0.0850638 0.28682867 -0.017754415
-0.08648311 -0.16116014 -0.008002744 -0.11370485 0.13504492 0.11923372 0.13449161 -0.12803468

model.1.weight f4 [48]
00000000: dc73 8d3f 23a6 873f 919f 883f fa9d 7d3f
00000010: f436 723f 3be6 823f 2a90 873f 40df 6e3f
00000020: 1dfc 853f 4ad8 843f c51a 833f f499 823f
00000030: 425b 763f 77ea 803f db7f 723f abef 783f
00000040: 3421 823f 8b05 903f ce89 703f dfa2 873f
00000050: 029b 853f 23ae 6c3f 8d3c 793f a57b 623f
00000060: c033 833f c112 773f 9b00 9b3f 2c27 783f
00000070: 2180 783f 6ca6 853f 18f6 763f 4f17 783f
00000080: 2ed3 6e3f e22f 783f 9e6c 7d3f b422 6f3f
00000090: 1d8d 5f3f f14e 843f 8497 6c3f db5d 6d3f
000000a0: 15fb 713f 880e 713f 54bb 743f 4980 753f
000000b0: e62b 7b3f e415 953f ef5f 703f 06aa 693f
1.1050982 1.0597576 1.0673696 0.9906918 0.946151 1.0226511 1.059087 0.933094
1.0467564 1.0378506 1.0242544 1.0203233 0.96233 1.0071553 0.9472634 0.97240704
1.0166383 1.1251692 0.93960273 1.0596579 1.043793 0.9245321 0.9735802 0.88469917
1.0250168 0.9651299 1.210956 0.9693477 0.9707051 1.0441413 0.9646926 0.96910566
0.93290985 0.96948063 0.9899386 0.9341233 0.87324697 1.0336591 0.92418694 0.9272134
0.94523746 0.941628 0.9559834 0.9589887 0.9811386 1.1647305 0.93896383 0.9127506

model.1.bias f4 [48]
00000000: 5617 27be db06 5bbe 2bad 97be ec1d 82be
00000010: ef56 96be 5ccb 42be aeba 69be 06f9 aabe
00000020: 6991 c9be 3246 4bbe 0b6a e5bd b5b3 7fbe
00000030: 0dfb 7cbe aef8 32be 2ec1 89be 9616 8bbe
00000040: 7c53 72be b072 37bd 9947 ccbe 297c 22be
00000050: 6a8f 11be 770d c3be 9dca 5abe b501 96be
00000060: 2835 53be 4764 b5be 4a79 3abe d66d 6cbe
00000070: 9edf 9fbe b6c5 3abe 73bc a6be 9d57 adbe
00000080: fd7e 59be c504 cfbe cd2d 62be 65ff 6fbe
00000090: 2ce5 bcbe 7db0 69be b8fc 8dbe 0d5b c1be
000000a0: d482 a2be 4a8f b9be 18a2 9fbe f07c 4abe
000000b0: 28d4 2cbe 7efa 1ebe f3d0 d5be 49db afbe
-0.16317496 -0.21389334 -0.29624304 -0.25413454 -0.293632 -0.19022888 -0.22825119 -0.33393115
-0.39368752 -0.19850996 -0.11201867 -0.24970897 -0.24705143 -0.17477676 -0.26905197 -0.2716567
-0.2366466 -0.04478711 -0.39898375 -0.15867676 -0.14214864 -0.3809621 -0.21366353 -0.29298177
-0.20625746 -0.35428068 -0.1821033 -0.23088774 -0.31225294 -0.18239483 -0.3256565 -0.33855906
-0.21239848 -0.40433326 -0.22087784 -0.23437269 -0.36893594 -0.22821231 -0.27731872 -0.3776478
-0.3174044 -0.36242133 -0.31178355 -0.19774222 -0.16877806 -0.15525243 -0.41760978 -0.3434699

model.1.running_mean f4 [48]
00000000: ecb9 173e 8857 533e b530 0abd 0a65 883e
00000010: 44a6 e13c d2e7 353e 5738 86be 5c62 2a3c
00000020: 8dda 763e c46b cd3d 35ac e4bd 19e6 31be
00000030: c0c1 4d3e 088f 033e e0ac 853e 8a03 5f3e
00000040: 0ae8 7cbe 1826 2abd ca27 9d3d 7f70 fbbd
00000050: b799 5cbe 5d77 8a3d f383 e1bd c4a2 be3e
00000060: 48fb d73e f475 e3bc 3af7 f7bc d0eb b83d
00000070: c2f9 fe3d 0341 51be 6720 713e d8f5 2b3e
00000080: 7980 45bd 74a4 5dbd f3ff 6b3d c507 aa3e
00000090: e586 883e b558 a23e f7fd a13e c1b9 5d3e
000000a0: 287b f1bd fcc6 393c 58e0 23bb b082 d83d
000000b0: 7f80 7f3e c3dc 4f3e 95e4 4c3e c5da 1fbe
0.14817017 0.2063886 -0.033737857 0.26639587 0.027545102 0.17764214 -0.2621486 0.010399427
0.24106808 0.1003032 -0.111656584 -0.17372932 0.20093441 0.12847531 0.26108456 0.21778694
-0.24697891 -0.041540235 0.07673605 -0.12277316 -0.21543013 0.06761048 -0.110114954 0.37233555
0.421839 -0.027766205 -0.030269254 0.09029353 0.12449981 -0.20434956 0.23547517 0.16793
-0.048218224 -0.054111913 0.05761714 0.33209053 0.26665416 0.31708303 0.31639072 0.2165289
-0.11791068 0.0113389455 -0.0025005545 0.10571802 0.24951361 0.20299058 0.20009072 -0.15610798

model.1.running_var f4 [48]
00000000: 41fb d83b 7c2b c33b a174 b13b 78ed d63b
00000010: e117 c33b d0e6 0c3c 571e e93b 9e64 dc3b
00000020: ee19 793b db65 243c 30e4 c43b f5c5 c83b
00000030: eddb b73b 1569 d03b c9f1 c63b e7e2 053c
00000040: d483 dd3b 21a5 783b 3e89 d23b caed b23b
00000050: 6081 f93b 6429 ec3b 6eab cd3b 4272 d63b
00000060: 8172 6c3b bd0b df3b ccba 0c3c 778d 103c
00000070: bdb0 e23b 27b3 de3b 0ad9 ca3b 1cd0 b83b
00000080: d631 113c a00c f73b 1c57 0a3c 5883 1f3c
00000090: de38 d73b 8b86 e63b 757d b43b 9bbf c13b
000000a0: 52df cf3b 5b96 993b 73ba b33b 744e d23b
000000b0: e81b 013c 3cce 853b 015a e63b 3377 ab3b
0.0066217487 0.0059561115 0.0054155146 0.00655907 0.0059537743 0.008599952 0.0071142125 0.0067258617
0.003800984 0.01003405 0.0060086474 0.006127114 0.005610934 0.006360183 0.0060713035 0.0081717735
0.0067601 0.0037940221 0.006425052 0.0054604756 0.0076142997 0.0072070826 0.0062765395 0.0065443823
0.0036078992 0.0068068192 0.008589458 0.00882279 0.0069180415 0.006796259 0.006190424 0.005640043
0.0088619795 0.007539347 0.00844362 0.009735905 0.0065680584 0.0070350817 0.0055081197 0.0059127337
0.0063437605 0.004687113 0.005484873 0.0064180437 0.0078801885 0.004083423 0.0070297723 0.0052327155

model.4.weight f4 [24, 48]
00000000: 726b b83d 9947 973d c3d2 803e 3ba2 263d
00000010: 0ecc 02be 384e e7be 0fc7 873e db48 25bc
00000020: 6750 03be b482 0a3e caa0 f0bd 35cc 94bc
00000030: 5828 8a3d 029e 493d b999 173e 1c38 7c3c
00000040: 4095 81be 9a2e a8be 10b0 d5bb 5129 03be
00000050: 0240 85bd 2b70 51be 025d c5bd 5af8 a43d
00000060: e920 78be d4a4 02bd 9c87 173e 7f34 813e
00000070: 7a7d 563d 159a 3bbd 980a cd3d 7fde 87be
00000080: 9a46 573d 1cbd 073d 4567 15bd 7501 a63d
00000090: 1fa4 0abe b8be 193e 94e3 1dbd 5204 e5bd
000000a0: 7fc1 f53d e469 003e 63e8 95bd 65c3 093e
000000b0: 49c7 88be 3088 fd3d c451 233e 4c6c 1dbe
000000c0: 502e 963d eb49 813e 7311 783d 09bf 243d
000000d0: b3ee 1fbe e3d1 05be a4de d63d eef0 6cbe
000000e0: 4907 1abd aaf8 37be ade8 573e 9abb 4dbe
000000f0: daf7 363d 19e1 3cbd 9eab 6abd 54ed 563d
00000100: d96f 62bd fc88 a2be 5cce e8bc 7577 bebe
00000110: 8038 963d 7203 e63d 8bbf 163e 124a 233e
00000120: 789c c0bc 8baf 9fbd 8723 243d 3113 b53c
00000130: d2af f93c ff3a bbbd eba6 47bc ac10 6bbe
00000140: a492 5f3d 6d0b a0bd cfb1 88bd afee 71bc
00000150: 5c22 b7bd 678d de3c 73d2 25be f191 c2bb
00000160: e5ca 42be 8258 d5bd 4056 8cbe 7d12 7d3d
00000170: 54ac 8cbd c9b8 123e e136 b63e 9f06 8dbd
00000180: 0373 963e 0b16 1e3b fdcc 6d3e a46e a13d
00000190: 6356 b5bd d52d 51bd 468e dd3d b43f 343c
000001a0: fc9f 6ebd 6935 4f3e f79b 043e a944 0e3d
000001b0: 7269 52bd 0819 b73d 4800 01bc 61cc 90be
000001c0: c32b ad3d 6ce4 49be 287c 463d 7c42 c2bd
000001d0: 011f 8e3e 64a5 133e fc9e dd3d 91c2 563e
000001e0: 712b 8f3c 8014 0ebe b4e8 01bd b12a c4bd
000001f0: 8e66 ba3d efd4 b63e 5a72 1a3e b19a a53d
00000200: 95b8 0c3e fe7c 7bbd 4ae1 733e 5635 c13d
00000210: 78ca 40bd 7239 49be 4641 98bc d6d6 35bd
00000220: 9922 febd 4aec 79bd 3996 9fbe 37c9 953d
00000230: 9971 6a3d 426b 813e 2f97 d43d ee9e 3d3e
00000240: ae23 143e 1d34 41bd 866b 54bd 6ee0 213d
00000250: ac50 9c3d d158 1b3d de55 76bc 838a b239
00000260: 8a6a a0be 5bd3 183e 5c9e 323e 23fb 903e
00000270: 672a 1fbe 0bb3 f73c 53fa 243e d2f5 09be
00000280: 23ec 7cbd 7d90 273d 7309 313e b8d6 59bd
00000290: 9e24 c1bd 475d d3bc 8190 063d 286f 1c3e
000002a0: ebe4 9d3e af85 293e 2c1d 263d 8581 9bbe
000002b0: 2086 483e 0f28 58be e3f1 813e 7e71 fc3d
000002c0: 45fe 09be 0b54 243e e0b1 dd3d c5f7 9dbb
000002d0: 9819 4bbc 24bf 7c3d 64fa 3f3e 79ea 303e
000002e0: fe71 bb3c 913d 1f3e 2856 c63d 9596 c2bd
000002f0: d16c 90be 68db 463e 16fd 02be 2743 b53d
00000300: edc8 913e 3b56 e9bd b2f7 143e a362 5b3d
00000310: a5ce a73c 2ac2 3a3d 6085 843d 4d6d 603e
00000320: d3b9 3bbe 027f 6e3d a3bd 0f3e 6f6a 203d
00000330: 7dcc 983d cbac 42bd 797b 8cbb f08c 5cbc
00000340: dc96 deb9 8c1c 283e 89bd 883e b72c 4ebe
00000350: 039c 8cbe 8cff c73d 3d92 40bd 295a 2bbe
00000360: 0864 043e 7ee3 9c3e 2659 613e 3af5 4dbe
00000370: b077 363e 0b49 79be 9cc9 9d3d 707f 4abc
00000380: cc73 83be 6fdb 8b3e 9370 913d dc1b 3c3c
00000390: aedc 623d 5f43 e63d eb30 933c 8fab 533c
000003a0: 35aa 893e 1d03 863e 5472 06be c07d 67bd
000003b0: dec4 913d 80a4 cfbd e47b 703c 1d19 be3d
000003c0: 532a 8cbe 4de9 9d3d 4e9a 803d ca7e 08be
000003d0: d3b6 e7bd c807 ea3c 6774 bcbc 952d 18bd
000003e0: 57a9 173e 7124 46bd e203 003d 18fb 25be
000003f0: 276b 903e b59b 03be f813 6c3e 56cd 8ebd
0.090048686 0.07386703 0.25160798 0.04068206 -0.12773153 -0.45176864 0.26519057 -0.010088171
-0.1282364 0.13526422 -0.11749418 -0.01816378 0.06745976 0.049222954 0.14804734 0.015394237
-0.2530918 -0.32848054 -0.0065212324 -0.1280873 -0.06506349 -0.20452945 -0.096368805 0.08055182
-0.24231304 -0.031895474 0.14797825 0.25235364 0.052365758 -0.04580124 0.10011786 -0.2653694
0.052557565 0.033139333 -0.03647544 0.08105747 -0.1353917 0.1501416 -0.038547114 -0.11182465
0.11999797 0.12540394 -0.07319715 0.13453443 -0.26714543 0.12379491 0.1594916 -0.15373343
0.07333052 0.25251707 0.060563516 0.040221248 -0.156184 -0.13068347 0.10491684 -0.23138782
-0.037604604 -0.17965952 0.21084853 -0.20091096 0.044669963 -0.046113107 -0.057292573 0.052472427
-0.055282447 -0.31745136 -0.028418712 -0.37200513 0.07334995 0.11231126 0.14721505 0.15946224
-0.02351211 -0.07797154 0.040072944 0.022103878 0.030479345 -0.09142112 -0.012185792 -0.22955579
0.054583207 -0.07814679 -0.06674539 -0.014766379 -0.089421004 0.027167035 -0.16193561 -0.0059378077
-0.1902271 -0.10417272 -0.27409554 0.06178521 -0.068688065 0.14328302 0.35588744 -0.068860285
0.29384622 0.0024122025 0.23222728 0.07882431 -0.088543676 -0.0510691 0.10818152 0.011001516
-0.05825804 0.20235218 0.12950121 0.03473345 -0.05137009 0.08940321 -0.007873602 -0.2828093
0.084556125 -0.19716042 0.04845825 -0.09485337 0.2775803 0.1441856 0.108213395 0.20972659
0.01747677 -0.13875008 -0.031716064 -0.09578455 0.09101592 0.3570933 0.15082684 0.08086146
0.13742287 -0.0613985 0.2381641 0.09434001 -0.04706809 -0.1965082 -0.018585812 -0.044394337
-0.12408943 -0.06101636 -0.31169298 0.07313769 0.05723724 0.25277144 0.103803985 0.18517658
0.14466736 -0.04716884 -0.051860355 0.039520673 0.076325744 0.0379265 -0.015035121 0.00034054005
-0.31331283 0.14924376 0.17443222 0.28316602 -0.15543519 0.030236742 0.16111116 -0.1347268
-0.061748635 0.04090928 0.17288761 -0.053183287 -0.09430812 -0.025801314 0.032852653 0.15276778
0.30838713 0.16554902 0.040555164 -0.30372253 0.19582415 -0.21109031 0.25379857 0.123263344
-0.13475902 0.16047685 0.108249426 -0.004820796 -0.012396239 0.061705723 0.1874786 0.17276944
0.022881504 0.1555083 0.09684402 -0.095013775 -0.2820802 0.19419634 -0.12791857 0.08850699
0.28473607 -0.113934 0.14547613 0.053560864 0.020484278 0.045595326 0.06470752 0.21916695
-0.18332605 0.058226593 0.14037184 0.039164003 0.07460878 -0.04752807 -0.00428718 -0.0134613365
-0.0004245554 0.1641714 0.26707104 -0.20134245 -0.27462777 0.097655386 -0.047014464 -0.16733612
0.12928784 0.30642313 0.22006664 -0.20113078 0.17819095 -0.2434427 0.077044696 -0.012359485
-0.25674284 0.27315852 0.0710155 0.011481252 0.055386238 0.11243319 0.017967662 0.012919321
0.2688767 0.2617425 -0.1312955 -0.05651641 0.071176276 -0.10138798 0.014677975 0.09282134
-0.2737604 0.07710514 0.06279431 -0.13329616 -0.11314168 0.028568164 -0.023004724 -0.037152845
0.14810692 -0.048374597 0.031253703 -0.16209066 0.2820675 -0.12852366 0.23054492 -0.069727585

model.4.bias f4 [24]
00000000: e0d7 bcbd 3873 9b3d a688 d13d d2fa 983e
00000010: c524 6c3e 11d9 fbbd 31ae cf3d d276 043e
00000020: c4f2 0b3e 5a82 8a3e bcd5 cbbd facc 633d
00000030: 135d f43d 5022 713e 848b 2d3e 4f71 e93d
00000040: 6e51 003e 9d19 413e 2851 593e 8ff4 08be
00000050: 2cbf 573d d931 633e 78be 24be 1374 7ebc
-0.092208624 0.075903356 0.10231142 0.2987886 0.23060901 -0.122972615 0.10140646 0.12935951
0.13666826 0.27052575 -0.09952876 0.055615403 0.11931815 0.23548245 0.16947752 0.11398565
0.12531063 0.18857427 0.21222365 -0.13374542 0.05267255 0.22186984 -0.16088283 -0.015530604

model.5.weight f4 [24]
00000000: 17ba c83f d26d b43f 7945 bb3f 07a3 0040
00000010: 452d 0740 61d9 9c3f 9200 1a40 b341 c53f
00000020: a9a8 ae3f 8c5e 1e40 0287 ba3f 011c bd3f
00000030: 7afd b83f 05fd 1a40 9959 0f40 f6d4 bc3f
00000040: 5d3e ba3f 3147 0940 d3a9 1240 c87b c43f
00000050: c24d 0b40 6721 0040 22e9 c23f 3a65 b53f
1.568179 1.4096014 1.4630576 2.0099504 2.112138 1.2253839 2.4062848 1.5410675
1.3645221 2.4745207 1.4572451 1.4774171 1.4452355 2.421693 2.2398436 1.475249
1.4550282 2.1449702 2.2916152 1.5350275 2.176621 2.0020387 1.5227396 1.4171517

model.5.bias f4 [24]
00000000: 34bd cd3d 60d0 2b3c d17f b83d db08 7f3e
00000010: 5e4a 833e 704b ae3c 4347 693e 1155 03bd
00000020: 634a 3a3e fb4a a33e eff8 9c3d 84ee 163e
00000030: f14e 833e 0d8f f23e e531 7e3e 60de 2a3e
00000040: 89b5 2bbd 0e11 893e 3f7d 973e f736 4c3d
00000050: 7c27 953e f3cf 8a3e 23c4 2a3d 8ecc 1d3e
0.10045853 0.010486692 0.09008754 0.24905722 0.25642675 0.021276206 0.2278109 -0.032063548
0.18192439 0.31893143 0.07664668 0.14739424 0.25646165 0.47374764 0.24823721 0.16686392
-0.041921172 0.26770824 0.29587743 0.049857106 0.29131687 0.27111778 0.041690957 0.15410063

model.5.running_mean f4 [24]
00000000: 8ef0 84be 5667 8fbe bf25 393f 4e2a 3f3f
00000010: 19ac 2d3f 1322 d6be 914f 8a3e 98c7 04be
00000020: 9d18 953e 1abd bd3c 8168 b93e 49ba 833e
00000030: 5ed0 223e 7987 a1be 6029 1a3e 1898 ee3e
00000040: 617e 123f 0952 343f 8aa1 283f ebcb 7ebe
00000050: a153 58be cd00 383e a822 66be c851 393d
-0.2596478 -0.28008527 0.7232322 0.74673927 0.67840725 -0.41822872 0.2701383 -0.12966764
0.2912034 0.02316146 0.36212543 0.25728062 0.15899798 -0.3154867 0.15054846 0.46600413
0.5722409 0.70437676 0.6587149 -0.24882476 -0.21125652 0.17969055 -0.22474158 0.04524401

model.5.running_var f4 [24]
00000000: 81a3 943e bb86 9f3e 438b b83e 78f6 a43e
00000010: 2cad f53e 154b 743e f560 af3e e3e7 7c3e
00000020: 4c7b af3e 7807 a43e 5a74 ba3e cf09 bd3e
00000030: 73f0 ac3e b821 c93e faa8 dc3e c9e5 cf3e
00000040: 8039 723e ca0d de3e 1a4d fe3e 44be 943e
00000050: 9fcb 943e c526 8c3e 5ac4 a03e 3e9f c43e
0.29030994 0.3115748 0.36043748 0.3221929 0.47983682 0.23856767 0.3425366 0.24697833
0.34273756 0.32036948 0.36416894 0.36921546 0.33777198 0.39283538 0.4309767 0.40605
0.23654747 0.43369895 0.496682 0.2905141 0.290616 0.2737333 0.31399804 0.38402742

model.8.weight f4 [2, 24]
00000000: a578 11bf 7ea5 bcbe fbdb 06bf 2f35 6f3f
00000010: dc9d 883f 1787 c4be e176 ac3f 0577 29bf
00000020: ce38 efbe 9a55 983f 7dc0 eebe 28f3 14bf
00000030: 9e0a 05bf 9a8a a23f 2567 483f 0451 f6be
00000040: 2e1d 0bbf 0728 833f 7912 8f3f 16f6 11bf
00000050: 46fa 5f3f 823d 3d3f 6a32 20bf 3ae7 a6be
00000060: 37b2 0d3f c344 063f a9b9 1f3f 6ffe 6bbf
00000070: b4e1 73bf 254a 173e f926 a7bf 23cb 1b3f
00000080: 3556 ce3e df4a 92bf 5e82 0b3f 2c72 d03e
00000090: 0567 023f 6259 77bf 97a0 8ebf 31c7 c83e
000000a0: 7bb8 073f faa5 7ebf 5ed4 83bf dea0 153f
000000b0: 65d2 5dbf 2534 5dbf 3e87 203f af76 ea3e
-0.56824714 -0.3684501 -0.52679414 0.93440527 1.0673175 -0.38384315 1.3473779 -0.66197234
-0.46723026 1.1901124 -0.46631232 -0.58183527 -0.51969326 1.2698548 0.78282386 -0.48108685
-0.543414 1.024659 1.1177512 -0.5701612 0.8749126 0.7392198 -0.62576926 -0.32598287
0.5535006 0.5244867 0.6239267 -0.9218511 -0.9526627 0.14774378 -1.3058769 0.6085684
0.40300146 -1.1429099 0.544958 0.40712106 0.50938445 -0.9662076 -1.1142758 0.3921447
0.5301587 -0.9947201 -1.0299184 0.5844859 -0.8664916 -0.8640769 0.62706363 0.45793673

model.8.bias f4 [2]
00000000: 49c5 383d 7870 1bbe
0.04511002 -0.15179622
