trained_models/run09.pth (torch, 135403 bytes, 8 tensors)

model.0.weight f4 [32, 1024]
000000 2d ce 4b bb 9c d8 38 3e 79 68 b7 3d 92 01 1c be
       -0.0031098232 0.1805138 0.089554735 -0.15234974
000010 4c 60 d5 bd 53 43 e3 ba 12 c5 9a 3d d3 be ee bc
       -0.10418758 -0.001733879 0.075571194 -0.029143726
000020 1a 27 9f 3e be 83 0c be f7 fb 81 3e e9 b5 7c bd
       0.3108452 -0.1372213 0.25387546 -0.06169692
000030 6b df 56 3e 7a cc 70 3e 34 e5 f1 bb ff 04 37 be
       0.20983665 0.23515502 -0.0073820595 -0.17873
000040 61 9a 8e 3c f7 87 d8 bd 52 e0 a7 3c d4 c9 5b 3d
       0.017407598 -0.10572808 0.020492706 0.053659275
000050 8d 60 86 bd 3b 6a b1 bc 44 98 3b ba 09 a6 b9 3d
       -0.06561384 -0.0216571 -0.0007156173 0.09064872
000060 3c d8 b7 3d f9 f9 72 bc a5 be 81 3e 8b 2c 3e 3e
       0.0897679 -0.014830106 0.25340763 0.1857168
000070 e1 08 20 3e 33 0f 02 bc 41 5d 14 3e 5f bc 4f bd
       0.15628387 -0.007938194 0.14488699 -0.050716754
000080 10 37 20 3e be ae 52 bd e7 db 65 3d 00 9b 07 3e
       0.15646005 -0.05143618 0.05611792 0.13242722
000090 32 09 08 bc b8 b5 ef bc b1 d1 10 bd bf cf d5 bc
       -0.008302974 -0.029261455 -0.035356227 -0.026100038
0000a0 37 65 e2 bd de 73 0a bd 89 b7 34 bd f2 dc a7 bd
       -0.110544614 -0.033801906 -0.044120345 -0.08196439
0000b0 a0 4c b2 3d c6 28 d9 3b cd 22 c7 3d 31 e9 c2 3d
       0.08706021 0.006627175 0.097234346 0.09517134
0000c0 dc 2b 86 3e 00 40 57 3e f5 03 6a be 99 26 e3 bd
       0.26205337 0.21020508 -0.22853072 -0.11091346
0000d0 3e 60 89 bc f5 64 f5 3d b6 b9 5d bd 21 fd 47 3e
       -0.016769525 0.11982147 -0.054132186 0.19530155
0000e0 3d d1 3c be 01 b8 8e be 5c 39 21 3e fe 91 2e 3d
       -0.18439193 -0.2787476 0.15744537 0.042619698
0000f0 91 76 6b 3e 95 b0 a4 bd 74 f2 b7 3d 18 12 be 3d
       0.22994448 -0.08041493 0.08981791 0.09280795
000100 56 a4 ff 3d 46 15 99 bd 63 8b 64 bd c7 19 5a 3e
       0.124825165 -0.07474761 -0.055796992 0.21298896
000110 59 b0 6b 3d 89 01 4a 3d 43 64 92 3d 46 ab 5a bd
       0.057541225 0.04931787 0.0714803 -0.053385995
000120 bf 0d 65 3e 39 53 a8 3d c1 8c 9f be dd 41 24 3c
       0.22368525 0.082189985 -0.31162074 0.010025469
000130 46 5d 81 be 91 04 84 3e af a7 81 be 51 66 0c 3e
       -0.25266474 0.25784734 -0.25323245 0.13710906
000140 a2 48 6c 3c 88 c7 ae bc 4e 09 37 be 26 59 b0 bd
       0.014421614 -0.021335378 -0.17874643 -0.08610754
000150 4b 0f 07 3e ab d3 9e bb 3d 67 3b 3d ab ba bd 3d
       0.13189428 -0.00484701 0.045752753 0.0926412
000160 27 7d 13 3e 68 9b b9 bc 0d 29 fd 3d 64 91 50 3e
       0.1440321 -0.022657111 0.123613454 0.20367962
000170 70 d4 0c 3d 09 68 47 bd 6a 62 d6 bd 42 7c 0e 3d
       0.034382284 -0.0486832 -0.1046799 0.03478647
000180 13 bc 0c 3c 9b e3 08 3d 98 d2 82 bc fd d5 f3 3d
       0.008589762 0.033420186 -0.01596956 0.119060494
000190 15 e8 51 bc 9e 6b e8 bc 96 28 93 3d b8 a3 87 3d
       -0.01281168 -0.028371628 0.071854755 0.06623024
0001a0 18 b0 0a bc 66 51 2f be 93 e8 0c be 9c bb f9 bd
       -0.008464836 -0.17120895 -0.13760595 -0.12193987
0001b0 40 bf 17 3d f6 70 59 bd 33 a8 87 bd 7c 3d 02 be
       0.037047625 -0.053086244 -0.06623878 -0.12718767
0001c0 ac 3c 2d be 2c 83 cc bc c9 89 bd bd 18 75 fa bd
       -0.16917676 -0.024964891 -0.09254796 -0.12229365
0001d0 4f 84 bc 3d ad cb 97 bd e8 07 d3 bd 41 21 b3 bd
       0.09204923 -0.07411895 -0.10304242 -0.08746577
0001e0 c2 8b 04 be db 5b 5b be fd 54 a6 be ec 5c 9c bb
       -0.12943938 -0.21421759 -0.32486716 -0.0047718193
0001f0 41 8f bb bd 89 78 0c 3e 22 22 8b 3b 17 46 f0 bd
       -0.09158183 0.13717856 0.0042460123 -0.117321186
000200 c3 79 56 3e 9a e4 2c be 8e 15 17 3e 0a eb 32 bb
       0.20944886 -0.1688408 0.14754316 -0.0027300739
000210 3e e9 08 be d8 69 af 3c 96 89 95 3d 0e f4 9b 3c
       -0.13370225 0.021412775 0.07301633 0.019037273
000220 96 93 3b bd 60 3a e7 bd 2a f6 10 bd ee c4 27 bc
       -0.045795046 -0.11290431 -0.03539101 -0.010239823
000230 07 53 d0 3d e3 08 66 be 76 52 97 3c 48 00 df 3d
       0.10172086 -0.22464328 0.018471938 0.108887255
000240 08 6a 76 bd 38 cc 48 bd e6 70 63 3d 4e ac f1 3d
       -0.060159713 -0.049022883 0.05552759 0.11800443
000250 eb cf ee 3d cf 7f 0d bd 5d 15 db 3d 2f 34 b2 be
       0.11660751 -0.034545716 0.10697434 -0.34805438
000260 b7 80 76 bd b3 6d 11 3e af c2 d8 bc f1 b9 3d 3d
       -0.060181346 0.14202003 -0.02646002 0.046319906
000270 6e fc 86 3c f0 16 76 3d e9 6d a3 be 0d 44 6b bd
       0.01647779 0.06008047 -0.31919792 -0.057437945
000280 b9 f2 df bc c0 d7 66 3e fa 53 56 3c 04 bb b8 bd
       -0.027337419 0.2254324 0.013081545 -0.090200454
000290 1a e1 4a 3d 8d 7d 00 be 9f ad 09 3d df 0d 7f bd
       0.04953108 -0.12547894 0.033612844 -0.062269088
0002a0 10 11 0d 3e f7 29 0f 3e 09 fc 45 be 35 12 39 3e
       0.1377604 0.13980852 -0.19334425 0.18073352
0002b0 e9 e9 8d 3e 0b b1 c5 3c 93 24 91 3c 7b 9d bb bd
       0.27717522 0.024132272 0.017717635 -0.091608964
0002c0 2b 93 73 3d aa ca 67 be 51 07 b5 3d 11 79 52 3d
       0.059466522 -0.22635904 0.08839286 0.05138499
0002d0 e1 40 02 be af a9 19 3d 31 80 85 3d 2f 9a 84 bd
       -0.12720062 0.03751534 0.06518591 -0.06474721
0002e0 f1 98 e2 bd 3f aa ef 3d 72 ec 02 be 1b 71 ac 3d
       -0.110643275 0.11702394 -0.12785509 0.08420011
0002f0 3f 06 ad 3d e2 91 01 3d 47 54 b6 bd 14 32 8e 3b
       0.08448457 0.031633265 -0.089027934 0.004339466
000300 1e 8b 6e bd 20 28 8e bd f3 a5 9f bc 57 4b 1c be
       -0.05823814 -0.06941247 -0.01948831 -0.15263115
000310 ef 00 de 3a 0c 88 b6 bd 9f 14 7a bc e2 cc 91 3d
       0.0016937534 -0.08912668 -0.0152637055 0.071191564
000320 3e 23 13 be e2 ae 0b 3e b0 57 7e 3d 03 7e b6 bc
       -0.14368913 0.13640931 0.062095344 -0.022276884
000330 33 a5 bd bc e3 67 06 be 15 c0 44 bb 62 a7 65 bc
       -0.023150062 -0.13125567 -0.0030021716 -0.014016958
000340 e4 d7 d5 bd 2b 8d 30 bd a9 da 35 3e 75 72 81 3e
       -0.104415685 -0.04310338 0.17759193 0.25282636
000350 10 53 32 3d 2a 94 a1 bd ce 24 10 3e f2 27 08 3e
       0.043536246 -0.07889588 0.1407654 0.13296488
000360 46 55 60 3e 9a 43 3d 3d d9 76 49 3e 28 d1 2a 3e
       0.21907529 0.046207048 0.19674243 0.1668135
000370 b0 52 07 3e 24 35 bc 3d af c1 8c bd f6 ab f1 bd
       0.13215137 0.09189823 -0.0687288 -0.11800377
000380 a8 dc e8 bd 56 f7 ac bc df 3c 20 be a2 87 0e 3e
       -0.11370212 -0.021114033 -0.1564822 0.13918927
000390 c3 1c 66 3c 40 1c 25 bb 39 ad b9 3d 5c 92 18 3d
       0.014044943 -0.002519384 0.09066243 0.037248954
0003a0 c1 65 99 3e 2a e8 1b 3e 30 9b 6e 3e 5e 70 92 bc
       0.29960445 0.15225282 0.23301387 -0.017875846
0003b0 bf b1 3e bc 03 8c 86 3d e8 37 7e 3d 7f 69 ee 3d
       -0.011639058 0.06569674 0.062065035 0.116412155
0003c0 18 56 99 bd 43 10 b8 bd 3a 9a 5f 3c d6 7d fd 3c
       -0.07487124 -0.08987477 0.01364761 0.030943792
0003d0 25 3a c4 3c c1 f3 53 be 78 d7 11 3e 75 f8 87 be
       0.023953507 -0.20698453 0.14242351 -0.26556745
0003e0 86 85 80 bc df 38 d0 3c 7f c3 9a bc e7 08 a2 be
       -0.015688669 0.025417743 -0.018892048 -0.31647417
0003f0 ad e1 cf 3d c5 44 98 3d 4c 45 af 3d ff 29 8b 3d
       0.10150466 0.07434992 0.08558139 0.067951195

model.0.bias f4 [32]
000000 be f8 37 3e 33 f4 f3 bd 0b b1 64 3e 39 c2 e0 3d
       0.17965981 -0.11911812 0.22333162 0.10974545
000010 06 99 b8 be db 4c f2 3d d4 6d 4f 3e 92 4b 32 3e
       -0.36054248 0.11831065 0.2025674 0.1741164
000020 23 e0 06 3c c3 66 66 3e cb f2 29 be e3 ce 59 be
       0.008232149 0.22500138 -0.16596524 -0.21270327
000030 2b 35 9e be 56 fc cf 3e 41 8e 3f be 2d a3 53 be
       -0.3089994 0.40622205 -0.1870661 -0.20667715
000040 3f db ef bd 16 84 60 be 44 c4 b6 be 5d 6a cd 3e
       -0.1171174 -0.21925387 -0.35696614 0.4012021
000050 12 dc eb bd 01 65 82 bd 50 21 b5 3e 3c 3a 2e bd
       -0.115165845 -0.06366921 0.35376978 -0.042536005
000060 c9 a4 e7 bd 76 6d 05 3e 10 2f 15 be f5 86 69 3e
       -0.11310727 0.13030037 -0.14568734 0.22805388
000070 a5 9e 88 3e a1 24 a0 3e 05 45 64 3e 77 0f 89 3e
       0.26683536 0.31277946 0.22291954 0.2676961

model.1.weight f4 [32]
000000 2e c4 06 40 48 e1 dd 3f 88 1c 01 40 87 14 e4 3f
       2.1057239 1.7334375 2.0173664 1.7818764
000010 e7 8c ef 3f b2 df fe 3f af a2 06 40 00 00 06 40
       1.8714875 1.9912016 2.1036794 2.09375
000020 d0 fc d2 3f 56 84 11 40 d6 38 de 3f 56 61 d4 3f
       1.6483402 2.2737021 1.7361095 1.6592205
000030 d8 65 e3 3f 42 f3 01 40 54 c3 d1 3f 6e 52 e9 3f
       1.7765455 2.0304723 1.6387734 1.822828
000040 db 30 ed 3f a9 f3 e5 3f 9e b3 de 3f 90 9c fc 3f
       1.8530535 1.7964984 1.7398565 1.9735279
000050 f2 ac e3 3f 6f 31 df 3f 5b 22 09 40 c9 6c dd 3f
       1.7787154 1.7436961 2.142722 1.7298824
000060 d3 bb e3 3f 97 b1 17 40 0e 58 de 3f 64 67 05 40
       1.7791694 2.3702142 1.7370622 2.0844355
000070 7c 1b f9 3f a2 25 17 40 0f a9 02 40 39 41 02 40
       1.9461513 2.361672 2.0415685 2.0352309

model.1.bias f4 [32]
000000 a9 ed 28 be 1f d3 d9 be a1 16 2c 3d 66 f3 0f bf
       -0.1649691 -0.42543885 0.042013768 -0.5623077
000010 4c c4 9b be c1 e4 d6 be b2 a4 a5 bd ff 77 08 be
       -0.304232 -0.419714 -0.08088054 -0.13327025
000020 d5 6b b7 be 3d b1 1a be 57 dd bd be e5 85 88 be
       -0.35824457 -0.15106674 -0.3708293 -0.26664653
000030 1c 4b bc be d6 18 2a be 3f 7e 8c be 10 a8 b3 be
       -0.36776054 -0.16611037 -0.27440068 -0.3508916
000040 8d 58 b3 be 32 57 4d be 16 e5 88 be 45 c2 87 bb
       -0.35028496 -0.20052794 -0.2673728 -0.004143032
000050 b2 68 95 be 89 11 c5 be 93 24 9f bd 26 72 8e be
       -0.2918144 -0.3848994 -0.07770648 -0.27821463
000060 96 ee 88 be c4 75 05 be 1c ca 9a be 89 36 13 be
       -0.26744527 -0.13033205 -0.30232322 -0.14376272
000070 16 cf 03 be 0f e6 6d be 05 03 25 be 27 63 d9 bd
       -0.12871966 -0.23232292 -0.16114433 -0.10614615

model.1.running_mean f4 [32]
000000 c0 a7 d6 3d 32 1d 7b bd a7 dc a8 3e 6b 33 c1 3e
       0.104812145 -0.06130714 0.32980844 0.3773454
000010 3b 4c 36 be 05 48 df 3e c1 53 85 3d 30 12 94 3e
       -0.17802517 0.43609634 0.065101154 0.28920126
000020 11 66 63 3c b3 fc 09 3e 09 4e 05 be 46 c3 7e be
       0.013879315 0.13475303 -0.1301805 -0.24879178
000030 e8 d8 c1 be cc d0 e3 3e 07 a8 9f be fc c8 3d be
       -0.378608 0.44495237 -0.31182882 -0.185337
000040 5d c4 9e bd 0e 65 96 be e4 d1 73 be 38 7c 19 3f
       -0.07752297 -0.29373974 -0.23810536 0.5995517
000050 1b d2 0a be b8 d8 c6 bd 8e fe 73 3e 08 06 37 3e
       -0.13556711 -0.097093046 0.23827574 0.17873394
000060 cd 67 93 be b9 2e 8b 3e 27 88 fe bd 87 ee 20 3e
       -0.2879013 0.27184084 -0.12428313 0.15715991
000070 7b 57 97 3e a2 ea b3 3e 14 d3 9f 3e 21 aa 8c 3e
       0.2955893 0.35139948 0.31215727 0.27473548

model.1.running_var f4 [32]
000000 86 ea 99 3b 16 19 a4 3b ff 80 bf 3b 3d 40 5f 3b
       0.004697147 0.0050078733 0.005844235 0.0034065389
000010 42 7d 92 3b 0d 7a 7b 3b b6 44 a5 3b e9 a9 92 3b
       0.0044704983 0.0038372308 0.0050435914 0.0044758213
000020 fe 57 92 3b ed af 86 3b 8e 6d 64 3b 7e 13 66 3b
       0.004466056 0.0041103275 0.0034855339 0.0035106833
000030 75 a1 65 3b e4 47 9f 3b 83 31 97 3b b6 7c 90 3b
       0.0035038863 0.004860865 0.0046140566 0.004409398
000040 f0 dd 80 3b 06 b7 8a 3b d5 d1 79 3b 71 3b 8f 3b
       0.003932707 0.004233244 0.0038119454 0.0043710996
000050 a2 00 82 3b 03 89 90 3b 87 48 af 3b ee d7 89 3b
       0.0039673606 0.0044108643 0.005349222 0.004206649
000060 2e fb 78 3b 44 10 9d 3b 50 f1 7e 3b 30 e5 99 3b
       0.0037991512 0.004793199 0.0038901158 0.0046965107
000070 55 0c 7d 3b 5b 01 81 3b bb 65 9c 3b 39 e9 af 3b
       0.0038612087 0.003936929 0.0047728694 0.0053683785

model.4.weight f4 [2, 32]
000000 f3 39 94 3f 63 e8 4a bf fd 6e 5d 3f ef 24 5d bf
       1.1580185 -0.79260844 0.8649748 -0.8638448
000010 1e 11 76 bf 08 f5 8d 3f 2a 4c 4f 3f 35 6f 64 3f
       -0.9611987 1.1090403 0.8097559 0.8923219
000020 2b a9 51 bf 6d af 77 3f 6f f1 57 bf bc a2 27 bf
       -0.81898755 0.96752053 -0.84352773 -0.6548269
000030 d7 f3 78 bf 3a 6b 4e 3f c4 5a 59 bf 58 9a 83 bf
       -0.9724707 0.80632365 -0.8490412 -1.0281477
000040 89 c9 84 bf 66 e4 5b bf 4f 43 41 bf e2 2d 72 3f
       -1.0374004 -0.85895383 -0.7549333 0.9460126
000050 a7 63 49 bf a3 dc 6d bf 32 6e 90 3f 39 73 54 bf
       -0.7866768 -0.9291479 1.1283629 -0.82988316
000060 05 14 56 bf 40 e8 94 3f f5 ba 4d bf ef 38 81 3f
       -0.836243 1.1633377 -0.803634 1.00955
000070 03 60 41 3f c1 b0 87 3f 05 e3 3c 3f 39 ca 64 3f
       0.7553713 1.0600816 0.73783904 0.8937107
000080 6f 4d 78 bf c3 ee 60 3f b8 b3 4a bf 09 e0 7a 3f
       -0.96993154 0.8786432 -0.7918048 0.979981
000090 7b 4c 5a 3f 5b 88 80 bf 5a b9 7c bf f7 31 61 bf
       0.8527295 -1.0041612 -0.98720324 -0.87966865
0000a0 a0 c6 2e 3f af 0a 99 bf e2 1c 78 3f 86 85 42 3f
       0.6827183 -1.1956385 0.9691907 0.7598499
0000b0 dc 4c 6b 3f ed 95 81 bf d3 12 57 3f 70 a2 87 3f
       0.91914153 -1.0123879 0.840131 1.0596447
0000c0 ef 84 5d 3f 77 41 39 3f 64 89 64 3f 02 d4 79 bf
       0.86530966 0.72365516 0.8927214 -0.97589123
0000d0 55 91 76 3f 15 b4 37 3f 8e e1 87 bf 7d 48 38 3f
       0.9631551 0.7175916 -1.0615709 0.7198561
0000e0 20 17 50 3f 14 fd 8c bf 02 71 5c 3f b1 fa 90 bf
       0.81285286 -1.1014733 0.86109936 -1.1326505
0000f0 e6 c5 50 bf d9 24 8a bf 85 5f 83 bf c4 28 83 bf
       -0.8155197 -1.0792495 -1.0263525 -1.0246816

model.4.bias f4 [2]
000000 cb b7 10 3e 6c 94 88 be
       0.14132611 -0.26675737
