trained_models/run05.pth (torch, 207943 bytes, 14 tensors)

model.0.weight f4 [48, 1024]
0	0x3e62d75b	0.22152464
1	0x3e08d0f1	0.13360955
2	0xbe0d569a	-0.13802567
3	0x3dbadf01	0.09124566
4	0x3e175db2	0.14781836
5	0xbc9a34f1	-0.018824073
6	0xbdcd1b4b	-0.10014971
7	0x3d9aab56	0.07552211
8	0xbd0cc16a	-0.03436414
9	0x3db4df3f	0.08831643
10	0x3d792729	0.06082836
11	0x3cb67a61	0.022275152
12	0xbe73402f	-0.23754953
13	0xbdae24c5	-0.08503107
14	0xbdc8c1db	-0.098026
15	0x3d50feeb	0.05102436
16	0x3da9a229	0.08282883
17	0x3e03c13e	0.12866685
18	0x3c520f5c	0.012821045
19	0xbdb93d6e	-0.0904492
20	0x3e281eab	0.16417949
21	0x3c68e182	0.0142139215
22	0x3e3b86dc	0.18313164
23	0xbdc99e0e	-0.098446
24	0xbd8e4b55	-0.06947962
25	0xbd36f893	-0.044670653
26	0xbc8ba9a0	-0.017048657
27	0xbd307c70	-0.043087423
28	0x3d696490	0.05698067
29	0x3d9e331c	0.07724592
30	0xbbb703dd	-0.0055851773
31	0x3e94edf4	0.29087794
32	0xbd5f5f06	-0.05453398
33	0x3d9ff9c0	0.07811308
34	0xbd9bcc48	-0.07607323
35	0x3e1e4490	0.15455842
36	0x3de97a2f	0.11400258
37	0x3d975ff4	0.073913485
38	0x3dbb591e	0.09147857
39	0x3cb49d12	0.022047553
40	0xbccaa46f	-0.024736611
41	0xbd97a29f	-0.074040644
42	0xbe3d0d22	-0.18462041
43	0xbd8fa17a	-0.07013221
44	0xbd7b8619	-0.061407182
45	0x3da8c7eb	0.08241256
46	0xbc343e0d	-0.011001122
47	0x3e09652e	0.13417503
48	0xbb46d47c	-0.0030339053
49	0x3d3121bb	0.04324506
50	0x3e1d5a44	0.15366465
51	0xbd940c26	-0.0722888
52	0xbd2b3dd4	-0.04180701
53	0xbd0de274	-0.03463979
54	0xbdb7f410	-0.08982098
55	0x3dd35742	0.103193775
56	0x3d65009c	0.055908784
57	0xbdcb72cd	-0.09934006
58	0x3db2cc21	0.08730341
59	0xbe0262b0	-0.12732959
60	0xbd0a75ef	-0.033803876
61	0x3d2d5ad2	0.04232294
62	0x3cbfeb4b	0.023427626
63	0xbe1b0fdc	-0.15142769
64	0xbd475d6d	-0.048673082
65	0x3dd8ca3b	0.105854474
66	0xbdbef459	-0.09323949
67	0x3b897d94	0.0041958783
68	0x3ca65866	0.020305824
69	0xbd7058ab	-0.05867831
70	0xbdf4c349	-0.1195131
71	0xbe121a84	-0.14267927
72	0x3b9818c7	0.0046416256
73	0xbdec4a4e	-0.1153761
74	0x3d467dc3	0.04845978
75	0xbbbd06e0	-0.005768642
76	0x3e19d033	0.15020828
77	0x3c8f661c	0.017504744
78	0x3a9cafcd	0.0011954248
79	0xbba8954d	-0.005144751
80	0xbe179d45	-0.14806087
81	0x3bb612ed	0.0055564553
82	0xbd11a388	-0.035556346
83	0x3d6a041a	0.057132818
84	0x3e00ef24	0.12591225
85	0x3bb7fd3d	0.005614905
86	0xbd014aec	-0.03156559
87	0x3c1a9d15	0.009436865
88	0x3d86eb67	0.06587868
89	0x3b66121c	0.003510601
90	0x3cb5b3aa	0.022180397
91	0xbda48894	-0.08033863
92	0x3d1bf299	0.038073156
93	0xbe5c7ff2	-0.21533182
94	0x3df61ea3	0.12017562
95	0x3dbe8f24	0.09304646
96	0x3e21f658	0.15816629
97	0x3daff04b	0.08590754
98	0x3d799510	0.060933173
99	0xbd26ffe8	-0.040771395
100	0x3e08049a	0.13283005
101	0x3c14f95b	0.009092654
102	0xbd2c8106	-0.042115234
103	0xbdca0873	-0.09864893
104	0xbcf0333a	-0.029321302
105	0x3d28f730	0.04125136
106	0x3cab97bc	0.020946376
107	0xbe26c896	-0.16287455
108	0xbe1d9c4b	-0.15391652
109	0xbd94fa81	-0.07274342
110	0x3de19106	0.11013989
111	0x3b05cc36	0.0020415909
112	0x3cbe5ea6	0.023238491
113	0xbe4df32b	-0.20112292
114	0x3d6a9543	0.057271253
115	0x3e18331a	0.14863244
116	0x3c336584	0.010949496
117	0xbdabf373	-0.08396044
118	0x3babd3c9	0.0052437526
119	0xbca55737	-0.020183189
120	0x3d994f93	0.07485881
121	0xbd2084fe	-0.03918933
122	0x3e2d10f8	0.16901004
123	0xbd28ea30	-0.041238964
124	0x3e4f4ab4	0.2024334
125	0xbdcd7ebb	-0.100339375
126	0xbba6f13f	-0.0050946767
127	0x3d696bf2	0.05698771
128	0xbe07178c	-0.13192576
129	0x3d64ef94	0.055892542
130	0xbcbb5478	-0.022867426
131	0x3dc4f3a6	0.09616785
132	0x3dd8f167	0.10592919
133	0xbe014646	-0.12624463
134	0x3d0faae7	0.035075095
135	0xbc493cf5	-0.0122826
136	0x3caee34d	0.02134862
137	0xbcddc15b	-0.027069738
138	0x3dd05af2	0.101735964
139	0x3c85e7eb	0.016345939
140	0x3daa7294	0.08322635
141	0x3d45126d	0.048113275
142	0x3d64bdb2	0.05584497
143	0xbcc696e3	-0.02424187
144	0x3dae8b29	0.085226364
145	0xbe0a83db	-0.13526861
146	0x3c0c27e7	0.008554435
147	0xbd95b697	-0.07310217
148	0xbc97a3ed	-0.018510783
149	0xbc94766a	-0.01812287
150	0x3dcd854d	0.10035191
151	0xbd0a00d0	-0.03369218
152	0xbd86e1e2	-0.065860525
153	0x3e37ed08	0.17961514
154	0x3d7d6296	0.061861597
155	0xbd104cc8	-0.035229474
156	0xbd89b113	-0.06723227
157	0x3cf4b824	0.029872961
158	0xbd72f122	-0.059311993
159	0x3c53a218	0.012917064
160	0x3e230b67	0.15922318
161	0xbd515ed2	-0.05111582
162	0xbe2ddcb7	-0.16978727
163	0xbcd19d62	-0.025587741
164	0xbd97430f	-0.07385837
165	0xbd4e5b2b	-0.050379913
166	0x3d8df578	0.06931585
167	0x3ccbec13	0.024892842
168	0xbcb3340d	-0.021875406
169	0x3c711bf4	0.014716137
170	0xbb25c2e0	-0.0025293157
171	0x3e46e29e	0.19422385
172	0x3dba3baa	0.09093411
173	0xbe07bbc8	-0.13255227
174	0x3ca17cf5	0.019712904
175	0x3de023bc	0.10944316
176	0xbce0491f	-0.027378617
177	0xbdcb257b	-0.09919258
178	0xbde2735c	-0.11057159
179	0xbd524d62	-0.05134333
180	0xbe244818	-0.16043127
181	0x3d380f30	0.04493636
182	0xbda3bd53	-0.07995095
183	0xbd97aa8c	-0.07405576
184	0xbd479876	-0.048729382
185	0xbc5e6c1c	-0.01357558
186	0x3c1c9dba	0.009559089
187	0xbe1f44c6	-0.15553579
188	0x3b16f9ff	0.0023037193
189	0xbe2da533	-0.1695755
190	0x3cd08845	0.025455603
191	0xbd9aebee	-0.07564531
192	0x3cdca76d	0.026935304
193	0x3d61b178	0.055100888
194	0xbd7e7c67	-0.062130358
195	0x3df550dc	0.11978313
196	0xb852f810	-5.0298928e-05
197	0x3dc5639b	0.09638139
198	0x3b85f8c7	0.0040884945
199	0xbe076192	-0.13220814
200	0xbd1067fb	-0.035255414
201	0xbc8d3d59	-0.017241167
202	0x3e18e9d8	0.14932954
203	0x3dc57022	0.09640528
204	0x3c8b49d8	0.017002985
205	0xbd2d7da1	-0.042356137
206	0x3d63a8a3	0.055580746
207	0xbe386a86	-0.18009385
208	0x3deaa9f5	0.11458198
209	0x3da40f5e	0.080107436
210	0xbd04da81	-0.032434944
211	0xbbb02f73	-0.00537675
212	0xbca71a76	-0.02039836
213	0x3d84ed19	0.06490535
214	0x3cafa138	0.02143918
215	0x3d70e07c	0.058807835
216	0xbd5653d8	-0.052326053
217	0x3d0afd67	0.03393307
218	0x3d936660	0.07197261
219	0x3e202306	0.1563836
220	0xbd2edc8f	-0.04269081
221	0x3d559a16	0.0521489
222	0xbe1338bd	-0.14377113
223	0xbdb48c2f	-0.088158004
224	0xbc4860f9	-0.012230151
225	0x3ded8be1	0.115989454
226	0xbcec39fc	-0.028836243
227	0xbd4ca156	-0.04995855
228	0x3ccab3fb	0.024744025
229	0xbd4cf30d	-0.05003648
230	0x3e0962b0	0.13416553
231	0x3d552b97	0.052043524
232	0xbdcaad90	-0.09896386
233	0x3cb54d2e	0.022131529
234	0xba8302b4	-0.0009995312
235	0x3e081df6	0.13292679
236	0x3cf0c0f4	0.029388882
237	0xbb5bf63a	-0.003356351
238	0x3da2a999	0.079425044
239	0x3b67ae5f	0.0035351736
240	0x3d8c1fce	0.06842004
241	0xbd3124a3	-0.04324783
242	0xbd106bdb	-0.03525911
243	0xbdae2e3b	-0.085049115
244	0xbd08402e	-0.03326433
245	0x3d766d90	0.06016308
246	0xbd8faae9	-0.070150204
247	0x3d0f7af3	0.035029363
248	0x3d4fa510	0.050694525
249	0x3da9637d	0.08270929
250	0x3d898886	0.06715493
251	0x3d7a2572	0.061070867
252	0xbe1a055b	-0.15041105
253	0x3c433627	0.011914766
254	0xbc8f867f	-0.017520187
255	0x3dd7e39d	0.10541461

model.0.bias f4 [48]
0	0xb856ed80	-5.1242765e-05
1	0x3945aa00	0.00018850714
2	0xb996fb6b	-0.0002879755
3	0x39716e1c	0.0002302457
4	0x30ae00b5	1.2660367e-09
5	0xb689e2c0	-4.1093153e-06
6	0xb7b8d750	-2.2034772e-05
7	0xb910c270	-0.00013805344
8	0x37cae610	2.4187408e-05
9	0xb7adaad4	-2.0702755e-05
10	0xb94525ac	-0.00018801418
11	0xb8afb268	-8.377881e-05
12	0xb9449130	-0.00018746103
13	0xb80ed2a4	-3.4051613e-05
14	0xb942a777	-0.00018563667
15	0x389ea859	7.565384e-05
16	0x3937c8bf	0.00017527024
17	0x3587ea80	1.0126532e-06
18	0xb71af760	-9.236712e-06
19	0x397c711e	0.00024074732
20	0xb982b480	-0.00024930015
21	0x39646824	0.0002178257
22	0x386fe966	5.719941e-05
23	0xb9b942be	-0.00035335677
24	0x3926bba8	0.00015900901
25	0x390ed6b2	0.00013622156
26	0xb8c363d0	-9.316916e-05
27	0xb8599cbe	-5.188281e-05
28	0xb89c83c2	-7.4632015e-05
29	0xb90b7f7d	-0.00013303566
30	0xb968ff5e	-0.00022220376
31	0x38ad35fc	8.259338e-05
32	0xb8306fd1	-4.2065807e-05
33	0xb953d47b	-0.00020201683
34	0xb8b131b4	-8.4492756e-05
35	0x383faf9e	4.5701505e-05
36	0x392fcd25	0.00016765723
37	0xba0f51f3	-0.00054672285
38	0xb9a2ad21	-0.0003102804
39	0x390c89b0	0.00013402733
40	0x37e30844	2.7064358e-05
41	0xb82483c9	-3.922338e-05
42	0xb7eb76b4	-2.8069458e-05
43	0x392ad8f8	0.0001629329
44	0x3866aa7e	5.4995056e-05
45	0xb7877970	-1.6149803e-05
46	0x38c0e0c8	9.197142e-05
47	0xb7a34ab0	-1.9465893e-05

model.1.weight f4 [48]
0	0x3eec4c31	0.4615188
1	0x3ebd04e4	0.36917794
2	0x3eb3f2ab	0.35146078
3	0x3eeab8d8	0.4584415
4	0x0002ee4e	2.69159e-40
5	0x3ef6cf3c	0.48204982
6	0x3ec6e298	0.38844752
7	0x3edcd5cc	0.43131864
8	0x3ef71f4a	0.4826606
9	0x3eadfefc	0.339836
10	0x3eefc9aa	0.46833545
11	0x3ed35443	0.41275224
12	0x3ec1db6c	0.37862718
13	0x3ea99845	0.33123985
14	0x3ed88c2a	0.42294437
15	0x3eaf4b29	0.3423703
16	0x3e9a08f8	0.30084968
17	0x3ed2f339	0.4120119
18	0x3edbbbc4	0.4291669
19	0x3ebb96d1	0.366385
20	0x3ed4adc3	0.4153882
21	0x3ecd6c56	0.40121716
22	0x3ec7db15	0.39034334
23	0x3ec9974f	0.39373252
24	0x3ed0554e	0.40690082
25	0x3eb20fc5	0.34777656
26	0x3eeec3b6	0.4663369
27	0x3ec8883a	0.39166433
28	0x3ecfade5	0.40562358
29	0x3ee0ad33	0.4388214
30	0x3ed86585	0.42264953
31	0x3ea5f83f	0.3241596
32	0x3ea3b640	0.31974983
33	0x3eb2d961	0.34931472
34	0x3ee25bb0	0.44210577
35	0x3f02d4c7	0.5110592
36	0x3ef6b8fd	0.4818801
37	0x3ee603cb	0.4492477
38	0x3eb51288	0.353657
39	0x3eb76818	0.35821605
40	0x3ed28690	0.41118288
41	0x3efb7b19	0.49117354
42	0x3eb2ff78	0.34960532
43	0x3efdf603	0.49601755
44	0x3ec3432a	0.3813718
45	0x3ede9010	0.43469286
46	0x3ee04fd4	0.43810904
47	0x3ef24632	0.4731918

model.1.bias f4 [48]
0	0xbe845be5	-0.2585136
1	0xbebaa37a	-0.36452848
2	0x3d998bde	0.07497381
3	0xbdc15a6f	-0.09441077
4	0x800019ec	-9.299e-42
5	0xbd9fd013	-0.07803359
6	0xbe95cc83	-0.29257593
7	0xbca50eb1	-0.020148607
8	0xbea6126d	-0.32435933
9	0xbdbdc030	-0.092651725
10	0xbe8b5f74	-0.27221262
11	0xbeb61043	-0.35559282
12	0xbe5fed1f	-0.21867798
13	0xbe8cf6b6	-0.27531976
14	0xbe5aec1f	-0.21379136
15	0x3da03306	0.07822232
16	0xbd8ed59b	-0.06974336
17	0xbe740976	-0.23831734
18	0xbd0cb70d	-0.03435426
19	0xbd885151	-0.06656135
20	0xbe18964d	-0.14901085
21	0xbe9af64a	-0.3026603
22	0xbe4caf90	-0.19988847
23	0xbeae2fcd	-0.34020844
24	0x3d678554	0.056523636
25	0xbdea53c9	-0.11441762
26	0xbeedc79f	-0.4644136
27	0xbe913db0	-0.28367376
28	0xbe02994a	-0.12753788
29	0xbe933602	-0.28752142
30	0xbec15090	-0.37756777
31	0xbb1838a1	-0.0023227113
32	0xbe8a4eb1	-0.27013162
33	0x3d8f08ff	0.06984138
34	0xbe936182	-0.2878533
35	0xbea5ab07	-0.32357046
36	0x3d3c8d16	0.046032988
37	0xbe81ec34	-0.2537552
38	0xbd5b6d03	-0.05357076
39	0xbb65b100	-0.0035048127
40	0xbd67b646	-0.056570314
41	0xbec470fd	-0.38367453
42	0xbd947044	-0.072479755
43	0xbe37d72e	-0.17953178
44	0xbdc9713c	-0.09836051
45	0x3cb867f3	0.022510504
46	0xbe647cd2	-0.2231324
47	0xbd82801c	-0.06372091

model.1.running_mean f4 [48]
0	0x3ee55302	0.44789892
1	0x3e6395fb	0.22225182
2	0x3e83aebf	0.25719258
3	0x3e4f3544	0.20235163
4	0xae753c9e	-5.576039e-11
5	0x3e87a734	0.26494753
6	0x3e190a8c	0.1494543
7	0x3e495e3f	0.19664858
8	0x3c8e37f6	0.017360669
9	0x3cf8f4b4	0.030390121
10	0x3e3e1683	0.18563275
11	0x3e2a991f	0.16659974
12	0x3e15576e	0.14584133
13	0x3dc820bc	0.097718686
14	0x3e5255df	0.2054057
15	0x3a80d5d1	0.0009829347
16	0x3c1fc706	0.009752041
17	0x3dfa9cd5	0.122369446
18	0x3eb1edd2	0.34751755
19	0x3dce5ac8	0.10075909
20	0x3de32b79	0.11092276
21	0xbe131913	-0.14365034
22	0x3dbe4799	0.09291
23	0x3e3729e4	0.17887074
24	0x3e0a8313	0.13526563
25	0x3e2ec685	0.17067917
26	0x3df0bdc6	0.117549464
27	0xbd8fd6b6	-0.07023375
28	0x3dcaa6fc	0.09895131
29	0x3e8413ae	0.25796264
30	0x3e6343e3	0.22193865
31	0x3e4596ff	0.19295882
32	0x3d5fc4bd	0.054630984
33	0xbdae610b	-0.08514603
34	0x3e3e617c	0.18591875
35	0x3db9821d	0.0905802
36	0x3e8b09b1	0.2715583
37	0xbdd5d27b	-0.104405366
38	0x3ec17da2	0.37791163
39	0xbd319ce8	-0.043362528
40	0x3ec97869	0.39349678
41	0x3e622ec3	0.2208815
42	0x3d30e935	0.043191154
43	0x3e14257c	0.14467424
44	0x3e2ce9b9	0.16886033
45	0x3e43c95d	0.19119783
46	0x3e494647	0.19655715
47	0x3dcec9f7	0.100971155

model.1.running_var f4 [48]
0	0x3c8bde16	0.017073672
1	0x3c60b500	0.013715029
2	0x3c4a5e0b	0.012351523
3	0x3c111152	0.008854227
4	0x0d01c890	3.9992612e-31
5	0x3c333f0c	0.0109403245
6	0x3c02a783	0.007974508
7	0x3c736cd3	0.014857489
8	0x3c3e2070	0.011604413
9	0x3c4ae32a	0.012383262
10	0x3c5d3ca2	0.0135032255
11	0x3c4c128b	0.012455593
12	0x3c0ddd05	0.008658652
13	0x3be35664	0.006937789
14	0x3c22f08a	0.009945044
15	0x3c58700b	0.013210307
16	0x3c0ff3e0	0.008786172
17	0x3c1d7e9c	0.009612706
18	0x3c2e0047	0.010620183
19	0x3c3257cb	0.010885189
20	0x3c1af24c	0.009457182
21	0x3c5eecab	0.013606231
22	0x3c397de8	0.011321522
23	0x3c212c53	0.009837228
24	0x3c1f2745	0.009713952
25	0x3c29ab22	0.010355743
26	0x3c3edd17	0.011649392
27	0x3c991111	0.018684896
28	0x3c2e8c2c	0.010653537
29	0x3c0ca6e2	0.00858471
30	0x3c943cbb	0.018095365
31	0x3c223258	0.009899698
32	0x3bdf9573	0.0068232357
33	0x3bee8da9	0.007280071
34	0x3bb9a2e6	0.005665171
35	0x3c131578	0.0089772865
36	0x3c4b9424	0.012425456
37	0x3c385285	0.011250143
38	0x3c54de37	0.012992433
39	0x3c138c57	0.009005628
40	0x3c7239cd	0.014784289
41	0x3c3502b0	0.011048004
42	0x3c1b3dad	0.009475154
43	0x3c24f853	0.010068971
44	0x3c68a4c1	0.014199437
45	0x3c825ff7	0.0159149
46	0x3c4873cb	0.012234638
47	0x3c690738	0.0142229125

model.4.weight f4 [24, 48]
0	0x3d0386cf	0.032110985
1	0x3e420c6b	0.1895005
2	0xbe2bb5d5	-0.16768582
3	0x3dd41b7c	0.10356805
4	0x8001fc0e	-1.82256e-40
5	0xbe09d244	-0.13459116
6	0x3e30541a	0.17219582
7	0xbe26ec71	-0.16301133
8	0x3e09863a	0.1343011
9	0xbe429e8c	-0.19005793
10	0x3d63b5ca	0.05559329
11	0x3dd688cc	0.10475311
12	0x3e4a8861	0.19778587
13	0x3e1cfc13	0.15330534
14	0x3e5b9230	0.21442485
15	0xbe2f30bb	-0.17108433
16	0xbd590fc9	-0.05299357
17	0x3ccd8c26	0.025091242
18	0xbcc89e5c	-0.024489574
19	0xbd41a2f0	-0.04727453
20	0x3e299691	0.16561343
21	0xbbb10fe0	-0.005403504
22	0x3dd01571	0.101603396
23	0x3e06acf0	0.13151908
24	0xbdbe106e	-0.092804775
25	0xbe164cef	-0.14677785
26	0x3e4fe6b6	0.20302853
27	0x3df5833f	0.11987924
28	0x3e116f5b	0.14202635
29	0x3e1e26fa	0.15444556
30	0x3e46c77c	0.19412035
31	0xbdc2f0b1	-0.095185645
32	0x3b0ad71d	0.0021185346
33	0xbd264e8b	-0.04060225
34	0x3e6ae716	0.22939715
35	0x3dc9b36c	0.09848675
36	0xbe16d2e7	-0.1472889
37	0x3e1abc73	0.1511095
38	0xbd9003a8	-0.070319474
39	0xbdbc8362	-0.09204747
40	0xbe00f8a5	-0.1259485
41	0x3e84825d	0.2588071
42	0xbe76b3f6	-0.24092087
43	0x3dd3c02c	0.10339388
44	0xbd9ff2f1	-0.07810009
45	0xbe846ce3	-0.25864324
46	0x3e2db59e	0.16963813
47	0xbdadf20c	-0.084934324
48	0x3e2b6cad	0.16740675
49	0x3de28671	0.11060799
50	0xbda2ce1a	-0.07949467
51	0xbe6f4e7a	-0.2336978
52	0x00006866	3.7451e-41
53	0xbdced1d1	-0.10098613
54	0x3e065349	0.13117708
55	0xbe010b1b	-0.12601893
56	0x3e7f603d	0.24939056
57	0xbe0cf06d	-0.1376359
58	0x3d57ba10	0.052667677
59	0x3d61496b	0.055001657
60	0x3d30a71e	0.043128125
61	0x3e1fe756	0.15615591
62	0x3e2334a9	0.15938057
63	0xbdf677d0	-0.12034571
64	0xbd4b90ed	-0.04969876
65	0x3e83c561	0.25736526
66	0xbe13702c	-0.14398259
67	0xbdd41df5	-0.10357276
68	0x3d156b81	0.036479477
69	0xbc8fb084	-0.017540224
70	0xbcaa6048	-0.020797864
71	0x3dd63736	0.104597494
72	0xbd415807	-0.04720309
73	0xbe077d6d	-0.1323144
74	0x3dc77f06	0.09741025
75	0x3d6ba189	0.0575271
76	0x3e583005	0.21112068
77	0x3e55533f	0.20832537
78	0x3e4fb76a	0.2028481
79	0x3da90bcb	0.082542025
80	0xbc64a475	-0.013955225
81	0xbd934574	-0.071909815
82	0x3e16e508	0.14735806
83	0x3e94bdfd	0.290512
84	0xbe8e4958	-0.27790332
85	0x3e578416	0.2104648
86	0x3b2ba93c	0.00261934
87	0xbd65b872	-0.056084104
88	0xbd8dbd93	-0.06920924
89	0x3ea6c869	0.32574776
90	0xbe0b097f	-0.13577841
91	0x3e3ff9ae	0.18747589
92	0xbd4c63cd	-0.049899865
93	0xbe716624	-0.2357412
94	0x3df31880	0.118699074
95	0xbceb1d74	-0.028700568
96	0x3e15862d	0.14601965
97	0x3da9d9fc	0.0829353
98	0xbe0000ae	-0.1250026
99	0xbe708787	-0.234892
100	0x8002bd6b	-2.51621e-40
101	0xbda5d8e6	-0.08098011
102	0x3dea5a73	0.11443033
103	0xbe030918	-0.12796438
104	0x3e0b27ec	0.13589448
105	0xbdcd1f0d	-0.10015688
106	0x3e36b5e8	0.17842829
107	0x3d30e07f	0.043182846
108	0x3dc60748	0.096693575
109	0x3e08eb05	0.13370903
110	0x3ddbcae8	0.10732061
111	0xbe0fa56f	-0.14027952
112	0xbe717d72	-0.2358301
113	0xbdc8eefa	-0.09811206
114	0xbe3a2002	-0.18176273
115	0xbdf729dc	-0.12068531
116	0x3e18b274	0.14911824
117	0xbc3607b0	-0.011110231
118	0x3e38c47e	0.18043706
119	0x3e02ba3f	0.1276636
120	0xbe13beb6	-0.14428219
121	0xbd8d8346	-0.06909804
122	0x3e190dbd	0.14946647
123	0x3d257db1	0.04040307
124	0x3dd18d7c	0.10232064
125	0x3e2313e8	0.15925562
126	0x3e9bfbdb	0.30465588
127	0xbd623a48	-0.055231363
128	0x3e0a065c	0.13478988
129	0xbda8540e	-0.08219157
130	0x3e80c773	0.25152168
131	0x3e2b58d4	0.16733104
132	0xbdd81d4c	-0.10552463
133	0x3dc0ff7c	0.0942373
134	0xbc9b8f68	-0.01898928
135	0xbe0a3fa0	-0.13500834
136	0xbe3855ef	-0.18001531
137	0xbc835905	-0.016033659
138	0xbd869376	-0.06571095
139	0x3e5c9fc8	0.21545327
140	0xbdff01c3	-0.12451508
141	0xbdd206e8	-0.102552235
142	0x3e367eae	0.17821762
143	0xbe00abb1	-0.12565495
144	0xbe6e5150	-0.23273206
145	0xbe20f1e7	-0.15717278
146	0x3e388c6c	0.18022317
147	0x3e44d015	0.19220002
148	0x0001d0a6	1.66684e-40
149	0x3e5b7beb	0.2143399
150	0xbdd9835b	-0.10620757
151	0x3e8901f4	0.26759303
152	0xbe21f286	-0.15815172
153	0x3e049f40	0.12951374
154	0xbe2c0e11	-0.16802241
155	0xbe53220d	-0.20618458
156	0xbe839995	-0.2570311
157	0xbe024b8c	-0.12724131
158	0xbe549103	-0.20758443
159	0xbd2532ce	-0.040331654
160	0x3d38781c	0.04503642
161	0xbe2b0d1f	-0.16704224
162	0x3e4a3506	0.1974679
163	0x3cfd9cb3	0.03095851
164	0xbe159a24	-0.14609581
165	0xbdfbb020	-0.122894526
166	0xbe3d3ce3	-0.18480258
167	0xbe869323	-0.2628413
168	0x3e5c49c1	0.2151251
169	0x3dd456bc	0.10368106
170	0xbe875ff0	-0.26440382
171	0xbe05d797	-0.13070522
172	0xbe158d5a	-0.14604703
173	0xbe397eee	-0.18114826
174	0xbdb7a0ff	-0.089662544
175	0x3cd9dc03	0.026594168
176	0xbe3391a7	-0.1753603
177	0x3b8762e8	0.0041316636
178	0xbe3bb855	-0.18332036
179	0xbdd3bdfd	-0.10338972
180	0x3ded8885	0.11598305
181	0xbe256191	-0.161505
182	0x3cf219ee	0.02955338
183	0x3e27071a	0.16311303
184	0x3d385140	0.04499936
185	0xbdb37fcb	-0.08764609
186	0x3e05184e	0.12997553
187	0xbe5a840a	-0.21339431
188	0x3e1aceb9	0.15117921
189	0x3df16099	0.11786003
190	0xbd1da966	-0.03849163
191	0x3d581a67	0.052759554
192	0xbe021fea	-0.12707487
193	0xbcc8b31e	-0.024499472
194	0x3e2bffd5	0.16796811
195	0x3df143a8	0.117804825
196	0x000214b0	1.91092e-40
197	0x3e16e307	0.14735042
198	0xbe155eba	-0.14586917
199	0x3dd9addb	0.106288634
200	0xbe03f6bb	-0.12887089
201	0x3e47f172	0.19525698
202	0xbdc52a0e	-0.09627162
203	0xbe936be6	-0.28793257
204	0xbe5a5595	-0.2132171
205	0xbe0c4c89	-0.13701071
206	0xbd197b36	-0.03747102
207	0x3c2fae70	0.0107227415
208	0xbc71f049	-0.014766761
209	0xbdbc1cd9	-0.0918519
210	0x3e18258a	0.1485807
211	0x3dd8e0f4	0.105897814
212	0xbe5651ef	-0.20929693
213	0xbe1676a5	-0.14693697
214	0xbe6a8476	-0.22902092
215	0xbe0cab2c	-0.13737172
216	0x3dda2bc4	0.10652879
217	0x3d984122	0.07434298
218	0xbd864a8c	-0.065571874
219	0x3cb6cad1	0.022313507
220	0xbe69b583	-0.22823147
221	0xbe090e5c	-0.13384384
222	0xbd60b1c4	-0.05485703
223	0x3df9ff60	0.12206912
224	0xbdf4228b	-0.11920651
225	0x3e724ed5	0.23662885
226	0x3c09c724	0.008409295
227	0xbe337997	-0.17526852
228	0x3e2f5627	0.17122708
229	0xbe3b441a	-0.18287697
230	0x3b8c5fc6	0.004283878
231	0x3dc6587e	0.09684847
232	0x3dd48bfd	0.10378263
233	0xbde90e8f	-0.1137973
234	0x3d01c035	0.031677444
235	0xbe416398	-0.18885648
236	0x3e2a1d35	0.16612704
237	0x3dbbd57e	0.0917158
238	0xbdbd89f4	-0.09254828
239	0x3e97f029	0.29675415
240	0xbe65263d	-0.22377868
241	0xbe160f45	-0.14654262
242	0x3e1aec63	0.15129237
243	0x3e33c130	0.17554164
244	0x00018663	1.40044e-40
245	0x3df62646	0.12019019
246	0xbde6ceb9	-0.11269898
247	0x3e6cf124	0.23138863
248	0xbdbf24f9	-0.09333224
249	0x3e7385b4	0.23781472
250	0xbe4a94c3	-0.1978331
251	0xbe3df98f	-0.1855223
252	0xbe680f3c	-0.22662061
253	0xbde19b95	-0.11016003
254	0xbe572100	-0.21008682
255	0x3e5ec488	0.21754658

model.4.bias f4 [24]
0	0x38acc5e0	8.238456e-05
1	0x38ff59ce	0.00012176075
2	0x3940adcf	0.00018375296
3	0x38d0691a	9.9377896e-05
4	0x38bf6484	9.126312e-05
5	0xb77feb54	-1.5253976e-05
6	0x38cc9c66	9.7566095e-05
7	0x390d9def	0.00013505643
8	0x379d5c94	1.8758969e-05
9	0x387b83f0	5.996594e-05
10	0xb9056b5f	-0.00012723867
11	0xb7d29514	-2.510337e-05
12	0x3785bbb2	1.5942238e-05
13	0x3735f5a9	1.0845638e-05
14	0x390c455b	0.00013377277
15	0xb8afc633	-8.381568e-05
16	0xb8bed5b6	-9.099713e-05
17	0xb955fc72	-0.00020407306
18	0x39260673	0.00015833396
19	0x394183ce	0.00018455015
20	0x38fd5988	0.000120806566
21	0xb7446a34	-1.1707238e-05
22	0x38f1c2b6	0.00011528043
23	0xb90a2295	-0.00013173588

model.5.weight f4 [24]
0	0x3ea63426	0.3246166
1	0x3ed0acbb	0.40756783
2	0x3ea9efa8	0.33190656
3	0x3ed07ba4	0.4071933
4	0x3eb6fa0d	0.3573765
5	0x3ec670a1	0.38757804
6	0x3ef73540	0.48282814
7	0x3ec90099	0.39258268
8	0x3ecd767b	0.40129456
9	0x3efccfd0	0.49377298
10	0x3ec76b0f	0.38948867
11	0x3eb46a77	0.35237476
12	0x3eb8fa5e	0.36128515
13	0x3ee3d878	0.4450109
14	0x3eb53d58	0.35398364
15	0x3ecf7e2b	0.40525946
16	0x3e8d7950	0.27631617
17	0x3eacb061	0.33728316
18	0x3ec73f19	0.38915327
19	0x3eb35e22	0.35032755
20	0x3edbb17c	0.42908847
21	0x3eb214c0	0.34781456
22	0x3eba929e	0.36439985
23	0x3ec82e12	0.3909765

model.5.bias f4 [24]
0	0xbd1bc86b	-0.03803293
1	0xbd1af3de	-0.037830226
2	0x3c01cc3e	0.00792223
3	0x3e0e7fc6	0.13915929
4	0x3e06cd91	0.13164355
5	0x3da64a42	0.08119632
6	0x3dab1d7a	0.083552316
7	0xbc9ec2c6	-0.019379985
8	0xbcb04202	-0.02151585
9	0x3dcfe25b	0.10150596
10	0x3c25214d	0.01007874
11	0xbc8fe276	-0.01756404
12	0x3c8554ee	0.01627585
13	0x3df12ba4	0.11775902
14	0x3e2b41a5	0.1672426
15	0x3dce4bc0	0.10073042
16	0xbd0f8b35	-0.035044868
17	0x3e36396f	0.17795347
18	0x3d881d4c	0.06646213
19	0x3d48d3f0	0.049030244
20	0x3dcee269	0.10101778
21	0x3dc803e6	0.097663686
22	0xbca38740	-0.019961953
23	0x3d2c07bd	0.041999567

model.5.running_mean f4 [24]
0	0xbd9355c5	-0.071940936
1	0xbcd89a37	-0.026440723
2	0xbdf8c228	-0.12146407
3	0x3c9b7663	0.01897735
4	0x3dc824bd	0.09772632
5	0x3dfd28ed	0.123613216
6	0x3e9b3625	0.30314746
7	0xbdb9bf3a	-0.09069677
8	0xbcae4d1a	-0.021277
9	0x3e0bbe0f	0.1364672
10	0xbdf3231f	-0.11871933
11	0xbe31ad80	-0.17351341
12	0xbdc013a3	-0.093787454
13	0x3e56b74a	0.20968357
14	0x3dbf4fdb	0.09341403
15	0x3e6e75de	0.2328715
16	0xbc9401cc	-0.018067263
17	0x3e939d78	0.28831077
18	0x3e0aaecc	0.13543242
19	0xbd396d34	-0.04527016
20	0x3d296cce	0.04136353
21	0x3e210adc	0.15726799
22	0xbd4b7db4	-0.049680427
23	0xbd5aeb4a	-0.053447045

model.5.running_var f4 [24]
0	0x3f1b5505	0.60676605
1	0x3f1c091b	0.60951394
2	0x3f13dac0	0.5775566
3	0x3f3ee92f	0.7457456
4	0x3f20fe6e	0.6288823
5	0x3f1a6350	0.6030779
6	0x3f12d295	0.5735257
7	0x3f30c0cd	0.6904419
8	0x3f1b39e2	0.606352
9	0x3f3523c8	0.7075772
10	0x3f2b2493	0.6685268
11	0x3f01015f	0.5039272
12	0x3f266e48	0.65012026
13	0x3f345965	0.70448905
14	0x3f2c55b8	0.67318296
15	0x3f378045	0.716801
16	0x3f1b6c71	0.60712343
17	0x3f1ff02b	0.6247584
18	0x3f3d4c48	0.7394452
19	0x3f1e0d24	0.617388
20	0x3f248895	0.6427091
21	0x3f482cc6	0.7819332
22	0x3f319843	0.6937296
23	0x3f0ec60a	0.55770934

model.8.weight f4 [2, 24]
0	0xbe1c54d8	-0.1526674
1	0xbe633935	-0.22189792
2	0xbe24d514	-0.16096908
3	0x3e7b2b01	0.24528123
4	0x3e4d745e	0.20063922
5	0x3e486fa9	0.19573845
6	0x3e8a06b5	0.26958242
7	0xbe6743ce	-0.22584459
8	0xbe6f0116	-0.23340258
9	0x3e8d20a7	0.27563974
10	0xbe6476a6	-0.22310886
11	0xbe3eba66	-0.18625793
12	0xbe548746	-0.20754728
13	0x3e826474	0.25467265
14	0x3e64522c	0.22296971
15	0x3e615a68	0.22007143
16	0xbdf2fd63	-0.11864736
17	0x3e638da5	0.22222002
18	0x3e43da00	0.19126129
19	0xbe412847	-0.18863021
20	0x3e722ced	0.2364995
21	0x3e3d668b	0.18496148
22	0xbe478d29	-0.19487442
23	0xbe6a73e7	-0.22895776
24	0x3e1c53b6	0.15266308
25	0x3e634567	0.22194444
26	0x3e24dba9	0.16099419
27	0xbe7b2ae5	-0.24528082
28	0xbe4d73c5	-0.20063694
29	0xbe4870a6	-0.19574222
30	0xbe8a0699	-0.2695816
31	0x3e673fb2	0.22582892
32	0x3e6efbfc	0.23338312
33	0xbe8d208f	-0.27563903
34	0x3e647c6b	0.22313087
35	0x3e3eac8d	0.1862051
36	0x3e54866d	0.20754404
37	0xbe8263d2	-0.25466782
38	0xbe6453b0	-0.22297549
39	0xbe615ad3	-0.22007303
40	0x3df2fb3f	0.11864328
41	0xbe638d6d	-0.22221918
42	0xbe43d990	-0.19125962
43	0x3e412968	0.18863451
44	0xbe722cd1	-0.23649909
45	0xbe3d66ec	-0.18496293
46	0x3e478d43	0.19487481
47	0x3e6a7dd4	0.22899562

model.8.bias f4 [2]
0	0x3e96ff57	0.29491684
1	0xbe99c959	-0.3003643
