trained_models/run14.pth (torch, 135403 bytes, 8 tensors)

model.0.weight f4 [32, 1024]
000000 21 67 74 3c da a0 85 3c 66 8e 23 bc 04 e9 f6 3a
       0.014917166 0.016312052 -0.009982681 0.0018837755
000010 4d 2d 14 bd ae 4b 8a bc 3d 75 99 bb 5e d0 d6 3c
       -0.036176015 -0.01688179 -0.0046831653 0.026222404
000020 cc 76 22 3d 07 ab 3b bc cb 84 ce 3b a7 14 d8 3c
       0.039664075 -0.01145435 0.0063024512 0.026377035
000030 b7 ef 73 3d 6d 42 23 3c 9f fa c8 3c bb 17 6b bc
       0.05955478 0.009964568 0.024533568 -0.0143489195
000040 f4 0b 39 3c 90 c9 91 bc e9 8c 2e bc 05 5d 67 3c
       0.011294354 -0.017796308 -0.010653713 0.014121299
000050 ec f8 1a bc a4 a8 07 bd d4 e9 eb bc 60 2b 24 3d
       -0.009458762 -0.033119813 -0.028798021 0.040080428
000060 78 fb 7c 3c d4 a6 33 bc cc b0 6a bb 9a 02 0c 3d
       0.015440814 -0.010965068 -0.0035810946 0.03418217
000070 82 c5 66 3b 78 38 0f bd 66 d5 e5 3c ee 81 a1 bc
       0.0035212939 -0.034965962 0.028055858 -0.019715276
000080 f5 f7 dd 3c a2 e5 da bc f5 8c f0 3b 6f f6 f2 3c
       0.027095774 -0.026720826 0.007341022 0.029658524
000090 d7 65 37 3c 0b f9 5f bc 8d 42 fc bc 4a 03 01 bd
       0.011193714 -0.013670216 -0.030793453 -0.031497277
0000a0 71 b0 5a 3c e7 46 09 bc 3d 7f bc 3b d2 ef 0a 3d
       0.013347731 -0.008378721 0.0057524727 0.033920117
0000b0 87 fc f8 3c 1b e3 5f bc 43 44 10 3c 38 0f dc 3b
       0.030393852 -0.013664986 0.008805337 0.0067156814
0000c0 61 c6 65 3d 26 87 1c 3c e8 6a 9f bc 9d f6 54 bc
       0.056097392 0.009553706 -0.019460157 -0.01299825
0000d0 fa f8 19 bc 1c 31 1c 3d 8f 53 cb bc a2 74 3d 3b
       -0.00939774 0.03813277 -0.024820117 0.002890863
0000e0 38 44 e4 39 29 fb ac bc 30 f0 27 3c 6d c5 d3 3b
       0.00043538376 -0.021115856 0.010250136 0.006462744
0000f0 fd d6 df 3c fa 04 01 bd ef ae b5 3c 1d 1f ff bc
       0.027324194 -0.031498887 0.022178141 -0.031142766
000100 d1 aa 92 ba 22 42 56 bb 0b f9 1d 3b 59 b6 42 3c
       -0.0011189823 -0.0032693227 0.002410474 0.011884295
000110 c4 8c 47 bc 3e b6 dd 3a f6 d2 3b 3d 5f 0b 8e 3c
       -0.012179557 0.0016915274 0.045855485 0.017339407
000120 b1 2c 89 3c b2 48 1e 3c aa d8 98 bd 84 d9 1a bc
       0.016744943 0.009660887 -0.074632004 -0.009451274
000130 a0 61 36 bc de bc 98 3c 6f e2 aa bc 96 c8 d1 3c
       -0.011131674 0.018644746 -0.020859925 0.025608342
000140 29 d3 0c 3c 85 3c f4 3a 5d e7 a2 3b 28 41 0c bd
       0.008595266 0.0018633759 0.0049714283 -0.034241825
000150 49 32 96 3c c2 32 a1 bc 35 10 12 3d f0 85 d4 bc
       0.018334525 -0.019677524 0.035659987 -0.025942773
000160 44 d6 85 bc e3 56 83 bc ee 1a 02 3c cc 2e c6 3c
       -0.016337521 -0.016032642 0.007940991 0.024192236
000170 ec ee 9c 3c 19 95 a6 3c 5c a6 e4 bc 9c 73 e4 bb
       0.019156896 0.020334767 -0.027911358 -0.0069717895
000180 f9 af f0 3c 71 40 9f bc 53 11 14 bd e0 8d 48 bc
       0.029380785 -0.019439908 -0.036149334 -0.012240857
000190 72 35 46 bc 42 7c 60 bc d1 4a 56 3d c9 d5 b1 ba
       -0.012097703 -0.0137015 0.052317444 -0.0013567741
0001a0 8d ca 7f bc 78 33 f6 bc 6a 40 22 bd e1 82 60 3c
       -0.015612257 -0.03005384 -0.03961221 0.013703079
0001b0 e7 28 ce 39 c1 a4 18 bd 80 0c 6b 3c 2e 48 c4 bc
       0.00039321856 -0.037266497 0.014346242 -0.0239602
0001c0 f8 35 0d bc 4e a8 0d 3c ec cb ed bc 78 f5 8f 3b
       -0.008618824 0.008646084 -0.029027902 0.004393276
0001d0 be 3e 50 3b 91 b9 f6 bc 0b 27 41 bc dc f9 98 3b
       0.0031775679 -0.030117782 -0.011789094 0.0046684574
0001e0 9d 8b 9a 3c 5d 89 97 bc b0 bf 21 bd a4 11 cb bc
       0.0188654 -0.018498117 -0.039489448 -0.024788685
0001f0 f6 a9 fc bc 74 e4 e8 bc 80 18 b4 ba 34 6d 20 bb
       -0.030842762 -0.028429247 -0.0013740212 -0.0024479153
000200 ea d0 d9 3c 4c f0 67 bc 66 1c ee 3b ae e6 13 3b
       0.026588876 -0.014156412 0.007266569 0.0022567916
000210 ce 3b 70 bb 01 07 51 ba 5b 92 ab 3b 7a f2 cd 3c
       -0.003665674 -0.0007973761 0.005235953 0.025140036
000220 9b b7 ff bc a9 60 6c bd b0 6f a2 bc 8f c3 6e bc
       -0.03121548 -0.05770937 -0.019828647 -0.014572992
000230 22 c7 9b 3c 65 ca e8 bb 8b 5f 01 3d 34 aa 0c bc
       0.019015852 -0.0071042054 0.031585258 -0.008585501
000240 86 f1 cf bb 53 a4 95 38 9d 50 4a 3c 48 4e 3b 3c
       -0.0063459305 7.1354814e-05 0.012348321 0.011432238
000250 91 7e 09 3d 86 4c 8b bb e7 fc 77 3c 9d a5 00 bd
       0.03356797 -0.0042510657 0.01513598 -0.03140794
000260 8f ae 35 bc 76 3d 8f bc 6f 7a 89 bc b1 b7 32 bc
       -0.011088981 -0.017485362 -0.016782014 -0.010908053
000270 34 08 ec 3c d9 51 cc bb e8 f4 15 bd 2c 72 86 bc
       0.028812505 -0.006235343 -0.036610514 -0.016411863
000280 6a be 99 3c ad 7d 5a 3b 8c 57 90 3c b5 02 d2 bc
       0.018767554 0.0033339069 0.01761987 -0.025636056
000290 bd 0f cc bb 27 1c 62 bc b2 42 3e 3c 4e 4f 92 bc
       -0.006227462 -0.013800657 0.011612581 -0.017860081
0002a0 dc 2a 1a bc db 0e 84 3c 9c 1a 82 bc d3 a2 b8 3c
       -0.0094096325 0.016120365 -0.015881829 0.022538578
0002b0 ec 2d f3 3c d8 ea bd bc 14 40 b3 bc 05 fa 78 bc
       0.029684983 -0.023183271 -0.02188114 -0.015196328
0002c0 3e 2e 15 bb 62 fb a4 3b 2d 40 1b 3d f4 e3 cf bc
       -0.0022763158 0.00503485 0.037903 -0.025377251
0002d0 cc 19 13 3c 48 a0 1d bb 57 4d 25 bb 96 2d 13 bc
       0.008978318 -0.0024051834 -0.00252231 -0.0089830365
0002e0 05 5a 91 ba 25 fd 04 3c 64 97 1c 3c 03 c9 6d 3b
       -0.001108945 0.008116995 0.009557579 0.0036283142
0002f0 52 6d c3 3b 7d 3a 8a b9 93 2a 9b ba a5 f6 97 ba
       0.0059639597 -0.00026364988 -0.001183825 -0.0011593892
000300 e3 0a 03 3c a2 73 65 3c 73 19 bc bb c2 77 ac bc
       0.007998201 0.01400462 -0.0057403385 -0.021053199
000310 6b 64 f1 38 b7 a0 56 bc ed 22 ce 3c f1 cd f8 b8
       0.0001151048 -0.013099841 0.025163138 -0.00011863921
000320 7e 69 b0 bb c0 81 e9 bc dd f7 ea 3c fb 50 dd 3c
       -0.0053836694 -0.028504252 0.028682644 0.027016154
000330 07 60 bc bc bb fa 9d bc 54 5f 19 bc 91 a7 23 3c
       -0.022995008 -0.019284597 -0.009361107 0.009988681
000340 61 97 92 3b aa 49 3c 3c ed 28 66 3c c4 a3 74 3d
       0.004473612 0.011492172 0.014047843 0.05972649
000350 5b 40 9d bc 66 69 8c bc e9 36 a4 3a b7 fa 71 3c
       -0.019195726 -0.017140102 0.0012528572 0.014769248
000360 d5 cc 6f 3c 51 a9 0a 3c a6 4c 57 3d cb 2d c6 3c
       0.014636238 0.00846322 0.052563332 0.024191758
000370 c7 cb 3b bc e5 43 ec 3a 2f 5a 93 bc 01 f6 21 bc
       -0.0114621585 0.0018025605 -0.017987339 -0.009885312
000380 21 74 1b bd 5b 27 b6 3c 3a 3c 67 3c d1 09 2b 3d
       -0.037952546 0.022235563 0.01411348 0.04175741
000390 a5 4d fa bc 59 c4 2c bb 4d 79 08 3c 9e f3 d5 3c
       -0.030554602 -0.002636215 0.008329702 0.026117142
0003a0 ef 29 bf 3c 18 63 e3 3c ff ba 0e bc 5d 30 56 bc
       0.023335425 0.027757213 -0.0087115755 -0.013073054
0003b0 6a 83 a3 3c 8a 32 95 bb 89 76 c7 bc 25 00 96 3c
       0.019960124 -0.004553144 -0.024348514 0.018310616
0003c0 33 3c 87 3c f3 54 58 3c 15 2d 55 bc 36 2c e3 3c
       0.016508197 0.013203847 -0.013011237 0.027731042
0003d0 2b 63 68 3c 73 e4 fd bc 27 7c fb 3b 84 23 99 bc
       0.0141838 -0.030992722 0.007674712 -0.018693693
0003e0 1d 2a 2b 3a ce 20 b8 3c b8 8f 5d 3b 4b bd 3a bd
       0.00065294077 0.02247658 0.0033807587 -0.04559068
0003f0 9e 8f 9b bc 0d e2 d4 3a ab 2a a2 3c 51 c6 b0 bc
       -0.01898938 0.0016241685 0.019795736 -0.02157894

model.0.bias f4 [32]
000000 d9 1c 49 b9 dc d7 9d 38 a8 ec 10 38 ee c9 34 39
       -0.000191796 7.52655e-05 3.455268e-05 0.00017241362
000010 a6 9e 82 38 be 21 ba 37 60 04 79 b6 d7 f1 15 38
       6.2284336e-05 2.218864e-05 -3.7106438e-06 3.57496e-05
000020 cf 44 ac b9 ee e0 56 b8 d5 5f 93 b8 70 79 c2 b8
       -0.00032857663 -5.1231058e-05 -7.027356e-05 -9.2732604e-05
000030 f8 32 38 39 6b 9d 55 38 53 1d 4b 38 a6 1c 40 37
       0.00017566595 5.0929764e-05 4.8426282e-05 1.1450762e-05
000040 a0 03 36 b9 6e a1 09 b8 8f 7c 92 b8 15 a1 46 b9
       -0.00017358223 -3.281369e-05 -6.985023e-05 -0.00018942759
000050 96 f1 e6 38 58 ac 12 b9 c3 52 9b 38 af 2c 26 b9
       0.000110122535 -0.00013987848 7.4063915e-05 -0.0001584764
000060 b4 f4 09 b9 c4 d1 c8 b8 90 d3 66 39 46 9a 25 39
       -0.00013156497 -9.575815e-05 0.00022013322 0.00015793098
000070 1e f4 6e b7 b4 4c 63 38 1b cb c3 b7 29 c8 c1 38
       -1.4242743e-05 5.4192453e-05 -2.334039e-05 9.24024e-05

model.1.weight f4 [32]
000000 1f d5 8b 3f ff 87 61 3f 39 f8 8e 3f 23 53 61 3f
       1.0924414 0.8809814 1.1169502 0.8801748
000010 94 18 61 3f dd 89 5d 3f 21 04 8c 3f 85 5e 8f 3f
       0.8792813 0.8653849 1.093876 1.120072
000020 48 b2 5f 3f 41 10 92 3f d9 b4 5a 3f 3d b2 60 3f
       0.8738141 1.141121 0.854322 0.8777197
000030 bd 56 58 3f 3d 3f 8e 3f 3c 5d 53 3f 86 65 57 3f
       0.8450735 1.1113049 0.8256414 0.8413929
000040 56 9a 5d 3f 44 d3 61 3f 29 dc 5e 3f 50 78 89 3f
       0.8656362 0.8821299 0.8705469 1.0739841
000050 13 1b 5e 3f b1 ca 60 3f b3 ca 8c 3f f3 86 60 3f
       0.8676006 0.8780928 1.0999359 0.87705916
000060 04 38 5e 3f 6b f8 91 3f cf 82 5f 3f 00 4b 8c 3f
       0.86804223 1.1403936 0.87308973 1.0960388
000070 12 1d 90 3f f7 3a 96 3f 62 62 8b 3f 66 3d 8c 3f
       1.1258872 1.1736745 1.0889399 1.0956237

model.1.bias f4 [32]
000000 66 86 a2 bd 8f 7e c1 be 85 1d 47 bd 37 36 bf be
       -0.07935791 -0.3779187 -0.048612136 -0.3734605
000010 51 f4 b3 be ea 76 d2 be 2d 29 42 bd b2 5e ef bc
       -0.35147336 -0.4110635 -0.04740255 -0.029219959
000020 62 7c cb be a9 d6 13 bd c4 e8 c3 be a4 d2 bf be
       -0.39743334 -0.036093388 -0.38263524 -0.37465394
000030 43 4f d1 be e6 dc 7d bc fe 3b ca be 99 03 d8 be
       -0.40880784 -0.015494561 -0.39498895 -0.42190245
000040 21 8e af be 67 6d b2 be 74 81 bd be 03 5e 9e bd
       -0.34288123 -0.34849092 -0.37012827 -0.07732775
000050 cd 42 ae be f3 45 bf be 32 67 bd bd c9 68 b7 be
       -0.3403534 -0.37358055 -0.092481986 -0.35822132
000060 74 ac d3 be 43 76 a8 bc 4c 16 c9 be 27 5c 9e bd
       -0.4134251 -0.020564204 -0.39274824 -0.077324204
000070 36 c3 31 bd 3b c9 45 bd 7f c4 79 bd 30 41 72 bd
       -0.04339906 -0.04828761 -0.06097841 -0.0591442

model.1.running_mean f4 [32]
000000 75 b1 a0 3c 95 0d 69 3c 8d 1d f5 3c ef 05 b7 3c
       0.019615868 0.01422443 0.029921317 0.022341697
000010 14 f1 af 3b b3 40 0f 3c 93 15 47 ba a8 83 e6 3c
       0.005369315 0.008743453 -0.00075944624 0.02813895
000020 94 04 d5 3c 2d f5 b0 3c 5a e9 85 3c 05 ee a9 3b
       0.02600316 0.021601284 0.016346622 0.005185845
000030 00 09 e0 3b 14 82 e0 3c 5f f7 d0 3c 9b 97 89 3c
       0.0068370104 0.027405776 0.02550858 0.016795924
000040 19 b8 e5 3b ad 44 09 3c 0c 78 89 3c 10 8a 1a 3c
       0.0070104715 0.00837819 0.016780876 0.009432331
000050 8d 92 1e 3c 19 59 90 3c bf 60 0f 39 ef b7 4e bb
       0.009678495 0.01762061 0.00013673583 -0.0031542738
000060 06 32 e5 3a d8 4a b3 ba 72 de b1 3c 59 9e 1f 3c
       0.0017486222 -0.0013678921 0.021712516 0.009742343
000070 3b f9 37 3b 40 6c d8 3b 8e de 95 3c 7b 51 a0 bb
       0.0028072137 0.0066047013 0.018294599 -0.0048925257

model.1.running_var f4 [32]
000000 0a 95 97 38 f4 7b 68 38 96 4d a7 38 c6 9e 75 38
       7.228002e-05 5.542855e-05 7.977632e-05 5.856042e-05
000010 f9 64 58 38 14 c0 6c 38 28 3f 91 38 a2 45 9c 38
       5.159245e-05 5.644567e-05 6.9259026e-05 7.45163e-05
000020 98 96 7a 38 db ce a7 38 c6 f6 80 38 a9 0c 4a 38
       5.9744896e-05 8.0017104e-05 6.149481e-05 4.8172344e-05
000030 8e 81 46 38 cf cb 8e 38 82 99 76 38 5f d0 6f 38
       4.7327536e-05 6.80905e-05 5.8793936e-05 5.71761e-05
000040 34 28 62 38 de b5 89 38 b1 8b 6a 38 d0 3d a0 38
       5.392004e-05 6.5665445e-05 5.5920045e-05 7.640908e-05
000050 a0 8a 7e 38 35 c8 5f 38 86 04 b7 38 9b 43 3c 38
       6.0687424e-05 5.33538e-05 8.7269626e-05 4.4885655e-05
000060 c9 28 57 38 36 9c b7 38 9a fd 5a 38 43 cd a3 38
       5.129798e-05 8.7552165e-05 5.2211435e-05 7.810679e-05
000070 e7 26 a5 38 bc a7 a6 38 ff 67 72 38 fd 41 a4 38
       7.875059e-05 7.94674e-05 5.779415e-05 7.832421e-05

model.4.weight f4 [2, 32]
000000 df 21 e8 3e 7b 5e 54 be 41 d8 c7 3e c7 b9 37 be
       0.45338342 -0.20739166 0.39032176 -0.17941962
000010 c7 f2 8b be 0f f4 5c be 99 ce 7d 3e 6c 6d a4 3e
       -0.27333662 -0.21577476 0.24785842 0.32114732
000020 a6 c3 a5 be 2f 54 82 3e 72 0e 3d be 1c bc 39 be
       -0.3237583 0.25454852 -0.18462542 -0.18138164
000030 69 49 8c be 14 5d 81 3e 0c 9c 90 be 80 21 92 be
       -0.27399758 0.25266325 -0.28244054 -0.28541183
000040 d2 2d 96 be 80 b5 8f be d4 3b 37 be bd 0c cc 3e
       -0.29331833 -0.2806816 -0.17893916 0.3985347
000050 64 2e 05 be 53 75 af be 3a 7f ea 3e e6 77 8b be
       -0.13005978 -0.342692 0.4580019 -0.27239913
000060 88 43 86 be fd a0 bd 3e b1 9c 75 be b6 18 a9 3e
       -0.26223397 0.37036887 -0.23985554 0.33026665
000070 f1 30 a5 3e 29 a2 b6 3e 55 f1 3c 3e 59 6f a2 3e
       0.32263902 0.35670593 0.18451436 0.31725577
000080 b6 18 91 be 18 82 93 3e b7 f2 a5 be 8d c6 93 3e
       -0.28339165 0.2881019 -0.3241174 0.2886242
000090 66 e7 2e 3e 53 d4 a0 3e 6c f7 d1 be bd 76 9e be
       0.17080459 0.3141199 -0.4100908 -0.30949965
0000a0 6b bb 48 3e 5b 4c ec be 24 e5 9a 3e 10 a4 8f 3e
       0.19602744 -0.46152005 0.30252945 0.28054857
0000b0 a1 51 65 3e 03 30 e1 be 32 60 8c 3e 9c 10 a1 3e
       0.2239442 -0.43981943 0.2741714 0.31457984
0000c0 3d 16 06 3e 3d 59 1c 3e ea d6 9d 3e 95 8f d9 be
       0.1309442 0.15268417 0.3082803 -0.42492357
0000d0 ae e3 97 3e 3e 89 13 3e 97 5c cc be d4 79 2c 3e
       0.29665893 0.14407822 -0.3991439 0.16843349
0000e0 24 09 76 3e bd c6 a0 be e6 49 96 3e 3b cc e1 be
       0.24026924 -0.31401625 0.29353255 -0.44101128
0000f0 4c 29 c1 be 0f 7d bf be 63 8d e6 be ba a9 de be
       -0.3772682 -0.374001 -0.45029745 -0.43488866

model.4.bias f4 [2]
000000 dd 45 a8 3e c4 64 e6 be
       0.328658 -0.44998753
