trained_models/run16.pth (torch, 135403 bytes, 8 tensors)

model.0.weight f4 [32, 1024]
00000000: 766a 833b d7a6 fb3c 5bbd a63c 925b 61bc
00000010: ac5a 2dbd 4a22 833c f370 90bc 495d db3c
00000020: 4f63 d63c da40 ecbb 7ad2 9a3a c7b4 e83c
00000030: 6cdf 2e3d f46a 9d3c d4ea d63c e584 bdbc
00000040: 0dbc 613c f7d3 edbc 83ef e5bc 9690 333c
00000050: 6741 4fbc 5950 c0bb 5e2a d2bc 994a f23c
00000060: 4bbb 9c3c a8ad 4cbc 59cf 71bb a20b b73b
00000070: 4e58 a63b 0899 67bd ec79 543c cbf1 c5bc
00000080: 9567 893b 42ea 81bc b209 44bc b299 b83c
00000090: 17f3 b73c 0ff0 80bc ea85 dfbc 2256 c43a
000000a0: 4dc5 053a 7faf 4abc e10e 2abc 5856 913c
000000b0: 56d0 9a3c 1a87 e1bc 5638 3b3c 97bf 7d3b
000000c0: 22bb 113d 2c79 313b f8d0 02bc 7575 bbbb
000000d0: 0d07 c7bc d206 223d 153a 82bc 87ed 423d
000000e0: 8943 053b 1435 a5bb 930a 8f3c 7dfa dc3b
000000f0: cbe5 0e3d b0e0 38bc ecd8 9a3c 89da d93a
00000100: bb71 38bc e963 003b ef24 a43c 5b8d 8abc
00000110: 244e d0bc cb18 b9bc 4d0f f73c 8f52 8a3c
00000120: 3ec5 c83c fc35 223b c33b 82bd b6cd 8fbc
00000130: 41cf 61bc 70ce 89bc 3f13 24bd 33b8 8b3c
00000140: 348e 6f3c 9a46 073c 754c 9b3c 8827 fcbc
00000150: 32a8 0f36 7092 3abc 0467 0b3d 050b f0bc
00000160: ae10 6e3a c76c 95b9 1de8 203c d582 2ebc
00000170: 0f9f 2c3d 62f4 b73a 3bf2 ecbc d6a1 acbc
00000180: 48ed 9c3c 54e8 3fbd 2ee7 0bbc ad57 0dbd
00000190: a403 4d3c 845d e63b 6885 3d3d 1c5d 403a
000001a0: b010 a1bb b025 09bd ffe9 58bc 941e bb3c
000001b0: 8a0d 86bc 3796 16bd 1fcf 9a3b b4e0 4dbd
000001c0: b649 18bc b5d9 553c 8544 ecbc b2bd 543c
000001d0: 9d40 383a 645a 9ebd 7749 0fbc bf76 69bb
000001e0: e198 843b a822 efbb 006d c1bc d460 f7bc
000001f0: 7b4b cfbb 292a 3f3c cd68 093b 51f3 e7bb
00000200: 9c20 253d d25a e93b d167 da3c 0e49 73bc
00000210: c863 9c3c 96dc 513b 9561 26bc 6ad9 273d
00000220: 3a9c f3bc 62ba 77bd 45d2 93ba d1ed 34bc
00000230: c97b b2ba 88c0 8bbc 42e2 2e3c 75d4 733b
00000240: ed9f 2b3b 7472 37bb ca50 6b3c b032 5e3c
00000250: e12c aa3c 943b eabb 5d42 303c f8b9 5bbc
00000260: b229 5cbc 2299 d6bc c4ee f1bb 6367 16bd
00000270: 84e1 7f3d bbd8 69bc cb84 e4bb b932 b9bb
00000280: 5301 6c3c 958c 08bb 7482 083c 79ac 8abd
00000290: aa84 1a3b 469c adbc c675 a839 f08b 813b
000002a0: 6cfb f4bc e34a 84bc 0e89 5cbc 47da 01bc
000002b0: bdb3 2d3c 2546 91bc 92f7 eabc cc89 dabc
000002c0: 9625 3bbc 6ebe 3f3d 8713 053d e9b6 d8bc
000002d0: 3b61 013d 8656 953c ea57 303c e522 5dbc
000002e0: 7029 a8bb 11b8 003c 3d67 f73c d33a 893c
000002f0: 142d 8cbc 7e76 1b3c 2931 ef3a 7a6c 7bbc
00000300: a620 983b 5b07 043d 392b d1bc 81a5 edbc
00000310: c2be e93b 267e 6a3b 2d5c 883c 06e6 2abc
00000320: cb9e 8f3c 3308 27bc a13c 343c 9fad d63c
00000330: 6682 06bd 41cb 0bbc 7473 05bd 9022 3ebc
00000340: 8ae3 083b 5460 4ebc e2fc 1e3c 680c 5c3d
00000350: 8a03 1bbd 6b7f 19bd 9285 97bb 5d97 c63c
00000360: 1de8 613c 74bd 373c f2cd 2b3d 107c 893b
00000370: 2fdf 26bd efe3 8b3c 0942 91bc e180 62bc
00000380: 1967 69bc e2b8 1f3d 129c d73c f861 163c
00000390: 2618 17bd b02e 1dbc 9e31 13bd a0d4 033d
000003a0: f6a8 1e3c 435a c13c 6284 85bb 58b2 25bd
000003b0: ff02 aa3c 6c37 d7bc f241 36bd 34e8 1abd
000003c0: eb46 79bc 405e 1e3d acb3 16bb 963a 803c
000003d0: c02e 08bc 5c46 0bbd 2d6e 4ebc 9488 873c
000003e0: 6b65 d6bc 6f5d 42bb 2cf3 923b d4fc efbc
000003f0: b027 083b cb1b c83c 10d6 53bb 6e50 01bd
0.004010494 0.030719204 0.020353964 -0.013754742 -0.0423228 0.016007561 -0.017631983 0.02677788
0.0261704 -0.0072098793 0.0011811994 0.028406514 0.04269354 0.019216038 0.026235022 -0.023134658
0.013777745 -0.029031737 -0.02806831 0.010959765 -0.0126498705 -0.005868953 -0.025654968 0.029576587
0.019132277 -0.012492575 -0.003689727 0.0055861035 0.0050764447 -0.056542426 0.012968522 -0.024163147
0.004193256 -0.015858773 -0.011965202 0.022534225 0.022454781 -0.015739469 -0.027285535 0.0014979283
0.00051029475 -0.012370943 -0.010379524 0.017741367 0.01889817 -0.027530242 0.011427006 0.0038718933
0.035578854 0.002708028 -0.007984392 -0.005720789 -0.024295354 0.039557286 -0.015896836 0.047589805
0.0020334444 -0.005041728 0.017461097 0.0067437277 0.034887116 -0.011284038 0.018902265 0.0016620915
-0.011257584 0.00195908 0.020037143 -0.016913107 -0.025427885 -0.02259483 0.030158663 0.01688507
0.024508115 0.0024751415 -0.06359055 -0.017554145 -0.013782323 -0.01682207 -0.040057417 0.017055606
0.014621306 0.008256579 0.018957356 -0.030780569 2.1406563e-06 -0.0113874525 0.03403379 -0.02930213
0.0009081465 -0.0002850054 0.009820965 -0.01065131 0.042143878 0.0014034624 -0.028924098 -0.021073263
0.019156113 -0.046852425 -0.008539004 -0.034507442 0.012513075 0.007030191 0.046269804 0.0007338093
-0.0049153194 -0.033483207 -0.013239383 0.02284173 -0.016363878 -0.03676435 0.004724398 -0.05026312
-0.009294918 0.013052394 -0.028841266 0.01298468 0.0007028671 -0.077320844 -0.008745543 -0.0035623757
0.004046545 -0.0072978325 -0.023611546 -0.030197538 -0.0063261366 0.011667767 0.0020967007 -0.007078566
0.0403143 0.0071214223 0.026660832 -0.014848961 0.019090548 0.0032022349 -0.010155101 0.040978827
-0.02973758 -0.060480483 -0.0011277875 -0.011043028 -0.0013617213 -0.01705958 0.010674061 0.0037205492
0.0026187852 -0.0027991803 0.014362523 0.0135618895 0.020773353 -0.0071482155 0.01075801 -0.013411038
-0.013437675 -0.026196066 -0.0073831994 -0.03671969 0.062470928 -0.014272864 -0.006973838 -0.0056517986
0.014404613 -0.0020835747 0.008331884 -0.06771178 0.002357761 -0.021192681 0.00032131205 0.0039534494
-0.029905044 -0.01614899 -0.013460411 -0.0079255765 0.010601935 -0.017733643 -0.028682504 -0.026677035
-0.011422535 0.046812467 0.032489326 -0.026454406 0.031586867 0.018229734 0.010763148 -0.013497089
-0.005131893 0.007856385 0.030200595 0.016751682 -0.017111339 0.0094887 0.0018248904 -0.015345687
0.004642564 0.032233577 -0.025533305 -0.029009582 0.007133336 0.0035780757 0.016645515 -0.010430818
0.017531773 -0.010194826 0.011000783 0.026205836 -0.0328392 -0.008532346 -0.032580808 -0.01160492
0.0020887577 -0.012596209 0.009703847 0.05372277 -0.037845172 -0.03747503 -0.004624077 0.024242098
0.01378825 0.011214603 0.04194445 0.0041956976 -0.04074019 0.01707646 -0.017731683 -0.013824672
-0.014245772 0.038994677 0.026319537 0.009178631 -0.036888264 -0.009593651 -0.03593599 0.032185197
0.009683838 0.02360261 -0.004074619 -0.040453285 0.020753382 -0.026271544 -0.044496484 -0.037819102
-0.015214662 0.038664103 -0.0022995276 0.015652936 -0.008311927 -0.034002647 -0.01259951 0.016544618
-0.026171407 -0.0029657742 0.0044845548 -0.029295363 0.0020775609 0.024427315 -0.0032323636 -0.031570844

model.0.bias f4 [32]
00000000: 3a1f 2239 e699 e2b8 3504 11b9 3cb0 1bb8
00000010: ade1 c938 9c21 1338 1dc7 f7b8 9cef b339
00000020: 26cd 1eb8 9f80 cfb8 ff7d 0c39 b3b1 25b8
00000030: e7ed e838 1f3f 16b8 ded3 2038 34e2 a0b8
00000040: e794 9438 1b6c ca38 726f ed38 9046 70b8
00000050: 5933 1e39 9f13 eab8 9b8d d3b7 6c3e 0e39
00000060: 6a16 be38 19fb 8eb9 6b3a 22b8 634d b5b7
00000070: 3197 39b9 ef22 1b39 117c 78b8 717d 36b9
0.00015461157 -0.000108051856 -0.00013829845 -3.711901e-05 9.626462e-05 3.5078832e-05 -0.000118149655 0.00034320063
-3.7861195e-05 -9.894487e-05 0.00013398378 -3.950456e-05 0.00011106935 -3.5821573e-05 3.834429e-05 -7.671528e-05
7.084925e-05 9.652247e-05 0.00011321799 -5.7286175e-05 0.00015087183 -0.00011161644 -2.52191e-05 0.00013565429
9.064081e-05 -0.00027271433 -3.8678216e-05 -2.1612917e-05 -0.00017699298 0.00014794966 -5.9243353e-05 -0.00017403603

model.1.weight f4 [32]
00000000: 9253 8e3f 4dfe 623f 0603 8f3f 715a 643f
00000010: 8de2 603f 386b 5b3f d57b 8e3f e460 903f
00000020: 85ec 5f3f 7e8d 913f 6252 5d3f da14 613f
00000030: d342 5c3f fcc7 8e3f fb53 553f 8e6e 573f
00000040: e00e 603f a92f 633f caec 5e3f 17c5 893f
00000050: 84cd 5f3f 33bb 623f 7ff8 8b3f 6f6e 623f
00000060: 399e 613f 73f2 903f cc48 5f3f ac90 883f
00000070: 3df8 903f a80b 973f 14c3 8d3f aba1 8c3f
1.1119254 0.8866928 1.1172798 0.892005 0.8784569 0.8571048 1.113154 1.1279569
0.87470275 1.1371305 0.8645383 0.8792244 0.86039466 1.115478 0.8333127 0.8415307
0.875227 0.887446 0.8708006 1.0763272 0.87422967 0.88566893 1.093521 0.8844976
0.88132054 1.132399 0.87220454 1.066915 1.1325756 1.1800432 1.1075158 1.0986837

model.1.bias f4 [32]
00000000: 0af8 7fbd 9256 bfbe 312b 51bd 1e87 bdbe
00000010: de41 afbe 51a8 d0be f384 84bd 9f98 a3bd
00000020: 7bd8 b8be 2dd2 05bd 44b8 b4be 2fb8 b8be
00000030: 4196 d2be ba02 4ebc 54a9 c2be f652 ccbe
00000040: d4e6 b8be 3c4e bcbe 6877 afbe a97b 85bd
00000050: 4dc9 bfbe 7ce2 abbe dc65 c2bd db9c b8be
00000060: 5480 c0be b02a 44bd 365c c2be e0f3 acbd
00000070: 427a 40bd b7db d5bc 2da2 98bd ca34 b2bd
-0.062492408 -0.37370735 -0.05106658 -0.3701715 -0.3422994 -0.40753415 -0.064706706 -0.079880945
-0.36102661 -0.032671142 -0.35296834 -0.3607802 -0.4113026 -0.012573892 -0.38019812 -0.39907044
-0.36113608 -0.36778438 -0.34270787 -0.06517727 -0.37458268 -0.3357123 -0.094920844 -0.3605717
-0.37597907 -0.047892272 -0.37960976 -0.08444953 -0.046991594 -0.026105745 -0.074528076 -0.08701475

model.1.running_mean f4 [32]
00000000: 1e2f e33b 7903 883c f240 a23c 262b d13c
00000010: b68f 6b3c f0a8 173a ed19 ffbb d46f 163c
00000020: fb05 9b3c efaa 023c ebaa 803c ba6f 923c
00000030: 5a17 133c 5671 b03a 0fa7 ab3c 1457 823c
00000040: 652e 1c3b a5cc 143c 31eb 0b3b a0ef 113c
00000050: a614 a0bb 35f7 403b 7ef0 053b 3875 50bb
00000060: feac 1b3c 27f3 983b 4e6a 923c e34e 31bc
00000070: c5af 1e3b b4bd c93b 2203 723b 4c09 4fbc
0.006933107 0.016603218 0.019806359 0.02553327 0.014377525 0.00057853665 -0.007785073 0.009181935
0.01892375 0.007975324 0.0157065 0.017875541 0.008977735 0.0013461511 0.020953683 0.015910663
0.0023831364 0.009081994 0.0021349902 0.008907229 -0.004885274 0.0029444222 0.0020437534 -0.003180815
0.009501694 0.004667658 0.017872956 -0.010822031 0.0024213654 0.0061566476 0.0036928137 -0.012636494

model.1.running_var f4 [32]
00000000: b693 8f38 e642 8438 7878 b038 514a 5538
00000010: 2afd 7938 1ec6 7338 d31b ab38 8d37 9038
00000020: 90af 4d38 d080 a238 bca3 5c38 0450 5438
00000030: fb06 6b38 82cb 8438 4c1f 6e38 7810 6b38
00000040: d325 5538 1b89 6938 612f 8838 d339 a238
00000050: 062f 5838 b15e 5838 8385 aa38 1026 5b38
00000060: 8b66 5538 d365 af38 a438 5c38 bfdc 8a38
00000070: db83 9b38 a347 9338 82f6 8738 c519 9238
6.846285e-05 6.306711e-05 8.414773e-05 5.085237e-05 5.9602004e-05 5.8120226e-05 8.159098e-05 6.876802e-05
4.9039314e-05 7.748755e-05 5.2604577e-05 5.061926e-05 5.6034867e-05 6.332157e-05 5.677277e-05 5.6043704e-05
5.0818384e-05 5.567922e-05 6.49381e-05 7.7355326e-05 5.1542207e-05 5.15866e-05 8.1311e-05 5.2249117e-05
5.0878658e-05 8.3636165e-05 5.2504838e-05 6.62147e-05 7.415536e-05 7.0228496e-05 6.483217e-05 6.9666225e-05

model.4.weight f4 [2, 32]
00000000: 8faa ec3e c09c 47be 8d4c c03e 7c80 39be
00000010: 4317 83be 4b4d 65be f8bf 853e 78ad a53e
00000020: 89ba 93be 4104 713e eca5 28be d435 2abe
00000030: 77f1 8ebe fa81 7a3e 83be 85be c167 82be
00000040: 2dbd 9bbe f3d8 94be 3891 14be 1e41 c23e
00000050: 159f 14be 7ee9 a3be 0144 de3e aaae 8fbe
00000060: 30e2 6ebe 6bee b13e a5d2 5cbe 2569 903e
00000070: c3eb a23e 0a2c a83e 2f92 453e ecd6 9e3e
00000080: 5575 95be 9073 8d3e 7005 9ebe 0d0c 953e
00000090: 136a 1c3e 4134 a53e bbf0 d8be 8aae 9fbe
000000a0: 863e 233e 1981 e3be 614c 913e 042a 883e
000000b0: 714e 6a3e 6acc ddbe 5676 813e 8a87 913e
000000c0: 54a7 103e 9e58 263e 2c2f 8d3e abf7 cfbe
000000d0: 79dd 9f3e 6b1e f53d b394 bfbe ada8 343e
000000e0: 9b23 583e 60bd 94be 682d 8a3e bc42 cabe
000000f0: bc0b bfbe 8130 b1be ec26 ebbe e694 dbbe
0.46223876 -0.19493389 0.37558404 -0.18115419 -0.25603685 -0.22392766 0.26123023 0.3235891
-0.28853253 0.23536779 -0.16469544 -0.16622096 -0.27918598 0.24463645 -0.2612191 -0.25469783
-0.30417767 -0.2907177 -0.14508522 0.37940305 -0.1451381 -0.32014078 0.43411258 -0.28062946
-0.23328471 0.3475221 -0.2156473 0.2820522 0.31820497 0.328461 0.19294046 0.31023347
-0.2919108 0.2762723 -0.30863523 0.29110757 0.15274839 0.3226643 -0.42371163 -0.3118785
0.1594182 -0.4443443 0.28378585 0.26594555 0.22881486 -0.43320018 0.25285596 0.2842372
0.1412633 0.16244742 0.27575052 -0.40618643 0.31223658 0.119686924 -0.37418136 0.1764247
0.21107332 -0.29050732 0.26987767 -0.3950404 -0.3731364 -0.34607318 -0.45928133 -0.42887038

model.4.bias f4 [2]
00000000: 72f6 ab3e d63e eabe
0.3358646 -0.45751065
