trained_models/run13.pth (torch, 135403 bytes, 8 tensors)

model.0.weight f4 [32, 1024]
0	0xbe1a2590	-0.15053391
1	0x3de6078b	0.112319075
2	0x3d173120	0.036912084
3	0xbd28fb39	-0.04125521
4	0xbda901de	-0.08252309
5	0xbdce5f6a	-0.100767925
6	0x3dcac648	0.099011004
7	0x3e4b9211	0.19879939
8	0xbd0cf450	-0.034412682
9	0xbce421fa	-0.027848233
10	0xbc0cd319	-0.0085952515
11	0x3dd3ccb0	0.103417754
12	0x3e58d8f5	0.21176513
13	0xbc605150	-0.013691261
14	0x3e0fcc4c	0.14042777
15	0x3d4f9e8b	0.050688308
16	0xbc2eb371	-0.010662899
17	0xbdb31f56	-0.08746211
18	0x3cd24125	0.025665829
19	0x3b8f36e2	0.004370556
20	0xbd3634b1	-0.044483844
21	0xbe28c1c3	-0.16480164
22	0xbdc89c59	-0.09795446
23	0x3c29c884	0.010362748
24	0x3e70dd2e	0.23521873
25	0xbc4c2d01	-0.012461902
26	0x3d30b236	0.043138705
27	0x3d7c8c9c	0.061657533
28	0xbde710bc	-0.11282489
29	0x3d2200ce	0.03955155
30	0xbcdce8b3	-0.026966428
31	0xbdcb7f72	-0.09936418
32	0xbde7bade	-0.11314939
33	0x3de64bcd	0.112449266
34	0xbdc1f5df	-0.09470724
35	0xbd30d9c5	-0.04317643
36	0xbd1786a7	-0.03699365
37	0xbe30a97e	-0.17252156
38	0xbdd6e5a3	-0.104930185
39	0xbdbafd0a	-0.091302946
40	0xbc98658d	-0.01860311
41	0x3dc2e4e0	0.09516311
42	0xbd149ddb	-0.036283355
43	0x3d38e081	0.04513598
44	0x3dc10aa8	0.09425861
45	0x3ddf8321	0.10913683
46	0xbd623205	-0.055223484
47	0xbbfba492	-0.0076795304
48	0x3df758ac	0.1207746
49	0x3e48a918	0.19595754
50	0x3db17286	0.08664422
51	0x3c528bc6	0.012850707
52	0xbcbb5717	-0.022868676
53	0x3d750d8d	0.059827376
54	0xbcd0ffb7	-0.02551256
55	0x3d9c4be0	0.076316595
56	0xbd864545	-0.06556181
57	0xbe1c0010	-0.15234399
58	0xbd993b3c	-0.07482001
59	0x3d98d2ab	0.07462057
60	0x3cfd6975	0.030934075
61	0x3c95f08e	0.018303182
62	0xbdf26f38	-0.118376195
63	0x3e6ec70b	0.23318116
64	0xbc1ad93d	-0.009451208
65	0xbe2cec36	-0.16886982
66	0x3d9a0cb0	0.07521951
67	0x3c192d36	0.009349158
68	0x3c175528	0.009236611
69	0x3db11ead	0.08648429
70	0x3dc6da10	0.09709561
71	0x3e1ab386	0.15107545
72	0xbdb93b70	-0.0904454
73	0x3d980c07	0.07424169
74	0xbddad9ea	-0.10686095
75	0xbdb44f58	-0.08804196
76	0x3c940aa2	0.018071476
77	0xbc6e82cf	-0.014557554
78	0xbc032ea2	-0.008006724
79	0x3e3a7076	0.18206963
80	0x3e143700	0.14474106
81	0xbdcd602a	-0.100281075
82	0xbde74c5c	-0.11293861
83	0xbe156457	-0.14589058
84	0x3d6ac111	0.05731303
85	0x3e74260d	0.2384264
86	0xbd889cd4	-0.066705376
87	0xbdd2840c	-0.10279092
88	0xbd4c2943	-0.049844038
89	0x3d91f356	0.07126491
90	0x3d98f12f	0.07467877
91	0x3e106356	0.14100394
92	0xbd8fecf1	-0.07027615
93	0xbca672a0	-0.02031833
94	0xbdb67077	-0.0890817
95	0xbe084b7b	-0.13310044
96	0x3d8f8068	0.070069134
97	0xbd1aea4c	-0.0378211
98	0xbe4901f7	-0.19629656
99	0x3c9dc2f5	0.019258002
100	0xbcfa593c	-0.030560128
101	0xbb1013be	-0.0021984424
102	0x3e64d75b	0.22347777
103	0x3d8ea4b9	0.06965012
104	0xbda29863	-0.07939222
105	0x3d7741cf	0.060365494
106	0x3d4167c1	0.047218088
107	0x3dd2737e	0.10275935
108	0x3d925ef8	0.0714702
109	0xbd8d73ed	-0.06906877
110	0xbcb9f6cb	-0.022700688
111	0x3dda2120	0.10650849
112	0xbe332756	-0.17495474
113	0x3d9da491	0.07697404
114	0x3cc05cfa	0.023481835
115	0x3e1c85a7	0.1528536
116	0xbc7f231d	-0.0155723365
117	0xbcc7a9cd	-0.02437296
118	0xbcc8b89e	-0.024502095
119	0xbd63bd2c	-0.05560033
120	0x3e08ab1a	0.1334652
121	0xbd73ec3e	-0.05955147
122	0xbe92c975	-0.28669325
123	0xbd86ec7c	-0.065880746
124	0x3dac5f58	0.08416623
125	0x3e405d71	0.18785645
126	0x3d17306f	0.036911424
127	0x3db782dc	0.08960506
128	0x3e1b035b	0.15137999
129	0xbd9bef17	-0.07613962
130	0x3deded56	0.11617534
131	0xbddbe8eb	-0.10737785
132	0x3c5629da	0.013071502
133	0xbc8c87fb	-0.017154684
134	0xbd08bc3a	-0.03338263
135	0xbd02874d	-0.031867314
136	0x3dfd5a60	0.12370753
137	0x3d116078	0.03549239
138	0xbe8041dc	-0.25050247
139	0xbdaca48a	-0.08429821
140	0x3d9a8757	0.07545345
141	0xbe00d0e1	-0.12579681
142	0x3cb6adc4	0.022299655
143	0x3c988a8e	0.018620756
144	0xbd02cad4	-0.031931713
145	0xbd2cf813	-0.04222877
146	0x3c56b1fc	0.013103958
147	0xbd877486	-0.06614022
148	0x3e6877bc	0.22701925
149	0x3dfc3fcf	0.12316858
150	0xbd197334	-0.037463382
151	0xbd21434b	-0.039370816
152	0xbd436fb2	-0.047713943
153	0xbe245677	-0.16048609
154	0x3e1c8b13	0.15287428
155	0x3e392d7e	0.1808376
156	0x3e14da99	0.14536513
157	0xbddf54de	-0.10904859
158	0xbd5862e4	-0.052828684
159	0xbd8abeb1	-0.06774653
160	0xbe328b6c	-0.17435998
161	0x3e4fe3bc	0.20301718
162	0x3c9ee00f	0.019393949
163	0x3db43751	0.08799613
164	0x3c9b3e87	0.018950714
165	0xbd30a2de	-0.043124072
166	0x3bdfeebc	0.0068338793
167	0xbd96adbd	-0.07357357
168	0xbd56d20d	-0.052446414
169	0x3dcb92b1	0.099400885
170	0x3dcb3a6e	0.09923254
171	0xbe1714bb	-0.14754002
172	0x3de1b731	0.11021269
173	0xbcc53fea	-0.024078328
174	0xbe286a69	-0.16446842
175	0x3d9eee57	0.077603035
176	0x3db36e01	0.08761216
177	0x3c0adeaa	0.008475939
178	0x3d27e186	0.04098656
179	0xbe0b6580	-0.13612938
180	0x3e29d172	0.16583803
181	0xbde81823	-0.11332729
182	0x3d8d0a62	0.06886746
183	0xbd01c51b	-0.031682115
184	0x3d16c272	0.03680653
185	0xbdc43d87	-0.09582048
186	0xbda989bb	-0.08278223
187	0xbd11dd83	-0.03561164
188	0xbccd3b01	-0.02505255
189	0x3d5450a2	0.05183471
190	0xbda4c1fb	-0.08044811
191	0xbdb9841d	-0.09058402
192	0x3d2aa5fc	0.0416622
193	0xbdfac08c	-0.12243757
194	0xbbb036d7	-0.005377631
195	0xbd210220	-0.039308667
196	0x3e0be170	0.13660216
197	0xbc5994e2	-0.013280125
198	0x3c587227	0.01321081
199	0x3e317037	0.17327963
200	0x3c1711ee	0.009220583
201	0xbcb87cc6	-0.022520434
202	0x3d092dd0	0.033490956
203	0xbe12cccd	-0.14335938
204	0xbd14bcfd	-0.036313046
205	0xbdc1d882	-0.09465124
206	0x3b945b7c	0.0045275073
207	0x3e7ae52e	0.24501488
208	0x3dcb28e4	0.09919909
209	0xbd8aedb9	-0.06783623
210	0x3ddc7cd2	0.10765995
211	0x3dee397b	0.11632057
212	0xbd21c1ea	-0.03949157
213	0xbe0d21f6	-0.13782486
214	0xbc16da59	-0.009207332
215	0xbe483971	-0.19553162
216	0xbd323425	-0.04350676
217	0x3e40f841	0.18844701
218	0x3e66ca1f	0.2253804
219	0x3c32e835	0.01091962
220	0x3d91b969	0.07115442
221	0xbe19305b	-0.14959852
222	0x3db7d263	0.08975675
223	0xbcb4c293	-0.022065436
224	0x3da112e4	0.07864931
225	0x3d7ff1d8	0.0624865
226	0xbc9a6244	-0.018845685
227	0x3db0230c	0.08600435
228	0xbd3426fc	-0.04398249
229	0x3dc966e4	0.09834078
230	0xbd036c90	-0.032085955
231	0x3dc072a2	0.093968645
232	0xbe00b133	-0.12567596
233	0x3c5247bc	0.012834486
234	0xbd488327	-0.0489532
235	0xbcb72ad7	-0.022359295
236	0xbc49bb68	-0.012312748
237	0xbd04ecd3	-0.032452416
238	0x3c89554e	0.01676431
239	0xbc36f850	-0.011167601
240	0xbcb0eed3	-0.021598255
241	0x3c88a711	0.016681226
242	0xbe0127ca	-0.12612835
243	0x3e72df3d	0.23717971
244	0xbc2acb03	-0.010424378
245	0xbe29701f	-0.16546677
246	0x3dee2950	0.116289735
247	0xbe55b36e	-0.20869228
248	0x3d6ed502	0.05830861
249	0xbb8d6ef0	-0.0043162033
250	0x3d4df533	0.05028267
251	0xbe57d78c	-0.21078318
252	0xbcc661e2	-0.024216596
253	0x3c3da271	0.011574374
254	0xbd723732	-0.05913467
255	0xbdc58c46	-0.09645896

model.0.bias f4 [32]
0	0x38b5ee76	8.6751694e-05
1	0xb7d8eb28	-2.585871e-05
2	0xb9cf0832	-0.00039488223
3	0xb9375169	-0.00017482568
4	0x39ddaea2	0.00042282516
5	0xb9a85b47	-0.00032111464
6	0xb8f0da58	-0.000114847615
7	0x38d17aa6	9.988742e-05
8	0x39c288b4	0.00037104415
9	0x38db6b0c	0.00010462673
10	0x37ecd668	2.8233233e-05
11	0xb91e37e4	-0.00015088875
12	0x3992a0d0	0.00027967105
13	0xb985df96	-0.0002553432
14	0xb99394e6	-0.00028148963
15	0xb8176d1c	-3.610282e-05
16	0x399709a2	0.0002880814
17	0x3837877e	4.3756787e-05
18	0xb9561abc	-0.0002041859
19	0x3819aa62	3.6636724e-05
20	0xb8d17f96	-9.989661e-05
21	0x391caf7c	0.00014942692
22	0x39d6329c	0.00040854968
23	0xb9dcbe48	-0.0004210344
24	0xb94c40ea	-0.00019479138
25	0x39022ae7	0.00012413748
26	0xb8c34455	-9.3110524e-05
27	0xb9bd238a	-0.00036075368
28	0xb90b90c9	-0.0001331001
29	0xb92af678	-0.0001630428
30	0xb9e68bc3	-0.0004397315
31	0x376a05f0	1.3948869e-05

model.1.weight f4 [32]
0	0x3eccb647	0.39982817
1	0x3ed04204	0.40675366
2	0x3ed991ec	0.42494142
3	0x3ec3c1dd	0.38233843
4	0x3ef10ca2	0.4707995
5	0x3ee51607	0.44743368
6	0x3ee24cd9	0.44199255
7	0x3eb75d31	0.35813287
8	0x3ee64847	0.44977018
9	0x3ef6ae8e	0.4818005
10	0x3eed421e	0.46339506
11	0x3ee66251	0.44996884
12	0x3ef4f693	0.4784437
13	0x3ed12fc3	0.40856752
14	0x3ed54f6d	0.4166216
15	0x3ef17801	0.47161868
16	0x3ee42429	0.44558838
17	0x3ed698e6	0.41913527
18	0x3efb29a0	0.49055195
19	0x3ec6d6dc	0.388358
20	0x3ef1394c	0.47114027
21	0x3eeb72ff	0.45986173
22	0x3ef4deb0	0.47826147
23	0x3eebab6a	0.46029216
24	0x3ee2039e	0.44143385
25	0x3ecb6d51	0.3973184
26	0x3efad6be	0.4899196
27	0x3ef04d43	0.46933946
28	0x3eda444e	0.42630237
29	0x3eb843dd	0.35989276
30	0x3ee66a3b	0.45002922
31	0x3eee98f8	0.4660108

model.1.bias f4 [32]
0	0x3ce63163	0.028099721
1	0xbea3db13	-0.32003078
2	0x3de35504	0.111002
3	0xbd5c482e	-0.053779773
4	0xbe9f990f	-0.31171462
5	0xbe860552	-0.26175934
6	0x3d9172da	0.07101984
7	0x3e03568c	0.12825984
8	0xbeb858a4	-0.36005127
9	0xbd14b048	-0.036300927
10	0xbeaa7d21	-0.3329859
11	0xbe9dc523	-0.30814466
12	0xbe809fb2	-0.25121838
13	0xbce5263e	-0.027972337
14	0xbe62d3d0	-0.22151113
15	0xbe59b974	-0.21262151
16	0xbe4906c9	-0.19631495
17	0x3d1150be	0.035477392
18	0xbe47c460	-0.19508505
19	0x3d8a6034	0.067566305
20	0xbe29003e	-0.16503999
21	0xbea4b296	-0.321675
22	0xbe2386a2	-0.15969327
23	0xbe875286	-0.26430148
24	0x3dcd532d	0.1002563
25	0x3de89dc1	0.11358214
26	0xbe8e3c3b	-0.27780327
27	0xbe1528a6	-0.14566287
28	0xbe597bbe	-0.2123861
29	0x3d8221b2	0.06354083
30	0x3b4fadb2	0.0031689224
31	0xbdebc032	-0.11511268

model.1.running_mean f4 [32]
0	0x3e8ad6f6	0.27117127
1	0x3e6c4a1d	0.23075147
2	0x3e21c041	0.15795995
3	0x3e620509	0.22072233
4	0x3e094f9b	0.13409273
5	0x3e3dcf18	0.18536031
6	0x3e257eab	0.16161601
7	0x3e4dcd7c	0.20097917
8	0x3eaf5b3f	0.34249303
9	0x3e3abb12	0.18235424
10	0x3dc43021	0.09579492
11	0x3cf5a914	0.02998785
12	0x3e17ba16	0.1481708
13	0x3e8b04c0	0.2715206
14	0x3e4169ff	0.1888809
15	0x3e70383c	0.23458952
16	0x3e2d7796	0.1694015
17	0x3e305dc8	0.17223275
18	0x3e7b1b53	0.24522142
19	0x3e199dae	0.15001556
20	0x3d7af808	0.061271697
21	0x3ec1dcf8	0.37863898
22	0xbd26dece	-0.040739827
23	0x3da5c449	0.08094079
24	0x3db503c6	0.0883861
25	0x3d9b200d	0.075744726
26	0xbba4c3f1	-0.005028241
27	0x3e7efe62	0.24901727
28	0x3e163855	0.14669926
29	0x3e130e39	0.14360894
30	0x3d1ccf74	0.03828378
31	0x3e5aa1ff	0.21350859

model.1.running_var f4 [32]
0	0x3c234fe8	0.009967782
1	0x3c061e9e	0.008186011
2	0x3c0b0698	0.008485459
3	0x3c043fd8	0.008071862
4	0x3c246b75	0.010035385
5	0x3c24e4a8	0.0100642815
6	0x3c16f818	0.009214424
7	0x3bf3a4e5	0.0074354284
8	0x3c514115	0.012771864
9	0x3c5939e8	0.013258435
10	0x3c52adb7	0.0128588
11	0x3c1bcfc1	0.009509982
12	0x3c489049	0.0122414315
13	0x3c2117d0	0.0098323375
14	0x3c0cbd05	0.008589988
15	0x3c2b3086	0.010448581
16	0x3c198488	0.009369977
17	0x3c4fb0b6	0.0126764085
18	0x3c912721	0.017718853
19	0x3c294e83	0.01033366
20	0x3c4700f5	0.012146224
21	0x3c1d6c2d	0.009608311
22	0x3c24d110	0.01005961
23	0x3c119e12	0.008887785
24	0x3c332396	0.010933777
25	0x3c0f3e3e	0.008742867
26	0x3c2fc8d1	0.010729031
27	0x3c3c78e9	0.011503437
28	0x3c0f1b3c	0.0087345205
29	0x3c5cf0c3	0.013485136
30	0x3c2984ec	0.010346632
31	0x3c5df8c1	0.013548077

model.4.weight f4 [2, 32]
0	0x3e5bc818	0.21463048
1	0xbe62a662	-0.22133783
2	0x3e89ee84	0.26939785
3	0x3e5be57c	0.2147426
4	0xbea1aff7	-0.31579563
5	0xbe8e41ab	-0.27784476
6	0x3e86f0e8	0.26355672
7	0x3e656425	0.22401483
8	0xbe92a9e9	-0.28645256
9	0x3e8fcb80	0.28084946
10	0xbe8e8822	-0.27838236
11	0xbe93352a	-0.28751498
12	0xbe75d1ea	-0.24005857
13	0x3e5ca02f	0.2154548
14	0xbe872981	-0.26398852
15	0xbe8c7856	-0.2743556
16	0xbe67bf9b	-0.22631685
17	0x3e728fb2	0.23687628
18	0x3ea07bf5	0.31344572
19	0x3e62bf19	0.2214321
20	0xbe82caac	-0.2554525
21	0xbe880708	-0.26567864
22	0x3e9676cf	0.2938752
23	0xbe92be27	-0.286607
24	0x3e8f70c0	0.2801571
25	0x3e7cea67	0.24698792
26	0xbe9186f3	-0.2842327
27	0x3e96bf7f	0.29442975
28	0xbe5c2edc	-0.2150225
29	0x3e567699	0.20943679
30	0x3e85bae0	0.26119137
31	0x3e8ac95e	0.27106756
32	0xbe5bc7ce	-0.21462938
33	0x3e62a68b	0.22133844
34	0xbe89ee55	-0.26939645
35	0xbe5be51c	-0.21474117
36	0x3ea1afb2	0.31579357
37	0x3e8e41fb	0.27784714
38	0xbe86f115	-0.26355806
39	0xbe6563fe	-0.22401425
40	0x3e92a98b	0.28644976
41	0xbe8fcbf9	-0.28085306
42	0x3e8e8928	0.27839017
43	0x3e9335b4	0.2875191
44	0x3e75d1d3	0.24005823
45	0xbe5ca152	-0.21545914
46	0x3e872973	0.2639881
47	0x3e8c787c	0.27435672
48	0x3e67bcca	0.22630611
49	0xbe72906a	-0.23687902
50	0xbea07bc6	-0.31344432
51	0xbe62bf52	-0.22143295
52	0x3e82cb2b	0.2554563
53	0x3e880685	0.26567474
54	0xbe967698	-0.29387355
55	0x3e92bdc0	0.28660393
56	0xbe8f70c6	-0.28015727
57	0xbe7cea26	-0.24698696
58	0x3e91871e	0.284234
59	0xbe96bf93	-0.29443035
60	0x3e5c2de9	0.21501888
61	0xbe56769b	-0.20943682
62	0xbe85bb83	-0.26119623
63	0xbe8ac99a	-0.27106935

model.4.bias f4 [2]
0	0x3e7ee124	0.24890572
1	0xbe826f44	-0.25475514
