trained_models/run11.pth (torch, 135403 bytes, 8 tensors)

model.0.weight f4 [32, 1024]
0.11940951 0.023900738 0.18280426 -0.10205796 0.07436184 0.17587687 0.0147634065 0.00019814378
0.12469087 0.0130403545 0.20425281 0.124960676 0.049282923 0.14974947 0.25390282 -0.18411167
-0.005387448 -0.17820778 -0.025280284 -0.066538654 0.024124904 -0.04162479 -0.022825448 -0.0059255143
0.21432355 0.014482863 0.10331802 -0.11750321 0.10129855 -0.14009297 0.17800356 -0.06893194
0.1275459 -0.10670201 -0.19881405 -0.0892751 0.09063647 -0.021058729 -0.06689886 -0.14543149
0.056657646 -0.0900677 -0.11108388 0.023999944 -0.12535532 0.11150465 0.072703324 0.048766334
0.017115382 0.13042718 -0.057607573 -0.12266974 0.06761414 0.29094285 -0.17576367 0.018554358
-0.17844096 -0.027873544 0.026097666 0.05281703 0.11139957 0.07642212 0.054895695 0.04677865
-0.017813876 0.15115346 0.11418259 0.053835407 -0.06017236 -0.05006206 0.20940512 0.18859783
0.21719117 0.26187935 -0.3805564 -0.019964712 -0.057311684 0.048245028 -0.19852614 0.27260602
0.07067365 -0.022311931 -0.14784291 -0.15835714 0.10557068 0.077941805 -0.0018265266 -0.23256354
-0.0013585218 0.09453577 -0.17464958 0.0057592364 0.24726814 -0.14909399 -0.1193865 -0.14891826
0.063515015 0.10539944 0.14445989 -0.3256882 0.048761077 0.0150718 0.10704088 -0.1002463
0.0429232 -0.105868146 -0.037065268 -0.0008504543 -0.21893892 -0.17841262 0.08617657 -0.3789321
-0.119618304 0.13071011 -0.06692637 -0.039887927 0.109516904 -0.106748566 0.00083245157 0.19607484
-0.0032697832 -0.065243766 -0.068544365 0.023175078 0.11271876 0.153692 0.24529172 0.17588186
0.13540184 -0.13158844 0.13946505 0.068877086 0.07135219 0.03654991 0.057759874 -0.11258764
-0.16058637 -0.19276737 0.054025766 -0.16272646 -0.05594083 -0.1450536 -0.063340135 -0.009507847
0.12430645 -0.14831848 -0.3109081 -0.022467697 0.15740137 0.054327596 -0.039454445 -0.01610927
-0.0020465527 0.121588334 -0.017677398 -0.13570273 0.27102372 0.046426248 -0.038265042 -0.023205044
0.06224687 -0.14477304 0.03195682 -0.30243313 0.20430145 -0.143428 0.02708669 -0.21412061
-0.1457395 -0.038886312 0.02127696 -0.05021775 0.03714471 -0.21083854 -0.01769269 -0.19458856
-0.15236011 -0.034789775 0.11262326 -0.003584159 0.04247332 0.04714369 -0.057896618 0.11516069
-0.01303717 -0.029853603 0.08829713 -0.1347475 -0.08761516 -0.06282986 -0.16545784 -0.03734361
-0.036308166 0.037658297 0.10921398 -0.31565773 -0.00057429506 0.04995593 0.33324316 -0.055903636
0.17994696 -0.024098268 0.020813962 -0.011710028 -0.18694021 0.021649197 -0.07439867 0.040120315
0.12250951 -0.02109736 -0.01840396 0.27295056 0.0196465 -0.16215536 -0.04120071 -0.06946975
0.062225644 0.04495425 0.029869385 0.14351256 -0.0615452 0.022288842 0.13110171 -0.26358068
-0.029192721 0.20797217 0.058998328 -0.011744874 -0.22825484 -0.11039911 -0.30730912 0.12749848
-0.29651108 -0.08828932 0.018543873 0.02865607 0.06582395 -0.044971775 -0.05023363 0.07210291
-0.09032687 0.045046646 0.08858352 0.34407777 0.13277054 -0.068742596 -0.06309448 -0.07522551
-0.078659326 -0.0075406693 -0.032703485 -0.16482311 -0.061825603 -0.00089426804 -0.08406536 -0.115506835
00000000: f98c f43d 7bcb c33c 0a31 3b3e c403 d1bd
00000010: 054b 983d 1119 343e 37e2 713c d1c4 4f39
00000020: ed5d ff3d 36a7 553c a627 513e 62eb ff3d
00000030: e4dc 493d ed57 193e 8dff 813e c587 3cbe
00000040: 3089 b0bb 1a7c 36be 9918 cfbc 6b45 88bd
00000050: 97a1 c53c c17e 2abd 6ffc babc d12a c2bb
00000060: a277 5b3e 8849 6d3c 6698 d33d 86a5 f0bd
00000070: 9d75 cf3d 8874 0fbe 9146 363e 302c 8dbd
00000080: 649b 023e 9586 dabd e995 4bbe ddd5 b6bd
00000090: 9d9f b93d 5b83 acbc 4502 89bd feeb 14be
000000a0: d911 683d 6a75 b8bd f27f e3bd 889b c43c
000000b0: 255d 00be 8d5c e43d 7be5 943d 35bf 473d
000000c0: 8f35 8c3c b48e 053e ebf5 6bbd 463a fbbd
000000d0: 4879 8a3d 76f6 943e 64fb 33be 4fff 973c
000000e0: 3ab9 36be 0f57 e4bc c6ca d53c ac56 583d
000000f0: 7525 e43d 3383 9c3d 4fda 603d f89a 3f3d
00000100: 68ee 91bc f9c7 1a3e 90d8 e93d 8482 5c3d
00000110: 4b77 76bd e00d 4dbd 4c6e 563e ca1f 413e
00000120: 5d67 5e3e 0d15 863e 4ad8 c2be 098d a3bc
00000130: a8bf 6abd 949c 453d 704a 4bbe 0493 8b3e
00000140: 59bd 903d 83c7 b6bc 2264 17be 6028 22be
00000150: 7135 d83d f49f 9f3d 1068 efba 2325 6ebe
00000160: 6d10 b2ba f89b c13d 57d7 32be fab7 bc3b
00000170: dc33 7d3e 18ac 18be e980 f4bd 077e 18be
00000180: 2914 823d a9db d73d 4bed 133e 9bc0 a6be
00000190: b2b9 473d b6ef 763c 4038 db3d ef4d cdbd
000001a0: 3dd0 2f3d 66d1 d8bd c0d1 17bd 06f1 5eba
000001b0: 8631 60be ccb1 36be 577d b03d 6303 c2be
000001c0: 71fa f4bd dfd8 053e b110 89bd 8661 23bd
000001d0: 664a e03d fe9e dabd e138 5a3a d8c7 483e
000001e0: dc49 56bb 869e 85bd fd60 8cbd a9d9 bd3c
000001f0: 18d9 e63d 7061 1d3e c12d 7b3e 601a 343e
00000200: c8a6 0a3e 1fbf 06be edcf 0e3e 6e0f 8d3d
00000210: 1921 923d 5cb5 153d 9e95 6c3d 5994 e6bd
00000220: c170 24be cf64 45be 1f4a 5d3d c4a1 26be
00000230: 3622 65bd ee88 14be 79b8 81bd cdc6 1bbc
00000240: 6194 fe3d cde0 17be 592f 9fbe 2d0e b8bc
00000250: d32d 213e 9d86 5e3d fc9a 21bd 96f7 83bc
00000260: 751f 06bb 4e03 f93d 31d0 90bc a8f5 0abe
00000270: 9fc3 8a3e 7329 3e3d cebb 1cbd 8118 bebc
00000280: 93f6 7e3d 623f 14be 28e5 023d 84d8 9abe
00000290: 6634 513e cade 12be e8e4 dd3c 6f42 5bbe
000002a0: bc3c 15be 4147 1fbd 054d ae3c 21b1 4dbd
000002b0: 0d25 183d 0fe6 57be 43f0 90bc 3942 47be
000002c0: 4a04 1cbe b97f 0ebd 06a7 e63d 36e4 6abb
000002d0: 81f8 2d3d be19 413d 0125 6dbd 5ed9 eb3d
000002e0: db99 55bc 8b8f f4bc 20d5 b43d 40fb 09be
000002f0: 946f b3bd f1ac 80bd c86d 29be 9df5 18bd
00000300: dfb7 14bd 963f 1a3d 94ab df3d e49d a1be
00000310: 4a8c 16ba 979e 4c3d d99e aa3e 36fb 64bd
00000320: 0444 383e bb69 c5bc 0b82 aa3c 6bdb 3fbc
00000330: 416d 3fbe a859 b13c 545e 98bd 3355 243d
00000340: 44e6 fa3d 5fd4 acbc e7c3 96bc 2dc0 8b3e
00000350: b2f1 a03c 0e0c 26be 13c2 28bd 2846 8ebd
00000360: 51e0 7e3d f321 383d a4b0 f43c f5f4 123e
00000370: d216 7cbd 1797 b63c 873f 063e 0cf4 86be
00000380: 9325 efbc a8f6 543e 3ba8 713d 926d 40bc
00000390: a3bb 69be ee18 e2bd 9f57 9dbe f68e 023e
000003a0: 4dd0 97be 08d1 b4bd 52e9 973c 22c0 ea3c
000003b0: b5ce 863d 5334 38bd c7c1 4dbd b1aa 933d
000003c0: 4bfd b8bd d582 383d 476b b53d f62a b03e
000003d0: 00f5 073e ebc8 8cbd ae37 81bd d50f 9abd
000003e0: 2418 a1bd b817 f7bb 17f4 05bd 64c7 28be
000003f0: d83c 7dbd 506d 6aba 762a acbd d98e ecbd

model.0.bias f4 [32]
0.38568676 -0.04852019 0.45143053 -0.1276931 -0.14887732 0.30347958 0.093031526 0.18339273
-0.18734528 0.21695556 -0.16820322 -0.13165128 -0.116809644 0.22596215 -0.0932992 -0.2811648
-0.18062018 -0.12500766 -0.01864496 0.35911494 -0.10518859 -0.31180507 0.34911042 -0.13055578
-0.14291222 0.18515325 -0.1911614 0.19647117 0.22043566 0.25521445 0.18831219 0.24562378
00000000: bc78 c53e 1bbd 46bd e721 e73e fbc1 02be
00000010: 4c73 18be ad61 9b3e 5087 be3d 4ecb 3b3e
00000020: 71d7 3fbe 9929 5e3e 773d 2cbe 98cf 06be
00000030: e539 efbd 9f62 673e a713 bfbd d5f4 8fbe
00000040: 7ff4 38be 0202 00be 51bd 98bc eadd b73e
00000050: 1e6d d7bd eaa4 9fbe 9abe b23e 6ab0 05be
00000060: 9557 12be d098 3d3e d0bf 43be bd2f 493e
00000070: e3b9 613e 78ab 823e e9d4 403e cd84 7b3e

model.1.weight f4 [32]
2.1566188 1.8831202 2.3243575 1.8215975 1.8365092 1.9953609 2.1750686 2.129368
1.6942488 2.3644307 1.5417291 1.7976767 1.6910547 2.0939398 1.8048148 1.6698484
1.732997 1.6831009 1.7914802 1.8742326 1.80459 1.7904965 2.012212 1.8020397
1.9108065 2.2953084 1.7816956 1.9596083 2.2514234 2.2989717 1.9342811 2.094151
00000000: 0b06 0a40 150a f13f 46c2 1440 1b2a e93f
00000010: bc12 eb3f fc67 ff3f 5334 0b40 9147 0840
00000020: 25dd d83f d552 1740 6157 c53f 451a e63f
00000030: 7b74 d83f 1c03 0640 2c04 e73f 98bd d53f
00000040: d8d2 dd3f da6f d73f 394f e53f dbe6 ef3f
00000050: cefc e63f fd2e e53f 15c8 0040 3da9 e63f
00000060: 4f95 f43f 55e6 1240 9a0e e43f 72d4 fa3f
00000070: 5217 1040 5a22 1340 8696 f73f 9206 0640

model.1.bias f4 [32]
-0.06643921 -0.39737326 -0.15163627 -0.36430618 -0.3048008 -0.27447784 -0.2360779 -0.20491701
-0.32142645 -0.10697306 -0.2620776 -0.3742653 -0.35068697 -0.22558887 -0.2695011 -0.25224757
-0.40904677 -0.36579585 -0.26436618 -0.036827717 -0.39593592 -0.39982155 -0.062135965 -0.25918564
-0.4389781 -0.09156434 -0.29297227 -0.27029753 -0.2829486 -0.2173479 -0.16165848 -0.16248271
00000000: 4811 88bd 8274 cbbe 8a46 1bbe 5786 babe
00000010: da0e 9cbe 5c88 8cbe 68be 71be c4d5 51be
00000020: 0292 a4be b114 dbbd 092f 86be b49f bfbe
00000030: 3e8d b3be c500 67be 0cfc 89be 9826 81be
00000040: 946e d1be 9849 bbbe 015b 87be a9d8 16bd
00000050: 1db8 cabe 69b5 ccbe 4882 7ebd fbb3 84be
00000060: bdc1 e0be 1686 bbbd 7600 96be 7064 8abe
00000070: a4de 90be 7390 5ebe cd89 25be de61 26be

model.1.running_mean f4 [32]
0.3585108 -0.11502542 0.46799937 -0.11562973 0.062108282 0.28140634 0.14631195 0.3809156
-0.17559107 0.15917507 -0.1115943 -0.069537915 -0.11909072 0.23094943 -0.112138055 -0.18175185
-0.14750981 -0.065353036 -0.1232518 0.47213805 -0.08809966 -0.10565228 0.22568929 -0.029456018
-0.19896975 0.31024325 -0.119437024 0.06346453 0.2574303 0.23564424 0.039368004 0.2408062
00000000: ba8e b73e 7392 ebbd 9d9d ef3e 48cf ecbd
00000010: 4165 7e3d 7e14 903e cdd2 153e 5f07 c33e
00000020: 25ce 33be cafe 223e 8d8b e4bd e569 8ebd
00000030: d6e5 f3bd 027e 6c3e a3a8 e5bd 281d 3abe
00000040: d00c 17be d0d7 85bd 716b fcbd 14bc f13e
00000050: 986d b4bd 3960 d8bd 181b 673e bf4d f1bc
00000060: babe 4bbe 34d8 9e3e 669b f4bd b1f9 813d
00000070: e7cd 833e b94c 713e 5840 213d e795 763e

model.1.running_var f4 [32]
0.005394187 0.00448736 0.004993676 0.0032008654 0.004227894 0.004426978 0.004632342 0.004456149
0.003794133 0.004343309 0.0038321377 0.003497006 0.0038214987 0.0040067467 0.0044304067 0.0026408837
0.0038622012 0.0048194434 0.0055645197 0.0030290643 0.0035980956 0.0038053105 0.006444508 0.00356626
0.0031336974 0.0046755937 0.003905676 0.0042150216 0.003644783 0.0037351348 0.0035908814 0.0041088974
00000000: b8c1 b03b b40a 933b fea1 a33b 9cc5 513b
00000010: 258a 8a3b 2f10 913b e7ca 973b e304 923b
00000020: fda6 783b 5152 8e3b 9a24 7b3b 062e 653b
00000030: 1c72 7a3b 074b 833b f22c 913b ad12 2d3b
00000040: fc1c 7d3b 6cec 9d3b 9356 b63b 4483 463b
00000050: 07ce 6b3b 8462 793b 742c d33b eab7 693b
00000060: b85e 4d3b b935 993b 5ff6 7f3b 2a1e 8a3b
00000070: 50dd 6e3b 2ac9 743b fe54 6b3b eea3 863b

model.4.weight f4 [2, 32]
1.1549418 -0.9214148 1.182973 -0.81056297 -0.9051651 1.0325577 0.94727075 0.96296793
-0.84647775 1.0317572 -0.6153816 -0.80744874 -0.8836949 0.90217745 -1.011164 -0.8347998
-0.92767197 -0.7986997 -0.8102999 0.8618918 -0.84717655 -0.9686539 1.0259979 -0.8974175
-1.0415014 1.0927107 -0.82990754 0.9269619 1.0592116 1.016246 0.63802224 0.9605295
-0.96685874 1.0074471 -1.1098056 0.92669904 0.79669636 -0.9276787 -1.124731 -0.95031625
0.7102019 -1.2598754 0.74104077 0.9124696 0.8303642 -1.1082394 1.0022551 0.86629647
0.7555775 0.66340154 0.94808733 -0.8917694 1.0236578 0.7571011 -0.959204 0.787392
1.018112 -1.0308397 0.88737357 -1.0500461 -1.1193651 -1.0354123 -0.92653537 -1.0915011
00000000: 22d5 933f d7e1 6bbf a96b 973f 0e81 4fbf
00000010: e6b8 67bf da2a 843f 5680 723f 1185 763f
00000020: c4b2 58bf 9f10 843f a689 1dbf f6b4 4ebf
00000030: d439 62bf 1af5 663f d26d 81bf 71b5 55bf
00000040: e97b 6dbf 9577 4cbf d06f 4fbf f1a4 5c3f
00000050: 90e0 58bf b4f9 77bf e653 833f 27bd 65bf
00000060: eb4f 85bf f2dd 8b3f d274 54bf 604d 6d3f
00000070: 3f94 873f 5914 823f 6d55 233f 43e5 753f
00000080: 0e84 77bf 07f4 803f 1c0e 8ebf 263c 6d3f
00000090: 4bf4 4b3f 5a7c 6dbf 2ff7 8fbf ed47 73bf
000000a0: cbcf 353f 9943 a1bf d9b4 3d3f 9c97 693f
000000b0: c092 543f cada 8dbf e549 803f 9bc5 5d3f
000000c0: 876d 413f afd4 293f dab5 723f 004b 64bf
000000d0: 3807 833f 61d1 413f 658e 75bf 8692 493f
000000e0: 7e51 823f 8ef2 83bf ea2a 633f e967 86bf
000000f0: 5b47 8fbf 6488 84bf 6c31 6dbf 4fb6 8bbf

model.4.bias f4 [2]
0.07597504 -0.20140798
00000000: cd98 9b3d e53d 4ebe
