trained_models/run15.pth (torch, 135403 bytes, 8 tensors)

model.0.weight f4 [32, 1024]
-0.20929125 -0.0020759478 0.20229048 0.015045389 -0.09087518 -0.05639893 0.14744085 0.04548682
-0.04613057 0.04563658 -0.2180524 -0.020618793 0.08252781 0.02547027 0.12971549 -0.07560433
0.033158362 -0.10331963 -0.005292166 0.054711934 0.017043144 -0.05561388 -0.09861456 0.04956393
0.11868152 -0.08151743 -0.01625649 -0.077624016 -0.021072393 -0.11336517 -0.042218275 0.042695656
-0.06884507 -0.022348937 0.05681826 -0.009461636 0.027191084 -0.03479175 -0.14926782 -0.009059237
0.012962464 -0.043344866 0.050733022 -0.046847206 0.11684577 -0.0036932991 -0.04569171 0.028200407
0.18289666 0.1032554 0.033255026 -0.05396485 0.002156383 -0.092377685 0.024511183 -0.0016482524
-0.051133897 -0.0940201 -0.092731744 0.2268583 0.13194811 0.11688168 -0.049261108 -0.007359031
-0.09969036 -0.20591356 -0.0073827202 0.024725929 -0.023642208 -0.14221343 0.098006345 -0.022397915
-0.043162633 0.022767961 -0.053954363 -0.048434265 0.03301026 -0.15827572 -0.12115161 0.042634144
0.2904706 -0.119877584 0.0225676 -0.14531232 0.0736166 0.058865506 0.06822845 -0.090647645
0.013752504 -0.07844235 0.006492191 0.18945184 -0.009516886 -0.14454249 -0.04091965 0.09036181
0.009190453 -0.10464838 -0.10591097 0.054701705 -0.022396544 0.012219657 0.001130752 0.07348926
0.0281412 0.0365851 0.06447076 0.042843003 -0.025455346 -0.054825574 0.015551442 0.07179466
0.0062296586 -0.055707544 -0.0522203 0.22086166 -0.05178019 0.00397854 0.02578838 0.058752596
0.08359234 0.008383687 -0.06373846 -0.009089533 0.15543333 0.094806276 0.07167259 -0.07372748
0.058460675 -0.05807759 0.09296376 -0.18245947 0.037442487 0.03303707 -0.04172927 -0.08822793
0.09459743 -0.11857424 -0.16689596 0.055549238 0.13288085 -0.019739108 0.03150151 0.002783643
0.0663046 -0.054446116 -0.022747574 -0.079240195 0.04453072 0.037234027 -0.036078323 0.06994988
0.038561765 -0.13645454 0.10275791 0.0825276 0.08616765 -0.044014107 0.09349209 -0.061988637
0.003062401 0.06819018 0.014201657 0.06878258 0.016738888 -0.091767564 0.0002108214 -0.07397403
-0.10619761 0.0514054 0.07108172 -0.15698177 -0.12383583 -0.10409734 0.0652749 -0.08539791
-0.022433855 0.13343827 0.07605644 -0.031357277 0.1332608 -0.034621447 0.103467815 0.008622776
-0.0057799416 -0.045966417 0.049505547 0.067625254 0.1079053 0.059187654 0.016942643 0.08963945
-0.012873698 0.08119714 0.06304398 -0.05713265 0.17820954 0.094887264 0.07411711 0.08170501
0.071553156 0.02873852 -0.111951746 -0.1344932 -0.022498006 0.0058365404 0.08632014 0.02373465
0.07098265 0.02504198 0.106545545 0.016689356 -0.13806222 0.005705005 -0.06943235 -0.022489956
-0.07196173 0.07575478 0.018108718 0.05293597 -0.07350643 -0.017413545 0.028658101 0.03855128
-0.0058829086 0.039169215 0.0424241 -0.121868014 -0.08300615 -0.013982192 0.008807476 0.010416795
-0.06072708 -0.036035664 -0.14529064 0.010044575 -0.08462024 -0.1038108 -0.06101355 0.017939324
-0.026607199 0.060040604 -0.0058197444 0.08873739 -0.008884644 0.022300791 -0.013328828 0.11500105
0.08145737 -0.06399211 0.060658887 -0.05846635 -0.0132933445 0.066026464 -0.020157915 -0.030679278
00000000: 7250 56be a00c 08bb 3c25 4f3e ef80 763c
00000010: c41c babd 9002 67bd bcfa 163e 6350 3a3d
00000020: 69f3 3cbd 6ced 3a3d 2149 5fbe bee8 a8bc
00000030: 5704 a93d 07a7 d03c 23d4 043e 71d6 9abd
00000040: 10d1 073d 3e99 d3bd e869 adbb 9f19 603d
00000050: 109e 8b3c 61cb 63bd 6ef6 c9bd 8c03 4b3d
00000060: 4c0f f33d 9cf2 a6bd 552c 85bc 57f9 9ebd
00000070: 03a0 acbc 002c e8bd 12ed 2cbd a4e1 2e3d
00000080: a5fe 8cbd 1e15 b7bc 44ba 683d fa04 1bbc
00000090: d6bf de3c cb81 0ebd aad9 18be 326d 14bc
000000a0: 8460 543c 638a 31bd 6ecd 4f3d dbe2 3fbd
000000b0: d64c ef3d 470b 72bb 3b27 3bbd 8a04 e73c
000000c0: 4349 3b3e 9177 d33d 6c36 083d 3f0a 5dbd
000000d0: 1a52 0d3b 8330 bdbd adcb c83c 2c0a d8ba
000000e0: c771 51bd 9c8d c0bd 24ea bdbd 8b4d 683e
000000f0: 681d 073e aa5f ef3d 04c6 49bd 0724 f1bb
00000100: 762a ccbd 01db 52be bfea f1bb 088e ca3c
00000110: 4ead c1bc 66a0 11be 8db7 c83d d57b b7bc
00000120: 4dcb 30bd e083 ba3c 40ff 5cbd 0263 46bd
00000130: c435 073d 0813 22be 561e f8bd 24a1 2e3d
00000140: 90b8 943e 6182 f5bd b0df b83c c1cc 14be
00000150: 4dc4 963d f51c 713d 5cbb 8b3d 79a5 b9bd
00000160: 2f52 613c 62a6 a0bd 72bc d43b aaff 413e
00000170: b7ec 1bbc f202 14be 5d9b 27bd 9d0f b93d
00000180: 8e93 163c e451 d6bd dae7 d8bd e50e 603d
00000190: f578 b7bc f534 483c be35 943a 8a81 963d
000001a0: 6088 e63c 42da 153d 3f09 843d 257c 2f3d
000001b0: bb87 d0bc c890 60bd 7acb 7e3c 1409 933d
000001c0: 2a22 cc3b 982d 64bd f4e4 55bd 8f29 623e
000001d0: 7717 54bd 6a5e 823b 2742 d33c 90a6 703d
000001e0: 7632 ab3d bb5b 093c 4f89 82bd 44ec 14bc
000001f0: ea29 1f3e cb29 c23d 14c9 923d 6ffe 96bd
00000200: 7674 6f3d c4e2 6dbd c963 be3d a8d6 3abe
00000210: 4b5d 193d e151 073d 50ec 2abd d8b0 b4bd
00000220: 4cbc c13d 0dd7 f2bd c6e6 2abe 9987 633d
00000230: eb11 083e e9b3 a1bc ba07 013d c86d 363b
00000240: b5ca 873d e402 5fbd 1f59 babc af48 a2bd
00000250: d865 363d b582 183d ddc6 13bd e241 8f3d
00000260: f1f2 1d3d bdba 0bbe bd72 d23d 3b04 a93d
00000270: aa78 b03d 2348 34bd c878 bf3d cce7 7dbd
00000280: 90b2 483b 4ba7 8b3d 11ae 683c e2dd 8c3d
00000290: fe1f 893c a2f0 bbbd f00f 5d39 b27f 97bd
000002a0: 227e d9bd 788e 523d 4b93 913d d4bf 20be
000002b0: a49d fdbd fc30 d5bd d9ae 853d 19e5 aebd
000002c0: 34c7 b7bc 0ba4 083e 7bc3 9b3d 7d70 00bd
000002d0: 8575 083e 38cf 0dbd efe6 d33d 8b46 0d3c
000002e0: aa65 bdbb 4847 3cbd 54c6 4a3d 1c7f 8a3d
000002f0: 74fd dc3d c16e 723d 4ccb 8a3c e394 b73d
00000300: 34ec 52bc b04a a63d 341d 813d ed03 6abd
00000310: 907c 363e 4154 c23d b6ca 973d f554 a73d
00000320: 768a 923d 0b6d eb3c f546 e5bd 96b8 09be
00000330: bd4d b8bc 7340 bf3b 9dc8 b03d 2b6f c23c
00000340: 5a5f 913d d724 cd3c 8d34 da3d 1eb8 883c
00000350: 2f60 0dbe 0df1 ba3b 8c32 8ebd db3c b8bc
00000360: ac60 93bd 5225 9b3d bc58 943c 63d3 583d
00000370: 8a8a 96bd daa6 8ebc 65c4 ea3c f2e7 1d3d
00000380: 6ac5 c0bb e66f 203d e5c4 2d3d f095 f9bd
00000390: 21ff a9bd 9015 65bc 3b4d 103c 34ab 2a3c
000003a0: f5bc 78bd 229a 13bd 12c7 14be 0092 243c
000003b0: 604d adbd c29a d4bd 58e9 79bd 7df5 923c
000003c0: 57f7 d9bc 23ed 753d 8eb3 bebb f3bb b53d
000003d0: e690 11bc 26b0 b63c 2861 5abc ac85 eb3d
000003e0: 1fd3 a63d 4c0e 83bd 7475 783d 697a 6fbd
000003f0: 54cc 59bc e238 873d 3622 a5bc 1c53 fbbc

model.0.bias f4 [32]
-0.00015634095 -1.144108e-05 -0.00018838447 -0.0007103952 0.00010958162 -6.3236716e-05 -0.00014436031 3.494251e-05
-6.531732e-05 0.00021645252 -0.0003637118 -9.2738366e-05 -0.000111111956 3.9376875e-05 0.00035417592 0.000438718
0.000111562025 3.6805497e-05 0.00041243073 9.4619e-06 -0.00014032313 0.00012023708 -0.000377069 -0.00013782388
-0.000109369386 0.00019896825 7.538349e-05 -0.00018957433 -0.00019363806 0.00019029273 -5.4771765e-05 3.9522798e-05
00000000: 74ef 23b9 10f3 3fb7 1289 45b9 d139 3aba
00000010: 2fcf e538 f49d 84b8 6d5f 17b9 3c8f 1238
00000020: f8fa 88b8 88f7 6239 92b0 beb9 887c c2b8
00000030: c704 e9b8 9928 2538 b0b0 b939 bc03 e639
00000040: 68f6 e938 9a5f 1a38 843b d839 8dbe 1e37
00000050: b423 13b9 ca27 fc38 58b1 c5b9 d184 10b9
00000060: 3e5d e5b8 22a2 5039 3417 9e38 79c8 46b9
00000070: 520b 4bb9 5189 4739 bcba 65b8 48c5 2538

model.1.weight f4 [32]
0.45412582 0.4270608 0.424505 0.41561785 0.3914861 0.39108744 0.42087042 0.37369418
0.4162918 0.40568718 0.36845142 0.4399521 0.4975672 0.37256503 0.47432798 0.4803678
0.47583926 0.48881468 0.47061604 0.46176654 0.45043248 0.49970582 0.46000132 0.41471705
0.47679192 0.4214902 0.4593259 0.3585852 0.52936953 0.4365686 0.46821374 0.41536203
00000000: 2e83 e83e b7a7 da3e b858 d93e ddcb d43e
00000010: de70 c83e 9d3c c83e 547c d73e d854 bf3e
00000020: 3324 d53e 3bb6 cf3e aaa5 bc3e 6741 e13e
00000030: 21c1 fe3e d8c0 be3e 1edb f23e c5f2 f53e
00000040: 34a1 f33e eb45 fa3e 96f4 f03e aa6c ec3e
00000050: 169f e63e 71d9 ff3e 4b85 eb3e cb55 d43e
00000060: 121e f43e 90cd d73e c42c eb3e 7b98 b73e
00000070: c384 073f eb85 df3e b6b9 ef3e 55aa d43e

model.1.bias f4 [32]
-0.007740055 -0.34730807 -0.0138788875 0.14514257 -0.35137403 -0.020080969 -0.0046371664 0.12298418
-0.36109048 0.08348577 0.09383382 -0.26252314 -0.21500652 0.024842776 -0.1395791 -0.40195164
-0.40578562 -0.2291301 -0.22032374 -0.066456184 -0.3426166 -0.22781362 -0.021839434 -0.040108364
0.057380844 -0.08624133 -0.35096925 0.07586046 -0.0032079192 0.057777815 -0.05660331 0.055424567
00000000: 4aa0 fdbb 5dd2 b1be 4664 63bc 41a0 143e
00000010: 4ce7 b3be d880 a4bc 5ff3 97bb 21df fb3d
00000020: dae0 b8be 96fa aa3d f22b c03d 6f69 86be
00000030: ab2a 5cbe 1483 cb3c d3ed 0ebe 9bcc cdbe
00000040: 22c3 cfbe 15a1 6abe 8c9c 61be 2e1a 88bd
00000050: 716b afbe f947 69be 9de8 b2bc ab48 24bd
00000060: 2d08 6b3d 4b9f b0bd 3eb2 b3be bb5c 9b3d
00000070: f43b 52bb 6ea8 6c3d dfd8 67bd df04 633d

model.1.running_mean f4 [32]
0.22562404 0.042817228 -0.014217144 0.08164986 0.14179492 0.12518458 0.013103151 0.1815736
0.094082534 0.06695942 0.20738347 0.099362046 0.085846335 0.15824592 0.05782873 0.30868295
0.13275619 0.16946559 0.22904606 0.19805558 0.27178162 0.07553025 0.28182814 0.31785035
0.28456956 -0.04174489 0.23973212 0.06882159 -0.042443726 0.11168919 0.12616108 0.23805048
00000000: fd09 673e 1e61 2f3d 06ef 68bc 0b38 a73d
00000010: b032 113e 6330 003e 99ae 563c 6eee 393e
00000020: 58ae c03d 0522 893d 555c 543e 547e cb3d
00000030: 34d0 af3d 380b 223e d2dd 6c3d b10b 9e3e
00000040: 3df1 073e 6388 2d3e 0d8b 6a3e 15cf 4a3e
00000050: f626 8b3e 9baf 9a3d c74b 903e 48bd a23e
00000060: 1ab3 913e b1fc 2abd 567c 753e 55f2 8c3d
00000070: 79d9 2dbd 4dbd e43d 5f30 013e 81c3 733e

model.1.running_var f4 [32]
0.012682949 0.011376098 0.011146098 0.010376163 0.007883689 0.014854071 0.01238056 0.017268699
0.011930152 0.011534515 0.012000866 0.010970314 0.012245475 0.010326247 0.013109005 0.010823759
0.012842974 0.00819447 0.011775461 0.0158646 0.011693006 0.009908885 0.011345223 0.018760432
0.010893971 0.008488037 0.010229856 0.01566841 0.009499976 0.009308213 0.011775005 0.008611062
00000000: 25cc 4f3c d062 3a3c 209e 363c c800 2a3c
00000010: 972a 013c 7d5e 733c d5d7 4a3c 1677 8d3c
00000020: af76 433c 43fb 3c3c 489f 443c d5bc 333c
00000030: 3fa1 483c 6b2f 293c 27c7 563c 2356 313c
00000040: 566b 523c 1942 063c dded 403c 7af6 813c
00000050: 0694 3f3c e058 223c 50e1 393c 7aaf 993c
00000060: a07c 323c 6811 0b3c 209b 273c 0a5b 803c
00000070: caa5 1b3c 7a81 183c f3eb 403c 6915 0d3c

model.4.weight f4 [2, 32]
0.26087922 -0.26039493 0.23515512 0.2707471 -0.23109254 0.20550664 0.23391645 0.2431295
-0.26377854 0.2419472 0.2170959 -0.24342467 -0.29752728 0.20334893 -0.21299143 -0.3780453
-0.35068983 -0.24585444 -0.26307398 0.23078535 -0.23530191 -0.27674556 0.25635278 0.22108339
0.28086907 0.2384097 -0.28580832 0.21119164 0.3298966 0.26413643 0.28213072 0.22800988
-0.2608742 0.2604007 -0.23515286 -0.27074206 0.23108695 -0.20550136 -0.23392238 -0.24312915
0.26377156 -0.2419545 -0.21709187 0.24343626 0.297525 -0.20335592 0.21299092 0.3780463
0.3506868 0.24584456 0.2630931 -0.23078582 0.23530954 0.2767302 -0.25635198 -0.22108623
-0.28086922 -0.23840731 0.28580958 -0.21119364 -0.3298979 -0.26413715 -0.28213662 -0.22801398
00000000: f691 853e 7c52 85be 81cc 703e 5d9f 8a3e
00000010: 86a3 6cbe 5570 523e cb87 6f3e f1f6 783e
00000020: fb0d 87be 02c1 773e 634e 5e3e 5144 79be
00000030: 7f55 98be b43a 503e 6d1a 5abe 278f c1be
00000040: 9e8d b3be 44c1 7bbe a2b1 86be ff52 6c3e
00000050: fcf2 70be 98b1 8dbe ac40 833e af63 623e
00000060: 12ce 8f3e ac21 743e 7855 92be 9f42 583e
00000070: 35e8 a83e e43c 873e 7073 903e 6c7b 693e
00000080: 4e91 85be 3e53 853e e9cb 70be b49e 8abe
00000090: 0fa2 6c3e f36e 52be 5989 6fbe d9f6 78be
000000a0: 110d 873e ecc2 77be 554d 5ebe 5b47 793e
000000b0: 3255 983e 893c 50be 4b1a 5a3e 498f c13e
000000c0: 388d b33e adbe 7b3e 24b4 863e 1e53 6cbe
000000d0: fcf4 703e 95af 8d3e 9140 83be 6e64 62be
000000e0: 17ce 8fbe 0c21 74be a255 923e 2543 58be
000000f0: 61e8 a8be fc3c 87be 3674 90be 7f7c 69be

model.4.bias f4 [2]
0.19204456 -0.19914481
00000000: 54a7 443e 9eec 4bbe
