trained_models/run10.pth (torch, 135403 bytes, 8 tensors)

model.0.weight f4 [32, 1024]
-0.04841291 0.010633714 -0.044588316 0.005022133 -0.09461018 -0.05925712 -0.06407249 0.058356192
0.040305063 -0.011349539 0.09699705 0.054273102 0.067495495 0.0608577 0.09583207 -0.041561376
0.029163826 -0.13671792 -0.023787258 0.10040817 -0.036624834 -0.07058608 -0.08047446 0.013896819
0.06462947 -0.024653425 1.5664744e-05 0.09374452 -0.0012871769 -0.031287324 -0.016215643 0.014613038
0.021487474 -0.09807953 0.010184475 -0.020707898 0.06790789 -0.07891622 -0.15086569 -0.037682395
-0.051629826 -0.09376789 -0.04306613 0.047791805 0.07830694 -0.041243646 0.023847125 -0.054216877
0.07953121 0.10649247 0.009697471 -0.012257484 -0.04371697 0.06912678 -0.058158964 -0.013853183
-0.037626326 -0.06519529 -0.029867258 0.03840373 0.074760176 -0.08746505 0.14382641 -0.009350693
-0.031047678 -0.025445152 0.01772596 0.019152172 0.05349759 0.055707436 0.1350747 0.07615965
0.020833915 0.11900497 -0.24645682 0.02042324 0.051785458 0.06358622 -0.11665707 0.051558387
-0.052822404 0.029745536 0.043945666 -0.010807714 -0.0047646947 0.0441402 0.0026438665 -0.0773909
0.0127625065 -0.15016921 0.005654837 0.074291155 0.005381248 -0.15819336 -0.04881902 0.0127545595
0.087433174 0.020703966 -0.0934516 0.0651131 0.085641064 -0.101203896 0.12992623 0.0550866
-0.043359067 -0.04610143 -0.07425858 0.0036188744 0.055950932 -0.021664672 0.052392315 -0.10016355
-0.024046343 0.03789257 -0.0060467916 -0.02624422 0.034853335 -0.09246907 -0.005278454 0.07459249
0.04921795 -0.02384608 -0.112327896 -0.072180465 -0.040277027 -0.02586789 0.04627874 -0.046249676
0.12812676 -0.051345114 -0.02773656 -0.039965663 0.030916866 0.037066676 -0.0022246737 0.0134202195
-0.08584724 -0.20702225 -0.04220063 0.021581996 0.06277217 -0.029889014 0.07513668 -0.02222598
-0.04070513 -0.043414336 -0.014439917 -0.046391763 0.07548784 0.017975355 0.12782592 -0.042693622
-0.013294634 -0.02258778 -0.11193955 -0.0032163362 0.028452815 0.00982014 -0.13885517 -0.107883975
0.05197315 0.08843808 0.039051626 -0.030023195 0.007953862 -0.051456064 0.033710554 -0.06471343
0.004205917 0.039363872 -0.019616352 0.011430148 0.08758297 -0.058892246 -0.036371954 0.052448288
-0.006834344 -0.0030197068 0.06684663 -0.080300674 -0.0039970446 0.0036548055 0.006863359 -0.0069753067
-0.06858982 0.02411167 -0.063334905 0.0025070081 0.06459014 0.09582788 -0.0152890645 -0.09819251
0.014084532 -0.06491235 -0.0024905223 -0.18171613 0.00038126743 -0.053099122 0.050571665 -0.012587757
0.036791246 -0.05939792 0.15277037 0.14890854 -0.04329953 -0.036362994 -0.03885474 0.063473426
0.09583582 0.026712056 -0.021969266 0.18394804 -0.08296414 0.024731128 0.049211044 0.0231537
0.06501231 0.089889005 0.13619255 0.070385076 -0.0111893155 -0.019904913 0.06849373 0.011446287
-0.10143725 0.027440697 -0.015390144 0.09201203 -0.03206449 -0.007773253 0.0702004 0.02821642
0.094367854 -0.0613427 -0.060813393 -0.05225006 0.07631538 -0.0026956473 0.002035026 0.0067492635
0.077027574 0.10867051 -0.042905502 0.14809777 0.04209687 -0.031667434 -0.005723874 0.07177823
0.06486303 0.041709937 -0.06401932 -0.082047455 -0.07265009 -0.0010117951 0.055260196 0.0505225
00000000: 9e4c 46bd 0739 2e3c 3da2 36bd b490 a43b
00000010: fbc2 c1bd 98b7 72bd 7038 83bd e706 6f3d
00000020: ec16 253d 6bf3 39bc 64a6 c63d 794d 5e3d
00000030: 143b 8a3d ec45 793d 9b43 c43d 433c 2abd
00000040: fae8 ee3c c8ff 0bbe 7fdd c2bc cca2 cd3d
00000050: ec03 16bd 6f8f 90bd cbcf a4bd 7caf 633c
00000060: 755c 843d fbf5 c9bc c867 8337 20fd bf3d
00000070: 7db6 a8ba 2327 00bd abd6 84bc 866b 6f3c
00000080: 8006 b03c ecdd c8bd c9dc 263c 9ca3 a9bc
00000090: 4b13 8b3d d49e a1bd 897c 1abe db58 1abd
000000a0: cc79 53bd 6109 c0bd 1c66 30bd 57c1 433d
000000b0: 645f a03d 19ef 28bd 0c5b c33c 8412 5ebd
000000c0: 42e1 a23d b918 da3d 24e2 1e3c 9dd3 48bc
000000d0: 9110 33bd 5792 8d3d 1838 6ebd 76f8 62bc
000000e0: 101e 1abd 1c85 85bd 2eac f4bc 3b4d 1d3d
000000f0: dd1b 993d e020 b3bd 3b47 133e a633 19bc
00000100: b357 febc 5a72 d0bc 0836 913c 04e5 9c3c
00000110: 4a20 5b3d 7b2d 643d 0651 0a3e 97f9 9b3d
00000120: e3ab aa3c e1b8 f33d 2d5f 7cbe a34e a73c
00000130: fd1c 543d 7e39 823d e7e9 eebd e32e 533d
00000140: 4e5c 58bd e9ac f33c 5f00 343d d712 31bc
00000150: 2821 9cbb 5bcc 343d b844 2d3b 1f7f 9ebd
00000160: d519 513c f5c5 19be 364c b93b f625 983d
00000170: 2e55 b03b 71fd 21be 74f6 47bd 80f8 503c
00000180: 2a10 b33d 5d9b a93c 8d63 bfbd 045a 853d
00000190: 9564 af3d fd43 cfbd 620b 053e 7da2 613d
000001a0: 4799 31bd dad4 3cbd e214 98bd a32a 6d3b
000001b0: ce2c 653d 1c7a b1bc 5399 563d 8c22 cdbd
000001c0: d6fc c4bc 3d35 1b3d 2a24 c6bb 1efe d6bc
000001d0: 5fc2 0e3d 6c60 bdbd e2f6 acbb f3c3 983d
000001e0: c398 493d db58 c3bc 2b0c e6bd 5ad3 93bd
000001f0: 86f9 24bd e6e8 d3bc c78e 3d3d 4d70 3dbd
00000200: a933 033e 414f 52bd c837 e3bc 09b3 23bd
00000210: 5e45 fd3c 3ad3 173d d5cb 11bb 7be0 5b3c
00000220: aed0 afbd a4fd 53be 91da 2cbd bacc b03c
00000230: b28e 803d ced9 f4bc 42e1 993d 4213 b6bc
00000240: 6cba 26bd 3bd3 31bd 6795 6cbc 4a05 3ebd
00000250: 5e99 9a3d 0d41 933c cce4 023e 82df 2ebd
00000260: bdd1 59bc 020a b9bc 9040 e5bd 2bc9 52bb
00000270: e115 e93c a7e4 203c 0d30 0ebe 46f2 dcbd
00000280: cce1 543d 061f b53d 99f4 1f3d 34f3 f5bc
00000290: ea50 023c 98c3 52bd 1414 0a3d 7a88 84bd
000002a0: cad1 893b 033c 213d 79b2 a0bc 8445 3b3c
000002b0: b35e b33d ff38 71bd c2fa 14bd 04d4 563d
000002c0: a2f2 dfbb 46e6 45bb e3e6 883d ae74 a4bd
000002d0: a4f9 82bb 7685 6f3b 07e6 e03b 1d91 e4bb
000002e0: d278 8cbd d685 c53c bbb5 81bd 9e4c 243b
000002f0: d647 843d 6841 c43d fc7e 7abc 2819 c9bd
00000300: cfc2 663c c4f0 84bd 0838 23bb cb13 3abe
00000310: d9e4 c739 777e 59bd 3c24 4f3d e13c 4ebc
00000320: 6bb2 163d 3c4b 73bd d66f 1c3e 7b7b 183e
00000330: d95a 31bd 5df1 14bd 2626 1fbd 5bfe 813d
00000340: 9245 c43d 3ed3 da3c e4f8 b3bc e05c 3c3e
00000350: 1ae9 a9bd ef98 ca3c 8591 493d d4ac bd3c
00000360: 2d25 853d ba17 b83d 0f76 0b3e 0d26 903d
00000370: 6453 37bc a10f a3bc 7146 8c3d 3589 3b3c
00000380: 55be cfbd 50cb e03c f126 7cbc ce70 bc3d
00000390: 0e56 03bd c6b6 febb 3ac5 8f3d 1f26 e73c
000003a0: ef43 c13d 7c42 7bbd 7717 79bd 2904 56bd
000003b0: 3d4b 9c3d 75a9 30bb 125e 053b ed28 dd3b
000003c0: a2c0 9d3d a58e de3d aebd 2fbd f1a6 173e
000003d0: c46d 2c3d b6b5 01bd 568f bbbb 7700 933d
000003e0: e9d6 843d 0ad8 2a3d 901c 83bd 7f08 a8bd
000003f0: 92c9 94bd 369e 84ba 8458 623d aef0 4e3d

model.0.bias f4 [32]
-0.00017287128 -2.9806106e-05 -0.00011866253 -1.6838327e-05 -1.7459054e-06 -0.00012989884 -0.00024892561 6.800967e-05
-5.4753662e-05 0.00012202871 -0.00023465359 6.27802e-05 -0.00020120767 -0.0003259597 0.00016459968 0.00017989206
-0.00017365188 0.0008252064 0.00032406827 0.00018869995 -0.0002758458 -0.00015625032 0.0003055025 7.128809e-05
-0.00013228206 0.00013843324 -0.000102222984 -0.00023649365 -0.00010235811 0.00023373803 0.00016458871 2.920664e-05
00000000: c844 35b9 2008 fab7 76da f8b8 0840 8db7
00000010: da54 eab5 7435 08b9 3b82 82b9 6aa0 8e38
00000020: 4ca7 65b8 aae9 ff38 580d 76b9 dda8 8338
00000030: 46fb 52b9 92e5 aab9 6498 2c39 68a1 3c39
00000040: 5216 36b9 aa52 583a b5e7 a939 c2dd 4539
00000050: 669f 90b9 20d7 23b9 da2b a039 8080 9538
00000060: 32b5 0ab9 6428 1139 8c60 d6b8 48fb 77b9
00000070: 18a9 d6b8 9317 7539 7295 2c39 c800 f537

model.1.weight f4 [32]
0.8086675 0.6609025 0.8200082 0.63963825 0.67464733 0.7959019 0.78466886 0.7956184
0.66629696 0.83786887 0.65039676 0.6281592 0.66106755 0.788535 0.65679276 0.677213
0.62600994 0.64686334 0.67887324 0.82622683 0.63915277 0.6649974 0.8387751 0.6418021
0.6221959 0.8284457 0.65819216 0.80859584 0.78149694 0.8470224 0.81996644 0.8292444
00000000: d504 4f3f e830 293f 0fec 513f 55bf 233f
00000010: b0b5 2c3f 3ac0 4b3f 0fe0 483f a6ad 4b3f
00000020: 7092 2a3f 937e 563f 6780 263f 0bcf 203f
00000030: b93b 293f 6edd 493f 9223 283f d55d 2d3f
00000040: 3042 203f d698 253f a3ca 2d3f 9a83 533f
00000050: 849f 233f 453d 2a3f f7b9 563f 244d 243f
00000060: 3b48 1f3f 0415 543f 487f 283f 2300 4f3f
00000070: 2f10 483f 76d6 583f 52e9 513f 5c49 543f

model.1.bias f4 [32]
-0.29057375 -0.53185743 -0.21893162 -0.52639395 -0.5431434 -0.23304164 -0.22623178 -0.16626418
-0.5778816 -0.2140995 -0.5465199 -0.5799274 -0.5713749 -0.21197015 -0.52093446 -0.5282044
-0.5363204 -0.5292848 -0.5430598 -0.20868468 -0.5348341 -0.5338954 -0.23609626 -0.52591705
-0.5407607 -0.19261396 -0.53174806 -0.23972891 -0.33493322 -0.17353553 -0.17827855 -0.24087314
00000000: 15c6 94be cf27 08bf 9c2f 60be c1c1 06bf
00000010: 720b 0bbf 78a2 6ebe 4ea9 67be 2841 2abe
00000020: 0cf0 13bf e63c 5bbe bae8 0bbf 1f76 14bf
00000030: a045 12bf b40e 59be f65b 05bf 6738 07bf
00000040: 4b4c 09bf 357f 07bf f805 0bbf 70b1 55be
00000050: e3ea 08bf 5ead 08bf 38c3 71be 80a2 06bf
00000060: 4b6f 0abf 983c 45be a420 08bf 7f7b 75be
00000070: 5e7c abbe 4cb3 31be a78e 36be 73a7 76be

model.1.running_mean f4 [32]
0.07540889 0.039021865 0.040813558 0.064824454 0.06774033 0.044663575 0.05645515 0.092317276
0.058912463 0.054917883 0.11977631 -0.04151806 0.055409368 0.11626575 0.08458212 0.037697636
0.07865878 0.06509942 0.10399493 0.0038805592 0.09642297 0.08152263 0.07670869 0.009978217
0.027616585 0.008656375 0.04423778 -0.024185589 0.08927662 0.021901121 0.080469154 0.05634586
00000000: fa6f 9a3d 64d5 1f3d 1e2c 273d afc2 843d
00000010: 71bb 8a3d 27f1 363d 843d 673d d710 bd3d
00000020: 324e 713d 93f1 603d 484d f53d d70e 2abd
00000030: eff4 623d bd1c ee3d 6439 ad3d d668 1a3d
00000040: db17 a13d d852 853d 4bfb d43d fb50 7e3b
00000050: 6879 c53d 56f5 a63d 7219 9d3d ad7b 233c
00000060: 2d3c e23c 78d3 0d3c ad32 353d db20 c6bc
00000070: a9d6 b63d fb69 b33c 03cd a43d ebca 663d

model.1.running_var f4 [32]
0.0010145339 0.00092870614 0.0010942527 0.0010507758 0.0010035478 0.0011392683 0.0011184617 0.0011881782
0.0009636007 0.0014176891 0.0010587393 0.00086001185 0.0010354815 0.0009791615 0.0010917659 0.0011734355
0.00088054355 0.000942458 0.0010391752 0.0015207445 0.000901663 0.0010058621 0.0014512262 0.0008907283
0.0008634903 0.0012813072 0.001047372 0.0011368543 0.00095480017 0.0012291285 0.0012585022 0.0010695664
00000000: 1cfa 843a 6a74 733a 076d 8f3a 2fba 893a
00000010: 7a89 833a 8053 953a 5999 923a a5bc 9b3a
00000020: 269a 7c3a c1d1 b93a 65c5 8a3a 6b72 613a
00000030: feb8 873a 3557 803a 9619 8f3a f6cd 993a
00000040: 47d4 663a 490f 773a ef34 883a b853 c73a
00000050: 945d 6c3a 22d7 833a 1237 be3a c47f 693a
00000060: da5b 623a 89f1 a73a f947 893a 8002 953a
00000070: 8e4b 7a3a b51a a13a 54f4 a43a b130 8c3a

model.4.weight f4 [2, 32]
0.6290093 -0.5702274 0.5870612 -0.5458091 -0.59883547 0.5874586 0.5509895 0.55674064
-0.61218387 0.59775877 -0.56274295 -0.5463197 -0.60327893 0.54978174 -0.5475669 -0.576602
-0.56820565 -0.56891644 -0.5694325 0.6029937 -0.55954796 -0.58423984 0.62159747 -0.5482472
-0.5669436 0.59658206 -0.5647021 0.57877177 0.58836347 0.6068611 0.5721302 0.60757643
-0.60511404 0.58781046 -0.5789444 0.57091093 0.5786091 -0.572119 -0.5763669 -0.5549193
0.58926016 -0.62444603 0.58746403 0.5677801 0.59325284 -0.5789829 0.54591763 0.5821524
0.52966636 0.5381727 0.5960367 -0.6061461 0.59986264 0.545668 -0.61485285 0.5242209
0.56158614 -0.5885421 0.5759364 -0.59260756 -0.59748596 -0.6093051 -0.6092428 -0.62152475
00000000: c106 213f 6cfa 11bf a549 163f 25ba 0bbf
00000010: 484d 19bf b063 163f a60d 0d3f 8e86 0e3f
00000020: 15b8 1cbf b806 193f ec0f 10bf 9cdb 0bbf
00000030: 7d70 1abf 7fbe 0c3f 582d 0cbf 309c 13bf
00000040: ed75 11bf 82a4 11bf 54c6 11bf cc5d 1a3f
00000050: 893e 0fbf be90 15bf 0321 1f3f ee59 0cbf
00000060: 3723 11bf 9ab9 183f 5190 10bf 632a 143f
00000070: fd9e 163f 405b 1b3f 2077 123f 218a 1b3f
00000080: c1e8 1abf bf7a 163f b335 14bf 3827 123f
00000090: ba1f 143f 6476 12bf c88c 13bf 310f 0ebf
000000a0: c1d9 163f b2db 1fbf 0b64 163f 095a 113f
000000b0: 6bdf 173f 3938 14bf 42c1 0b3f f107 153f
000000c0: 3798 073f b0c5 093f dc95 183f 642c 1bbf
000000d0: 9990 193f e6b0 0b3f ff66 1dbf 5733 063f
000000e0: 1cc4 0f3f b2aa 16bf 9170 133f 21b5 17bf
000000f0: d7f4 18bf 6bfb 1bbf 56f7 1bbf 3f1c 1fbf

model.4.bias f4 [2]
0.2993071 -0.38703257
00000000: c83e 993e 2229 c6be
