trained_models/run12.pth (torch, 135403 bytes, 8 tensors)

model.0.weight f4 [32, 1024]
000000 af c2 81 bc cc 97 47 bd 3a 93 8c 3d e8 c8 b3 bc
       -0.015839903 -0.04872875 0.06864019 -0.021946386
000010 d1 5c 22 be a5 eb 15 3d 72 3d c9 3c 50 61 84 3d
       -0.15855719 0.03660168 0.024565432 0.064638734
000020 ae 1d 85 3d 42 ba dc ba e6 b0 b6 bb 61 cb 89 3d
       0.064998016 -0.0016840177 -0.005575287 0.067282446
000030 9f 43 96 3d f7 33 76 3d c3 92 2a 3e 2b 31 95 bd
       0.073371165 0.06010815 0.16657548 -0.07284769
000040 59 2c 57 3c d3 89 0e be 15 a3 75 bc 09 eb 13 3d
       0.013133132 -0.13919763 -0.014992495 0.03611282
000050 4a 96 99 bd 2f 92 a6 3c 78 1d 1a bd 9a fb f7 3c
       -0.074993685 0.020333378 -0.03762576 0.03027134
000060 ea bb d3 3d a6 6b 82 bd 20 45 99 3d 40 b0 78 3a
       0.10338576 -0.063681886 0.07483888 0.00094867125
000070 1d 1e 10 3d 88 8d 50 bd 1e d2 33 bd 1d 6d 40 3c
       0.03518497 -0.050916225 -0.043901555 0.011744765
000080 6a 66 c6 bb 2b 92 eb 3c 8f f4 8c 3d 86 3b 82 3b
       -0.006054689 0.028756222 0.06882583 0.003974381
000090 27 fc 83 3b 19 10 28 bd f9 a6 92 bd 67 ff 89 3d
       0.0040278616 -0.041030977 -0.07160754 0.06738167
0000a0 ab 77 42 bd 57 d6 55 bd 0d e2 09 bc 3e 58 91 bc
       -0.047477406 -0.052206364 -0.008415711 -0.017742272
0000b0 23 03 8c 3d 5a 42 7c bc 8d 01 12 bd 96 db 20 3d
       0.06836536 -0.015396679 -0.03564601 0.039271913
0000c0 78 ad 3c 3d 3b 0b d4 3d c4 4e 91 bd ea b9 d8 bc
       0.04606387 0.103537045 -0.070951015 -0.026455838
0000d0 7b cb e8 bd 0f cf 93 3d 75 62 3d bd 6f 52 7f 3d
       -0.11366936 0.07217228 -0.046236474 0.062334474
0000e0 a6 0b 4c 3c e7 f1 18 bd a4 4a 22 3c 21 24 7b bb
       0.012453949 -0.03734007 0.009905491 -0.0038321095
0000f0 e0 e5 23 3e b5 07 da 3c a8 e5 87 3d f6 84 a2 3c
       0.16005659 0.026615003 0.066356 0.019838791
000100 fd ae 64 bd 51 c0 42 bd fe 34 b1 3d c5 89 34 3d
       -0.055830944 -0.04754669 0.086526856 0.0440767
000110 a8 b6 44 bd 71 5f d0 bd 97 58 91 3d 7c bf 8b 3c
       -0.048025757 -0.10174454 0.07096975 0.01705908
000120 68 6d 78 3d 53 6c 77 3d df 8d f0 bd f2 54 54 bd
       0.060651213 0.06040604 -0.1174581 -0.051838823
000130 19 d5 be 3b de 91 b0 bd d6 8f 28 be 95 a1 c5 3b
       0.005823743 -0.08621572 -0.16461119 0.006031225
000140 ec 60 23 3e 8d 58 27 bb b5 0d a3 3c 13 4a ff bd
       0.15954942 -0.0025534958 0.019903997 -0.124653004
000150 c0 46 36 bd fa ed 67 bb c6 2e 45 3e d6 31 ed bc
       -0.044501066 -0.0035389648 0.19256124 -0.028954428
000160 d7 3a 3b 3c ce ff af bd c4 ae 33 3c e0 4f 22 3d
       0.011427603 -0.08593713 0.01096696 0.039626956
000170 25 38 0d 3e 49 5d a9 bb 00 26 bc bc 8e 45 5f bd
       0.13790949 -0.005168591 -0.022967339 -0.054509692
000180 cd f1 bc bc d6 9e fd bc d2 4c 70 bd d9 6e d0 3c
       -0.023064518 -0.030959528 -0.05866701 0.025443481
000190 35 b0 95 3d fb b0 a5 3b 1c 6c ae 3d 43 cf 8e 3d
       0.073089994 0.005056498 0.08516714 0.06973126
0001a0 89 9c 56 3d 24 d4 bc 39 a5 c4 b8 3c fc 9a a4 3d
       0.052395377 0.0003601621 0.022554705 0.080373734
0001b0 0a 24 31 bd 8d 02 8f 3c 24 b0 c3 3c 08 ec 25 be
       -0.04324726 0.017457271 0.023887701 -0.1620332
0001c0 bf 29 58 bd 41 6a 27 3d 45 6a 6a bd 0c 8e 36 3d
       -0.052774187 0.040872816 -0.057230253 0.04456906
0001d0 1d 52 8e bc 5f e4 60 bd 23 3a 0d bb f8 7e d7 3d
       -0.017373139 -0.05490529 -0.0021549545 0.10522264
0001e0 cd 8c 1d bc f7 75 03 bc df b7 b3 bd c6 45 58 bd
       -0.009616089 -0.0080237305 -0.08775305 -0.052800916
0001f0 d8 99 36 3d ed be 34 3e c1 6a 09 3c b2 87 5d ba
       0.04458031 0.17650957 0.0083872685 -0.0008450701
000200 7c d5 cb 3d 02 eb 90 ba 3b 0e f0 3d 41 2c 30 bd
       0.09952828 -0.0011056366 0.11721464 -0.043010954
000210 66 27 1d 3e 64 4f 7f 3c 8c 27 a6 bc 41 a7 54 bc
       0.1534706 0.015582893 -0.02028253 -0.01297933
000220 df e3 18 bd 74 85 01 be 18 e7 fe bc 78 68 a7 bb
       -0.03732669 -0.12648565 -0.031116053 -0.005108889
000230 44 41 ee 3d 4d ba df bc f6 09 8f 3c 24 3a 8a 3d
       0.11633542 -0.027310515 0.017460804 0.06749371
000240 ed 70 26 3e 67 52 43 bd 6a ef c9 3c de 44 de bd
       0.16254015 -0.047686007 0.024650294 -0.10852979
000250 be 9f 46 3d d8 90 c2 3c d6 29 97 3d 28 e2 aa 3d
       0.048492186 0.023750708 0.073810264 0.08343917
000260 71 94 c8 3b 91 28 00 be e5 c9 4d 3d 2d be 5c bd
       0.006121211 -0.12515475 0.05024137 -0.053892303
000270 49 6e 48 3e af b4 13 bd f8 6b 11 3c 23 62 59 bd
       0.1957332 -0.036060985 0.008875839 -0.053072106
000280 8d 14 35 3d a1 0e 59 bd ae b8 dc 3b c4 1c ff bc
       0.044209052 -0.052992467 0.0067358827 -0.031141646
000290 87 e2 09 3d b4 80 96 bc 2b 33 df 3d cb 4c 94 bd
       0.0336633 -0.018371917 0.108984314 -0.072412096
0002a0 b5 5b 27 be 4f e8 2b bd 49 b6 26 3d 32 84 49 bd
       -0.16343577 -0.041969594 0.040701184 -0.049198337
0002b0 ba b6 bc bd 0c 56 4e bd cc 78 25 bd 28 3c 7b bd
       -0.0921454 -0.05037503 -0.040398404 -0.061336666
0002c0 eb 48 c2 3c 10 a9 c2 3d cc c4 71 3d 53 2d a9 39
       0.02371641 0.09504902 0.05902557 0.0003226796
0002d0 85 04 cf 3d a5 cf aa bd 78 e5 f2 3b 39 eb 12 3d
       0.10108284 -0.08340386 0.0074126087 0.035868857
0002e0 bf df ac bc bd bb 8c bd 57 eb 21 3d b3 9d 5f 3d
       -0.021102784 -0.06871746 0.03953108 0.054593753
0002f0 fb b3 0f 3d 61 15 8d 3d 68 9c a8 3b 21 6e 75 3d
       0.035083752 0.06888843 0.005145598 0.05991948
000300 88 73 2e bd 8b 7b 26 3d 0a 4a e1 bc 8d 09 9e bd
       -0.042590648 0.040645164 -0.027501125 -0.077166654
000310 76 d3 be 3d dc 96 1f 3c 8f 41 cc 3d 1a 9a 13 bd
       0.09317677 0.0097405575 0.09973442 -0.036035635
000320 a5 54 dc 3d 5d ea 80 bd 90 fc 1b 3d 83 4a 2f 3c
       0.10758332 -0.06294701 0.03808266 0.010698917
000330 6e e8 4e bd c2 36 b2 bb 8e f3 35 bc b1 a9 e3 bd
       -0.05051463 -0.0054386565 -0.011105431 -0.111163504
000340 ad f8 80 3c a7 7e dd bd 47 ab 62 3d b9 5c d9 3d
       0.015743578 -0.10815173 0.055339124 0.106133886
000350 63 a8 a0 bd 49 7e cb bd 9b be aa bc 63 eb eb 3d
       -0.07844617 -0.09936196 -0.02084284 0.11519506
000360 6c 58 2e 3c 5f 39 45 3d ac 76 10 3e 6b 23 65 3d
       0.010641199 0.048150416 0.1410777 0.05594198
000370 c8 64 49 bd ea 34 41 bd e8 9f 2d bd f8 06 25 3a
       -0.049168378 -0.047169603 -0.042388827 0.0006295289
000380 ae 3e 57 bc c9 ee c4 3d 8d 2b 58 3d 76 26 24 bd
       -0.013137503 0.09615857 0.05277591 -0.04007574
000390 df c3 ea bd de af 5a bd 3d a9 df bd 15 54 ad 3d
       -0.11463141 -0.053390376 -0.109209515 0.08463303
0003a0 e7 06 d0 3c 40 fb 65 3d 02 fd 88 bd e0 f8 3d bd
       0.025393916 0.056147814 -0.066888824 -0.046379924
0003b0 c4 6f 4c 3d 55 ae 57 ba 6c d9 e6 bd c3 05 e4 bd
       0.049911276 -0.00082275766 -0.11271939 -0.111339115
0003c0 a7 53 67 bd c3 cc e2 3d f0 a4 9d ba 87 39 1c 3e
       -0.05647626 0.110742114 -0.0012027305 0.1525632
0003d0 a6 81 13 bd 13 46 dd bd 40 d5 90 bd 89 2b e7 3d
       -0.036012314 -0.10804381 -0.07071924 0.112876005
0003e0 63 0a 91 bd b5 a5 86 bd b7 d5 b4 bc 4d 67 9c bd
       -0.07082059 -0.06574575 -0.022074563 -0.076368906
0003f0 5d 1c 47 3d f9 f9 87 3d 9f c9 65 bc 93 d5 8c bd
       0.048611034 0.066394754 -0.014025121 -0.068766735

model.0.bias f4 [32]
000000 30 89 aa b8 3a a3 79 b8 7c 5b b4 37 aa 16 fd 38
       -8.131785e-05 -5.9518243e-05 2.1500273e-05 0.000120682016
000010 81 4a 65 b8 17 56 8c b9 0b 10 b6 b7 ba 98 7c 39
       -5.466724e-05 -0.00026767023 -2.1703561e-05 0.00024089488
000020 26 58 2c 39 be e0 28 b8 e0 c1 02 b8 14 5a a9 37
       0.00016436036 -4.026363e-05 -3.1174975e-05 2.0188316e-05
000030 65 a5 5c b9 54 14 2d 37 40 82 af b5 33 a0 a5 b8
       -0.00021042449 1.0316337e-05 -1.3076424e-06 -7.8976525e-05
000040 88 3d a2 b8 3c e9 b7 38 de 55 0e b8 2c a6 c4 b8
       -7.736223e-05 8.769563e-05 -3.393541e-05 -9.37696e-05
000050 d4 42 a3 b8 b9 91 07 ba ba 1d a1 b8 38 a4 1e b9
       -7.7848934e-05 -0.00051715557 -7.682615e-05 -0.0001512923
000060 58 c9 5a 38 05 06 a2 b9 ea ba e6 38 40 be 48 32
       5.2162766e-05 -0.00030903533 0.0001100207 1.168479e-08
000070 3f 3f 57 b8 a6 46 00 b8 80 35 35 b9 dd 78 d0 b9
       -5.1318897e-05 -3.0583375e-05 -0.00017281435 -0.00039762902

model.1.weight f4 [32]
000000 5d 5b 57 3f e9 e6 2c 3f 94 79 55 3f ae c9 2a 3f
       0.84123784 0.6753984 0.8338864 0.6671399
000010 d4 f6 2a 3f 82 06 2c 3f cc 46 50 3f 1a d2 4f 3f
       0.6678288 0.6719743 0.8135803 0.81179965
000020 98 82 24 3f 7f 21 58 3f 8d 7d 23 3f c5 2a 21 3f
       0.6426177 0.8442611 0.6386345 0.62955886
000030 05 9e 2b 3f bc 82 52 3f ae 3f 28 3f 86 75 2c 3f
       0.67037994 0.82230735 0.6572217 0.67366827
000040 91 18 27 3f 9a 34 25 3f 76 18 22 3f 1f bb 51 3f
       0.6527186 0.6453339 0.63318574 0.8192615
000050 ea ef 2a 3f dd 2d 28 3f f0 ed 59 3f 3e 28 2d 3f
       0.6677233 0.6569498 0.8512869 0.6763953
000060 e8 e7 2a 3f e7 34 4c 3f 60 b2 2a 3f 4c 71 50 3f
       0.6676011 0.7976822 0.6667843 0.8142288
000070 25 ac 52 3f 94 7a 58 3f 11 31 4e 3f a2 74 54 3f
       0.8229392 0.8456204 0.8054362 0.8299047

model.1.bias f4 [32]
000000 ed 10 6b be e0 bd 0e bf 4e d7 3e be 7e 3b 0c bf
       -0.22955675 -0.55758476 -0.1863682 -0.5477828
000010 e3 55 0e bf 92 d6 0c bf af 0d 56 be b2 5e 5c be
       -0.555998 -0.5501491 -0.20903657 -0.21520498
000020 df 97 11 bf ba ea 71 be e7 ef 09 bf 17 c0 0d bf
       -0.5687236 -0.23624697 -0.53881687 -0.5537123
000030 54 05 14 bf ce 7f 9b be 8d e9 11 bf 97 46 0e bf
       -0.5782063 -0.30370945 -0.56996995 -0.5557646
000040 73 43 15 bf cb b7 08 bf a9 40 10 bf c8 d6 7b be
       -0.58306044 -0.53405446 -0.56348664 -0.24593651
000050 56 01 19 bf 8a f3 10 bf b0 63 7d be 1a 85 0a bf
       -0.59767663 -0.5662161 -0.24745059 -0.54109347
000060 fb 59 11 bf fb 5c 8c be 92 d6 11 bf 15 53 6f be
       -0.56777924 -0.27414688 -0.56968033 -0.23371537
000070 af 86 68 be da 8d 2d be 39 9e 8b be 52 fe 4c be
       -0.22707628 -0.16948643 -0.27269152 -0.2001889

model.1.running_mean f4 [32]
000000 a3 5a c2 bc e2 ee e7 bb 72 b4 ef 3d 81 ae d3 3d
       -0.02372486 -0.0070780376 0.11704339 0.10336018
000010 6e fb 01 3d d6 58 6c 3d 1e d6 96 3c fd bc 17 bc
       0.031733923 0.057701908 0.018412646 -0.009261367
000020 6a f6 a3 3d 0b bd aa 3b 3e 3f e9 3d 0c 5d c7 3b
       0.08005984 0.005210524 0.113890156 0.00608409
000030 23 2c 13 3d f4 2f 17 3d 76 54 02 3d cd 89 94 3d
       0.035930764 0.036910966 0.03181883 0.07252846
000040 a0 37 5e 3d c5 b0 75 3c 92 59 40 3d e0 b3 e9 3a
       0.054252267 0.014995758 0.04696042 0.0017830096
000050 25 b0 9b 3d 5d 58 cd 3d fa 9d ec 3c 10 82 4e 3d
       0.07601956 0.100266196 0.028883923 0.050417006
000060 0c b2 f5 3c 24 a4 d2 bb 4c 01 4e 3d 6a cc cc ba
       0.029992126 -0.0064282585 0.050294206 -0.0015624885
000070 68 54 9f bc 87 ab 19 3d 5b 9d c3 3d 44 a1 1e 3d
       -0.019449428 0.037517097 0.095514975 0.038728014

model.1.running_var f4 [32]
000000 1c ed b6 3a 60 20 96 3a 42 97 b3 3a 9f c7 82 3a
       0.0013956162 0.001145374 0.0013701695 0.0009977705
000010 8c 71 80 3a 7a 6f 8d 3a e0 0a af 3a f4 3c 88 3a
       0.0009799465 0.0010790669 0.0013354681 0.0010394142
000020 f5 22 5e 3a 09 10 a8 3a c9 2f 76 3a 6b 7b 60 3a
       0.0008473837 0.0012822162 0.0009391276 0.00085633126
000030 bf 59 80 3a 6b 32 95 3a 27 1d 92 3a 49 3d 8d 3a
       0.0009792371 0.0011382824 0.0011147604 0.0010775711
000040 0b a1 5a 3a db 0f 63 3a db 12 65 3a 8b 1e 89 3a
       0.00083400373 0.00086617254 0.00087384664 0.0010461373
000050 87 12 92 3a fb 97 80 3a ef 89 a2 3a 45 c8 85 3a
       0.0011144438 0.0009810919 0.0012400727 0.001020678
000060 5b d2 83 3a f3 94 8e 3a 2f 03 96 3a a6 47 76 3a
       0.0010057198 0.001087813 0.001144504 0.0009394832
000070 71 78 90 3a 62 0d a4 3a a6 59 be 3a ae e8 85 3a
       0.0011022222 0.0012516195 0.0014522567 0.0010216439

model.4.weight f4 [2, 32]
000000 92 17 1d 3f 15 3a 11 bf 6b 5e 17 3f 9c a2 0f bf
       0.6136409 -0.5672925 0.59128445 -0.561075
000010 10 69 14 bf 37 f8 0d bf 44 e4 0e 3f 4f ef 15 3f
       -0.5797281 -0.5545687 0.55817056 0.5856828
000020 91 2b 16 bf 0d c4 18 3f 6b 78 05 bf 71 4c 10 bf
       -0.5866023 0.5967415 -0.5213687 -0.5636664
000030 5c 6a 18 bf 4d ee 19 3f 50 96 13 bf be 81 17 bf
       -0.5953729 0.60129243 -0.57651234 -0.59182346
000040 bf 05 1d bf af 0c 0d bf 1e d7 09 bf c0 33 1d 3f
       -0.6133689 -0.5509748 -0.5384387 0.6140709
000050 cc d4 13 bf 53 92 1e bf f7 d6 21 3f 97 4e 1c bf
       -0.5774658 -0.61942023 0.63218635 -0.6105742
000060 69 17 14 bf ce 2c 19 3f 0e 9d 12 bf 65 9f 13 3f
       -0.5784822 0.5983399 -0.57270896 0.5766509
000070 6b a4 1a 3f a5 51 17 3f 80 4c 0c 3f 6d e1 16 3f
       0.6040713 0.59108955 0.5480423 0.5893772
000080 66 16 17 bf 7f e7 15 3f f8 9d 14 bf eb d2 15 3f
       -0.5901855 0.5855636 -0.5805354 0.5852496
000090 b0 61 0e 3f fe a0 13 3f 93 56 15 bf 6b 71 15 bf
       0.5561781 0.5766753 -0.58335227 -0.5837619
0000a0 b8 0c 0e 3f b2 26 20 bf 43 e7 0d 3f f1 b6 17 3f
       0.5548816 -0.62559044 0.55431 0.5926352
0000b0 ee 67 15 3f ad 7e 21 bf 9c 23 13 3f c0 23 19 3f
       0.5836171 -0.63083917 0.5747621 0.59820175
0000c0 f9 5a 13 3f 43 e7 03 3f d8 aa 12 3f 18 32 1e bf
       0.5756069 0.5152475 0.57291937 -0.61795187
0000d0 3d d5 1d 3f d7 e7 12 3f a2 b6 1f bf 9e c1 15 3f
       0.616535 0.5738501 -0.6238805 0.5849856
0000e0 3d c7 12 3f 67 88 16 bf 2b 7a 15 3f dd 13 18 bf
       0.57335263 -0.58801883 0.5838954 -0.5940531
0000f0 9b fd 1c bf 1a 08 18 bf df 82 15 bf 9c b8 1b bf
       -0.6132447 -0.5938736 -0.5840282 -0.60828567

model.4.bias f4 [2]
000000 96 90 ba 3e c3 94 e8 be
       0.36438435 -0.45425996
