trained_models/run26.pth (torch, 207943 bytes, 14 tensors)

model.0.weight f4 [48, 1024]
0.026115637 0.024197834 0.024322785 0.05907756 0.0453819 0.04034199 0.00017119157 0.042835664
0.010921445 0.039114393 0.05124667 -0.11719041 0.0008209086 0.0050060754 0.027643096 -0.018630203
0.009934418 0.023608986 0.0043587787 -0.072185636 -0.0025262954 0.009738827 -0.047036707 -0.032897305
-0.048430268 -0.042434216 -0.0017889094 0.017478777 0.06915968 0.0044066636 0.06405864 -0.027418183
0.020155001 -0.00866781 -0.008370423 -0.02913233 0.00802989 0.06858742 0.013348336 0.0024304395
0.041806187 0.040237144 -0.007908331 -0.06535287 0.0267074 0.01946508 0.028907608 0.01238702
0.014413105 -0.045322947 -0.044114806 0.02369161 0.054090902 -0.027767202 -0.010530229 0.014694479
0.0063368254 -0.007327709 0.068527766 0.001391935 -0.049533583 -0.0187374 0.06790921 -0.02270745
-0.012931089 0.10276955 0.05150675 0.028954916 -0.05870008 0.053607617 0.011139857 0.048248257
0.024936628 0.019093063 0.012538697 0.028642835 -0.00011287682 0.05960659 -0.035164267 -0.04201776
-0.052259658 -0.04588683 -0.024725007 0.0076195635 0.06533529 -0.057125583 0.020418558 0.03813516
0.037228905 0.051472593 -0.026652327 -0.011497771 0.013150606 -0.0015476448 0.0030176488 0.026194314
-0.01692851 -0.023394326 -0.029586758 0.096256375 -0.0072851917 -0.009056402 -0.08966868 0.027881805
-0.025331663 -0.02098501 0.012269345 -0.03663564 -0.018868351 0.010271731 -0.028436065 -0.057552833
4.2475156e-05 0.00071011623 0.0027153941 0.015647886 0.007336606 -0.011912245 0.02967541 0.009403614
0.03233624 0.05413579 0.08030082 0.01325853 0.004627357 -0.06965926 -0.06562616 0.024169544
-0.007010757 -0.051651027 0.033711255 -0.0005440675 0.0039233845 0.020717619 0.027943166 0.03208225
0.015668657 0.029954016 0.03539899 -0.07596451 0.0029234341 -0.08987416 0.025915468 0.008554189
-0.06540124 -0.0789855 0.025231626 -0.0339991 -0.018380353 -0.032440305 -0.022265986 0.013827876
0.039295956 -0.007022253 0.00688841 -0.030123917 -0.020833284 -0.064957604 -0.025857696 -0.036653355
5.0455055e-05 0.06377442 -0.017095597 -0.026101004 -0.048760932 -0.028431533 -0.017673237 0.013733342
-0.06558202 0.025856882 0.051207114 0.034054093 0.0697476 0.06962951 -0.022673644 0.0478935
-0.06621328 -0.0060834903 -0.051024064 -0.0047661774 -0.013098692 -0.02705712 0.10708123 0.055523243
0.06857227 0.06325552 -0.0414089 -0.014734024 -0.021068472 0.03315495 0.028420493 -0.070172936
0.006939154 -0.0041808025 -0.023354648 0.020860996 0.045446705 -0.061018202 -0.03179997 0.008092004
-0.022174919 -0.062099062 0.06822567 -0.012368739 0.0042427834 -0.06815395 -0.012392932 -0.034953814
0.046711244 -0.0022183098 0.028708288 0.004299288 0.01774296 -0.02716881 -0.037800517 0.0061210445
-0.0071826237 0.051637433 0.041861575 0.031456433 0.0008442988 -0.010040934 0.009499489 0.030309001
0.0398636 0.02401181 0.058518138 -0.039168324 0.038215764 -0.039125443 0.034780093 0.0045979293
0.052982237 0.03952267 0.08866701 -0.0012280921 0.009188523 0.011773742 0.008501002 0.037906326
0.02092033 0.047151946 0.04117063 -0.094604865 0.005954969 -0.031116948 -0.07015784 -0.02986628
-0.03319353 0.0058220476 0.047273647 0.009249914 -0.033068545 0.092433 -0.0069199805 -0.079365075
00000000: 76f0 d53c 893a c63c 9440 c73c 50fb 713d
00000010: 5fe2 393d a43d 253d e381 3339 7374 2f3d
00000020: dcef 323c 6a36 203d 07e8 513d 8701 f0bd
00000030: 3e32 573a 010a a43b c673 e23c 5e9e 98bc
00000040: f8c3 223c a267 c13c 16d4 8e3b 10d6 93bd
00000050: 3490 25bb 9a8f 1f3c 90a9 40bd 53bf 06bd
00000060: d15e 46bd 80cf 2dbd d779 eaba a72f 8f3c
00000070: 97a3 8d3d c665 903b 2d31 833d 199c e0bc
00000080: 1a1c a53c 6e03 0ebc 1924 09bc eda6 eebc
00000090: cd8f 033c 9077 8c3d fbb2 5a3c 0248 1f3b
000000a0: f73c 2b3d b4cf 243d f291 01bc bad7 85bd
000000b0: 7ac9 da3c 3b75 9f3c a6cf ec3c edf2 4a3c
000000c0: f224 6c3c 8ea4 39bd bab1 34bd e814 c23c
000000d0: 6c8e 5d3d 0b78 e3bc fb86 2cbc 1dc1 703c
000000e0: 25a5 cf3b 471d f0bb 4958 8c3d 9771 b63a
000000f0: bae3 4abd 2d7f 99bc fc13 8b3d f904 babc
00000100: ebdc 53bc d878 d23d bef8 523d dc32 ed3c
00000110: 7f6f 70bd a993 5b3d f283 363c f79f 453d
00000120: e647 cc3c 0e69 9c3c 1b6f 4d3c 61a4 ea3c
00000130: 48b8 ecb8 0a26 743d 6808 10bd d11a 2cbd
00000140: 390e 56bd d4f3 3bbd 198c cabc 88ad f93b
00000150: 82ce 853d 84fc 69bd d244 a73c 9d33 1c3d
00000160: 567d 183d edd4 523d fb55 dabc 2661 3cbc
00000170: a475 573c 58da caba bfc3 453b 7595 d63c
00000180: a9ad 8abc 75a5 bfbc ee5f f2bc 1022 c53d
00000190: 9eb8 eebb 4e61 14bc 37a4 b7bd 6268 e43c
000001a0: 5984 cfbc c1e8 abbc 5d05 493c 410f 16bd
000001b0: cd91 9abc c34a 283c c0f2 e8bc 85bc 6bbd
000001c0: 5a27 3238 1827 3a3a c1f4 313b ff2f 803c
000001d0: e967 f03b 942b 43bc d819 f33c 9e11 1a3c
000001e0: 0173 043d 7dbd 5d3d c274 a43d 4e3a 593c
000001f0: 15a1 973b 84a9 8ebd 0267 86bd 35ff c53c
00000200: 7eba e5bb 0790 53bd d014 0a3d c09f 0eba
00000210: bc8f 803b ffb7 a93c 11e9 e43c ad68 033d
00000220: 8e5b 803c 2062 f53c 88fe 103d 4893 9bbd
00000230: 1697 3f3b f20f b8bd ad4c d43c de26 0c3c
00000240: 16f1 85bd 26c3 a1bd 8eb2 ce3c a442 0bbd
00000250: 6592 96bc 20e0 04bd 2867 b6bc 518e 623c
00000260: ccf4 203d ed1a e6bb 2cb8 e13b 6fc6 f6bc
00000270: 90aa aabc 7e08 85bd 85d3 d3bc d421 16bd
00000280: b49f 5338 2a9c 823d 110c 8cbc c6d1 d5bc
00000290: 8bb9 47bd 3fe9 e8bc 77c7 90bc d001 613c
000002a0: de4f 86bd d0d1 d33c 8dbe 513d 4e7c 0b3d
000002b0: d4d7 8e3d eb99 8e3d 14be b9bc fa2b 443d
000002c0: d49a 87bd 0458 c7bb 9cfe 50bd 982d 9cbb
000002d0: e59b 56bc e5a6 ddbc 674d db3d 576c 633d
000002e0: 9e6f 8c3d 1c8c 813d 619c 29bd fa66 71bc
000002f0: ca97 acbc 7ccd 073d 18d2 e83c d4b6 8fbd
00000300: d861 e33b 1dff 88bb 3f52 bfbc aee4 aa3c
00000310: 5326 3a3d 39ee 79bd af40 02bd 5394 043c
00000320: 2da8 b5bc 965b 7ebd e6b9 8b3d 40a6 4abc
00000330: 0c07 8b3b 4c94 8bbd b90b 4bbc bb2b 0fbd
00000340: 4a54 3f3d 1061 11bb a52d eb3c 0be1 8c3b
00000350: af59 913c 2091 debc b7d4 1abd 0b93 c83b
00000360: 375c ebbb c681 533d 0b77 2b3d 76d8 003d
00000370: ef53 5d3a bb82 24bc bfa3 1b3c 954a f83c
00000380: 0448 233d 6ab4 c43c b7b0 6f3d f76e 20bd
00000390: 2288 1c3d 0042 20bd 9275 0e3d 3aaa 963b
000003a0: e703 593d 86e2 213d 0d97 b53d eff7 a0ba
000003b0: 758b 163c a7e6 403c c947 0b3c aa43 1b3d
000003c0: 1d61 ab3c 6622 413d 89a2 283d 32c0 c1bd
000003d0: e721 c33b f8e8 febc eaae 8fbd 21aa f4bc
000003e0: f0f5 07bd e0c6 be3b 03a2 413d f48c 173c
000003f0: e272 07bd 834d bd3d 01c1 e2bb 288a a2bd

model.0.bias f4 [48]
-2.3690984e-05 8.312396e-05 3.136671e-05 0.00011883586 -0.00015251382 0.000102083664 1.2450506e-05 0.0006088099
-5.7885558e-05 -0.000101886806 -0.00014901566 6.0075407e-05 -2.9029434e-05 -0.00035716302 -4.6641162e-07 2.0370678e-06
-2.6164893e-05 2.3556522e-38 -6.836912e-05 -8.5564665e-05 1.126447e-05 8.066253e-38 -4.0229326e-05 7.282472e-05
-0.000115811315 -0.0002151693 1.7428924e-38 7.908859e-05 4.1856314e-05 -1.3675911e-38 -0.000109368884 1.6809698e-37
-2.158136e-06 -0.0003816562 0.00016765101 -0.00021347655 -4.4964523e-05 -4.2051397e-05 9.1386275e-05 -6.5824344e-05
-0.00018588203 9.102641e-06 -0.00012282608 -4.9276354e-05 -1.00771795e-05 -3.3590826e-05 1.0546384e-05 0.00010622819
00000000: 00bc c6b7 d652 ae38 c08f 0338 8437 f938
00000010: 1eec 1fb9 c015 d638 84e2 5037 8a98 1f3a
00000020: 25ca 72b8 10ac d5b8 1641 1cb9 7af9 7b38
00000030: 3c84 f3b7 9c41 bbb9 2067 fab4 8fb4 0836
00000040: ae7c dbb7 0041 0001 6461 8fb8 2e71 b3b8
00000050: 88fc 3c37 9495 db01 e9bb 28b8 79b9 9838
00000060: badf f2b8 129f 61b9 c0c8 bd00 5ddc a538
00000070: e08e 2f38 e0ea 9480 f95c e5b8 40cd 6402
00000080: 7fd4 10b6 0719 c8b9 7acb 2f39 add8 5fb9
00000090: 4a98 3cb8 5860 30b8 a2a6 bf38 2d0b 8ab8
000000a0: 54e9 42b9 8cb7 1837 e0ca 00b9 15ae 4eb8
000000b0: 2811 29b7 e0e3 0cb8 60f0 3037 d3c6 de38

model.1.weight f4 [48]
0.3186753 0.35072848 0.37208498 0.48010385 0.40026873 0.40558508 0.3070943 0.49833784
0.42060736 0.42476416 0.38077962 0.27977613 0.2999342 0.45396134 0.10055514 0.053676356
0.25065076 1.082821e-39 0.223402 0.44809976 0.40039304 9.2487e-40 0.36069918 0.37866738
0.3669409 0.45990354 1.155861e-39 0.30567938 0.3390829 8.97701e-40 0.4371077 9.15964e-40
0.10597161 0.42183396 0.3761029 0.36149108 0.43460825 0.2840741 0.4636238 0.4093815
0.43248737 0.3858798 0.4786476 0.42739248 0.37836987 0.2559489 0.36748344 0.38721466
00000000: 6929 a33e af92 b33e ec81 be3e 2cd0 f53e
00000010: 06f0 cc3e d9a8 cf3e 773b 9d3e 2326 ff3e
00000020: d959 d73e b07a d93e 8cf5 c23e d13e 8f3e
00000030: fa90 993e 9f6d e83e daef cd3d bddb 5b3d
00000040: 4c55 803e 77ca 0b00 7ec3 643e 556d e53e
00000050: 5100 cd3e 2912 0a00 90ad b83e b1e0 c13e
00000060: addf bb3e 7a78 eb3e 1296 0c00 0282 9c3e
00000070: 469c ad3e 6dc6 0900 95cc df3e 56f9 0900
00000080: a507 d93d 9ffa d73e 8f90 c03e 5c15 b93e
00000090: f984 de3e 2972 913e 1960 ed3e 749a d13e
000000a0: fc6e dd3e 0a92 c53e 4c11 f53e 30d3 da3e
000000b0: b2b9 c13e bc0b 833e ca26 bc3e 0041 c63e

model.1.bias f4 [48]
-0.12185946 -0.17650366 -0.09455298 -0.20220502 -0.17698742 -0.20505182 -0.1135075 -0.18196985
-0.24895033 -0.1815131 -0.17714956 -0.17580302 -0.18422398 -0.20804256 -0.14375255 -0.096750304
-0.19313432 -8.87648e-40 -0.15059651 -0.24484272 -0.07510365 -7.03019e-40 -0.21992278 -0.1687967
-0.23772103 -0.22688995 -8.98436e-40 -0.1423419 -0.12720472 -7.3197e-40 -0.24873513 -9.18526e-40
-0.18546033 -0.19252914 -0.14112271 -0.13220832 -0.16325355 -0.20536217 -0.21720171 -0.1973597
-0.21682744 -0.14436798 -0.3557806 -0.20052749 -0.22634512 -0.15732725 -0.16406173 -0.20542252
00000000: 7491 f9bd 60bd 34be fea4 c1bd d50e 4fbe
00000010: 313c 35be 1bf9 51be 9f76 e8bd 4e56 3abe
00000020: d6ec 7ebe 92de 39be b266 35be b505 34be
00000030: 36a5 3cbe 1c09 55be de33 13be 0625 c6bd
00000040: 01c5 45be 67aa 0980 f935 1abe 0db8 7abe
00000050: f1cf 99bd bba7 0780 7033 61be 0bd9 2cbe
00000060: 246d 73be d755 68be 79c8 0980 13c2 11be
00000070: f441 02be 6ff8 0780 6cb4 7ebe 7a00 0a80
00000080: 50e9 3dbe 5c26 45be 7982 10be 9e61 07be
00000090: f02b 27be 764a 52be 206a 5ebe a918 4abe
000000a0: 0308 5ebe 33d5 13be e028 b6be 1457 4dbe
000000b0: 04c7 67be 651a 21be ccff 27be 485a 52be

model.1.running_mean f4 [48]
-0.03684634 0.13197601 0.0011956223 0.083879925 0.03576593 0.032146536 0.011929458 0.1447486
0.14294648 0.030220758 0.002052756 -0.027551908 -0.028181273 0.06369079 -0.008506117 0.006684261
0.015856842 -8.16981e-40 0.07129194 0.25874212 -0.050551027 -1.359185e-39 0.0019442248 0.029101508
0.1692489 0.0051510846 5.920325e-39 0.06311834 -0.03213664 5.357461e-39 0.08606748 2.18876e-40
-0.007905806 0.1838182 0.078992724 0.11076616 0.10432618 0.08669987 0.03386096 0.078447804
0.036854923 0.03962198 0.1210634 0.05279184 0.14019738 -0.06341438 0.052324317 0.090855405
00000000: 30ec 16bd b824 073e 6db6 9c3a 3dc9 ab3d
00000010: 4c7f 123d 16ac 033d c673 433c fa38 143e
00000020: 9060 123e 8691 f73c 8887 063b 8ab4 e1bc
00000030: 6adc e6bc 5170 823d 3e5d 0bbc a507 db3b
00000040: 35e6 813c 69e5 0880 8201 923d d979 843e
00000050: 980e 4fbd dbcc 0e80 5cd5 fe3a 4966 ee3c
00000060: 954f 2d3e 6eca a83b 7577 4000 3044 813d
00000070: b6a1 03bd 6c56 3a00 2644 b03d 2362 0200
00000080: 5b87 01bc d73a 3c3e f0c6 a13d 5ed9 e23d
00000090: f7a8 d53d b48f b13d cab1 0a3d 3ea9 a03d
000000a0: 30f5 163d a84a 223d 16f0 f73d 423c 583d
000000b0: e78f 0f3e 66df 81bd 0652 563d 6612 ba3d

model.1.running_var f4 [48]
0.0009102242 0.0012098397 0.00137712 0.0013659438 0.0011282847 0.0012559703 0.0012674435 0.0012348293
0.0010256105 0.001324129 0.0013464497 0.00085135776 0.0007138693 0.0012286849 0.0002467083 1.8371644e-05
0.00082392665 6e-45 0.0006901981 0.001256426 0.0013238654 6e-45 0.0012054965 0.0011999946
0.000975838 0.0013566884 6e-45 0.0015309704 0.0010849563 6e-45 0.0015558881 6e-45
7.87996e-05 0.001078306 0.0014303572 0.001304479 0.0012111813 0.0006729758 0.0011920558 0.0010403278
0.0011361069 0.0010124312 0.0009491653 0.0012044713 0.0014023496 0.00090562965 0.0013428415 0.0011777902
00000000: 1d9c 6e3a 7c93 9e3a 7b80 b43a 7809 b33a
00000010: f4e2 933a 5f9f a43a 5920 a63a ffd9 a13a
00000020: c76d 863a 668e ad3a 5b7b b03a a72d 5f3a
00000030: f522 3b3a d30b a13a a158 8139 ce1c 9a37
00000040: c8fc 573a 0400 0000 69ee 343a a9ae a43a
00000050: 8d85 ad3a 0400 0000 c001 9e3a 2349 9d3a
00000060: 61cf 7f3a e9d2 b13a 0400 0000 d8aa c83a
00000070: 1835 8e3a 0400 0000 f1ee cb3a 0400 0000
00000080: 3741 a538 f255 8d3a d37a bb3a 0dfb aa3a
00000090: 80c0 9e3a a46a 303a c13e 9c3a 9c5b 883a
000000a0: 6ce9 943a 8eb3 843a 68d1 783a 5adf 9d3a
000000b0: 0bcf b73a c767 6d3a 4902 b03a 1560 9a3a

model.4.weight f4 [24, 48]
0.037933875 0.07158155 0.04738389 -0.076210156 -0.0710007 -0.015589524 0.026542688 -0.05019592
0.009149344 0.075487845 -0.0025306805 0.029900817 0.0559294 0.05780502 0.007999435 0.009320843
0.037246887 -1.08846e-39 0.009485714 -0.06706146 0.014796614 1.138177e-39 0.06308727 0.044295296
-0.059149507 -0.03445797 1.772361e-39 0.0063772504 0.057802103 -1.303835e-39 -0.048206497 -9.29e-42
-0.007870516 -0.04946546 0.03104337 0.03571184 -0.09881829 0.009393764 -0.08087872 -0.052639373
-0.021621015 -0.07260609 -0.07479399 0.00881736 -0.0651757 0.014810855 0.058638174 -0.082154
0.008554787 0.049139436 0.019094737 -0.112320386 -0.10644284 0.040536072 0.012080327 -0.10669112
0.06929151 0.04149822 0.057786003 0.020763693 0.013799616 0.051964264 0.014091713 0.004183253
0.025729056 -1.185277e-39 0.03971769 -0.11794717 0.0046941675 1.04653e-39 0.069758534 0.04371971
-0.011097349 -0.053579345 -1.401814e-39 -0.06679398 -0.004320652 -1.079321e-39 -0.046970166 2.222315e-39
0.0020018166 -0.050716724 0.024453666 -0.01797103 -0.0073186355 -0.0005426033 -0.067263186 -0.052444432
-0.07418665 -0.045473147 -0.22374529 0.060882736 -0.07842923 0.022414453 -0.011555205 -0.03915883
0.06607524 0.023627335 0.06514532 -0.10124637 -0.10393191 -0.049152214 0.019315554 -0.11038704
0.08298446 0.084439926 0.06798971 0.026265971 0.053311527 0.08922726 -0.015547939 -0.0065790447
0.07684812 -1.350724e-39 0.051550344 -0.13335212 0.09596527 1.162705e-39 0.08314437 0.08172651
-0.108561255 -0.059554797 1.111553e-39 -0.09307646 -0.030215845 -1.713979e-39 -0.06750859 1.043988e-39
-0.010616691 -0.045449402 0.078713335 -0.02514225 -0.03772487 -0.008519797 -0.05536416 -0.02944791
-0.09501162 -0.10188021 -0.15075071 0.062094763 -0.08301721 0.08569728 0.032357007 -0.07699831
0.050292876 -0.105004705 0.027967617 0.08062489 0.05652014 0.029770901 -0.020028194 0.113216825
-0.12458582 0.007931091 0.08417958 0.09833048 -0.06377695 0.009713377 0.049113378 -0.011725329
-0.024512894 -1.74616e-39 0.1425663 0.07731647 -0.18546087 -1.167317e-39 -0.047936954 -0.07922193
0.07428288 0.14874028 -2.568835e-39 -0.16644426 0.12659048 1.322716e-39 0.071080424 -5.81899e-40
-0.0226998 0.077877074 0.0396417 -0.0146546895 0.052671 0.08306417 0.12169883 0.072269544
0.017208187 0.05192916 0.12594628 -0.09575064 -0.07307964 -0.049460128 0.08692534 0.0010687396
0.1232148 -0.09172396 0.018427912 0.040951576 0.06240841 0.06484556 0.09765418 0.11591465
-0.13916504 -0.07659385 0.09083846 0.09844833 -0.015144752 -0.10651969 0.0036525081 -0.024192914
-0.067130715 1.069758e-39 0.0947893 0.05536065 -0.15841976 1.264027e-39 -0.0659671 -0.036546066
0.047373056 0.12305827 1.800537e-39 -0.10314995 0.158872 1.537233e-39 0.098216355 -1.466668e-39
-0.019857615 0.08786432 0.025421433 -0.08996069 0.02117893 0.10616108 0.08391806 0.083670974
0.1083007 0.076047644 -0.01570178 0.023868026 0.11951056 -0.13989168 0.059423726 0.06498844
-6.09868e-40 8.51104e-40 -5.48435e-40 -4.31652e-40 -6.21829e-40 -1.168708e-39 7.35788e-40 -8.34871e-40
-2.730269e-39 6.6556e-40 8.74751e-40 -8.56492e-40 8.2505e-40 1.207724e-39 2.8164e-40 -8.64056e-40
00000000: 8d60 1b3d 5999 923d 9c15 423d 1214 9cbd
00000010: d168 91bd 346b 7fbc 0d70 d93c 3d9a 4dbd
00000020: 21e7 153c 5f99 9a3d c6d9 25bb 8ff2 f43c
00000030: 3a16 653d f5c4 6c3d 1010 033c 73b6 183c
00000040: 3190 183d 2fda 0b80 f869 1b3c 8557 89bd
00000050: 7f6d 723c c664 0c00 e633 813d fc6e 353d
00000060: c146 72bd cd23 0dbd 9f4c 1300 41f8 d03b
00000070: e6c1 6c3d 9032 0e80 2d74 45bd e619 0080
00000080: 56f3 00bc 4b9c 4abd aa4e fe3c 9446 123d
00000090: 3e61 cabd 4de8 193c bea3 a5bd 629c 57bd
000000a0: 8e1e b1bc 80b2 94bd 972d 99bd b076 103c
000000b0: d67a 85bd 3aa9 723c 952e 703d 5b40 a8bd
000000c0: 6129 0c3c 6f46 493d 916c 9c3c 3b08 e6bd
000000d0: b4fe d9bd 2709 263d 90ec 453c e080 dabd
000000e0: b5e8 8d3d 0afa 293d 04b1 6c3d 9f18 aa3c
000000f0: c917 623c 7bd8 543d eee0 663c ab13 893b
00000100: bec5 d23c 12e8 0c80 04af 223d 498e f1bd
00000110: 88d1 993b 4d65 0b00 90dd 8e3d 7013 333d
00000120: a8d1 35bc 0476 5bbd b043 0f80 48cb 88bd
00000130: 4294 8dbb b5c0 0b80 ca63 40bd e932 1800
00000140: e930 033b 57bc 4fbd 0e53 c83c fb37 93bc
00000150: 2ad1 efbb 7e3d 0eba 48c1 89bd f9cf 56bd
00000160: 2cef 97bd 0d42 3abd 7c1d 65be 2d60 793d
00000170: 819f a0bd 849e b73c 0b52 3dbc 0265 20bd
00000180: 7552 873d 1d8e c13c e96a 853d 425a cfbd
00000190: 41da d4bd d553 49bd a73b 9e3c 9a12 e2bd
000001a0: c2f3 a93d d7ee ac3d 303e 8b3d bc2b d73c
000001b0: 305d 5a3d c8bc b63d c8bc 7ebc 0795 d7bb
000001c0: 8c62 9d3d 45b5 0e80 7426 533d 758d 08be
000001d0: 7189 c43d 26a9 0c00 9847 aa3d 3a60 a73d
000001e0: 5d55 debd bbef 73bd 8f1a 0c00 df9e bebd
000001f0: 3887 f7bc e0a9 1280 f241 8abd 375e 0b00
00000200: a1f1 2dbc 2729 3abd 7534 a13d 1ff7 cdbc
00000210: 6585 1abd 9e96 0bbc 88c5 62bd be3c f1bc
00000220: 7495 c2bd 92a6 d0bd 655e 1abe 1457 7e3d
00000230: ed04 aabd 0e82 af3d c888 043d 4ab1 9dbd
00000240: e7ff 4d3d b50c d7bd 581c e53c aa1e a53d
00000250: aa81 673d 1be2 f33c 2b12 a4bc 39de e73d
00000260: da26 ffbd 68f1 013c 5866 ac3d 7e61 c93d
00000270: 7d9d 82bd db24 1f3c 1c2b 493d 981b 40bc
00000280: 44cf c8bc 9503 1380 e6fc 113e 1958 9e3d
00000290: 74e9 3dbe 01b6 0c80 8a59 44bd 1b3f a2bd
000002a0: 9f21 983d 5f4f 183e def8 1b80 5d70 2abe
000002b0: efa0 013e 3267 0e00 9d92 913d 1956 0680
000002c0: eef4 b9bc 047e 9f3d 565f 223d 391a 70bc
000002d0: 8cbd 573d 8c1d aa3d 3c3d f93d 0e02 943d
000002e0: 2ff8 8c3c acb3 543d 10f8 003e e918 c4bd
000002f0: c7aa 95bd b496 4abd ea05 b23d f314 8c3a
00000300: 0b58 fc3d c6d9 bbbd 22f6 963c d7bc 273d
00000310: f69f 7f3d c0cd 843d eafe c73d a964 ed3d
00000320: 4881 0ebe 3ddd 9cbd 8409 ba3d 479f c93d
00000330: b221 78bc ff26 dabd eb5e 6f3b 3830 c6bc
00000340: d47b 89bd 0da6 0b00 e420 c23d d9c1 623d
00000350: ca38 22be 98c3 0d00 c219 87bd 54b1 15bd
00000360: 400a 423d f905 fc3d 2a9b 1300 4840 d3bd
00000370: 57af 223e 2ebd 1000 a825 c93d 79f8 0f80
00000380: 70ac a2bc 35f2 b33d 9c40 d03c 4f3d b8bd
00000390: 6f7f ad3c fb6a d93d 3bdd ab3d b05b ab3d
000003a0: c2cc dd3d debe 9b3d 05a1 80bc e186 c33c
000003b0: f4c1 f43d c43f 0fbe 4b66 733d a918 853d
000003c0: 10a4 0680 8844 0900 d0f8 0580 45b3 0480
000003d0: 68c5 0680 e2b9 0c80 1403 0800 4817 0980
000003e0: e1ba 1d80 4f3f 0700 7386 0900 8d53 0980
000003f0: e7fb 0800 a526 0d00 1911 0300 a368 0980

model.4.bias f4 [24]
2.0671934e-05 1.0385302e-05 -2.6996026e-05 -5.2920514e-05 6.362534e-05 -2.0814029e-37 6.932998e-05 -2.0141997e-06
3.212447e-05 -2.1060656e-05 1.2102441e-05 -6.9473062e-06 -2.179902e-05 -7.5669996e-06 -6.232278e-05 5.645316e-38
-2.2984514e-06 5.420523e-05 2.483146e-06 3.1024883e-05 4.250443e-05 5.888452e-05 -2.422757e-05 9.399376e-06
00000000: a468 ad37 883c 2e37 8675 e2b7 f8f6 5db8
00000010: 986e 8538 27a7 8d82 4065 9138 b02b 07b6
00000020: 63bd 0638 6aab b0b7 970b 4b37 e81c e9b6
00000030: 0add b6b7 08e8 fdb6 4ab3 82b8 1cae 9901
00000040: 183f 1ab6 6c5a 6338 20a4 2636 b720 0238
00000050: c946 3238 c6fa 7638 4f3c cbb7 03b2 1d37

model.5.weight f4 [24]
0.44753766 0.5684402 0.8181038 0.8630934 1.050867 8.0576e-40 1.0379522 0.8866326
0.55604523 0.8133676 0.4868376 0.53606623 0.86175555 0.8209137 0.94780284 -2.573095e-39
0.54260224 0.94334143 0.99835217 0.5972761 0.88459176 1.0138339 0.4665298 0.2119587
00000000: a823 e53e 4c85 113f 406f 513f b0f3 5c3f
00000010: cf82 863f 22c6 0800 9edb 843f 5bfa 623f
00000020: fb58 0e3f dc38 503f c742 f93e a33b 093f
00000030: 039c 5c3f 6627 523f 35a3 723f be04 1c80
00000040: fbe7 0a3f d37e 713f 0294 7f3f 16e7 183f
00000050: 9b74 623f 4fc5 813f fedc ee3e b40b 593e

model.5.bias f4 [24]
0.096007414 0.11657681 0.14630195 0.33921996 0.35254538 -1.020654e-39 0.39026976 0.14217627
0.13129325 0.37548772 0.07184717 0.114215985 0.14563741 0.3489918 0.3550695 -1.031127e-39
0.1164172 0.33959088 0.40940642 0.08613563 0.38783178 0.40374795 0.082272574 0.055247985
00000000: 899f c43d d3bf ee3d 2ed0 153e 3dae ad3e
00000010: d480 b43e 2b1d 0b80 70d1 c73e a896 113e
00000020: bd71 063e ed3f c03e 9c24 933d 12ea e93d
00000030: f921 153e 0eaf b23e abcb b53e 5d3a 0b80
00000040: 246c ee3d dbde ad3e b89d d13e e167 b03d
00000050: e391 c63e 0db8 ce3e 867e a83d b64b 623d

model.5.running_mean f4 [24]
-0.02413479 -0.05694548 -0.032965675 0.06722379 0.080011494 4.53906e-39 -0.0042964565 -0.061652925
-0.02804611 -0.00880873 -0.028606098 -0.023467526 -0.039105296 -0.0359168 0.03207278 1.938241e-39
-0.03230156 0.072196774 -0.014403516 -0.05170464 -0.04187336 -0.0575667 -0.027727406 -0.008931642
00000000: 53b6 c5bc aa3f 69bd 0407 07bd a0ac 893d
00000010: 11dd a33d 0d6d 3100 4ac9 8cbb c787 7cbd
00000020: f5c0 e5bc 7e52 10bc 5657 eabc f83e c0bc
00000030: e02c 20bd 7f1d 13bd bf5e 033d 071b 1500
00000040: a44e 04bd e7db 933d bafc 6bbc 3fc8 53bd
00000050: 6683 2bbd 0fcb 6bbd 9624 e3bc 0656 12bc

model.5.running_var f4 [24]
0.004630364 0.0061245286 0.009818788 0.009336733 0.008912321 6e-45 0.011842928 0.009563242
0.0066691237 0.0077126683 0.0045509744 0.0056604645 0.009688529 0.007779504 0.008732903 6e-45
0.006321527 0.009880677 0.009446569 0.0059861005 0.008493796 0.008714193 0.004622727 0.001859654
00000000: 4fba 973b 45b0 c83b fbde 203c 19f9 183c
00000010: fc04 123c 0400 0000 d708 423c 25af 1c3c
00000020: aa88 da3b 8dba fc3b 5720 953b 6b7b b93b
00000030: a3bc 1e3c 36eb fe3b 7314 0f3c 0400 0000
00000040: d024 cf3b 90e2 213c c8c5 1a3c 0d27 c43b
00000050: 9029 0b3c f9c5 0e3c 3f7a 973b a2bf f33a

model.8.weight f4 [2, 24]
-0.31971782 -0.3978021 -0.58088064 0.6599398 0.7882695 2.47001e-40 0.7944357 -0.6327908
-0.40329573 0.6359403 -0.3418203 -0.38825896 -0.61426514 0.6365521 0.7056387 4.10402e-40
-0.39042905 0.70911425 0.7732771 -0.42129952 0.69242644 0.77789444 -0.33199084 -0.15197809
0.31903455 0.41150463 0.5886043 -0.65939426 -0.78307724 -2.31119e-40 -0.7911257 0.6276231
0.3997192 -0.6352474 0.34470695 0.3828633 0.61320204 -0.62901497 -0.7182998 -2.09745e-40
0.3899528 -0.70627517 -0.77022225 0.42197 -0.69225293 -0.78090024 0.3320208 0.1527983
00000000: 0eb2 a3be b8ac cbbe 98b4 14bf d1f1 283f
00000010: 08cc 493f 8ab0 0200 2360 4b3f 94fe 21bf
00000020: c77c cebe fccc 223f 1203 afbe e1c9 c6be
00000030: 7b40 1dbf 14f5 223f bda4 343f 0978 0400
00000040: 51e6 c7be 8388 353f 7df5 453f 92b4 d7be
00000050: dc42 313f 1724 473f b4fa a9be 25a0 1bbe
00000060: 7f58 a33e bcb0 d23e c5ae 163f 10ce 28bf
00000070: c077 48bf 4484 0280 3787 4abf e8ab 203f
00000080: ffa7 cc3e 939f 22bf 6e7d b03e a906 c43e
00000090: cffa 1c3f 2007 21bf 7fe2 37bf af48 0280
000000a0: e5a7 c73e 73ce 34bf 492d 45bf 740c d83e
000000b0: 7d37 31bf 14e9 47bf a1fe a93e 2877 1c3e

model.8.bias f4 [2]
-0.03778922 0.005263921
00000000: dfc8 1abd f87c ac3b
