trained_models/run25.pth (torch, 207943 bytes, 14 tensors)

model.0.weight f4 [48, 1024]
-0.11658302 -0.04410496 -0.057864066 0.16323914 -0.20785879 0.008423313 0.19597363 -0.003917395
0.12546319 0.16037302 0.038530257 0.02189449 0.311047 -0.16041507 0.11970674 -0.14528622
0.02759855 -0.29857457 -0.09246201 0.16872084 -0.1090118 -0.3365928 -0.07697535 0.16037564
0.16288005 -0.11983076 0.04598223 -0.069217384 -0.028157163 -0.045729868 -0.251239 0.09898896
-0.073689036 0.011434911 0.30871543 -0.022846425 0.048232693 -0.11623188 -0.09640465 0.024858436
0.09327144 0.04805879 0.26893514 0.26616812 0.30599368 0.09367296 -0.13069884 0.031165598
0.05816607 0.14853796 -0.06620869 -0.009123421 -0.2433575 0.026145848 -0.034762938 0.04470151
0.07719625 -0.2533286 -0.008208236 -0.11120641 0.07481122 0.08529516 0.03202715 -0.18252239
-0.10528706 -0.08589876 0.14780416 1.42486915e-05 -0.16779394 -0.17785716 0.20310359 0.107993014
0.10484771 0.026080338 -0.2816662 0.05382624 0.12006847 -0.16558371 -0.1279926 0.04339254
0.10352271 0.040256992 0.02733253 -0.4394582 -0.29917997 -0.11767303 0.17135385 -0.09125332
0.059243027 -0.14311947 -0.00038578841 0.19085892 0.008127281 -0.0288566 -0.10087545 0.021877913
0.026436703 -0.011469035 -0.20941254 0.047256112 0.04632781 -0.010804829 -0.0030054396 0.05417405
0.07626194 0.1485259 0.1750555 0.033458713 0.097037464 -0.13812064 0.11559574 -0.1078296
-0.0047431714 -0.057451103 -0.23379035 0.123943634 -0.04667394 0.023876369 0.020020884 0.13662846
-0.066786446 -0.12557533 -0.236634 -0.06666369 0.16910668 0.21206042 -0.06664421 -0.021672338
0.15654089 -0.08415779 0.013908147 -0.08466212 0.026113685 -0.05753994 0.050278433 -0.019535312
0.07229384 -0.10034293 0.07687131 0.12968622 -0.0642231 -0.019394647 0.12805827 -0.042486962
0.3095683 -0.012808196 0.05853795 -0.04551407 0.20228837 0.24458179 0.06532451 0.10883695
-0.11433639 -0.018870164 -0.012258005 0.17907171 -0.022778843 -0.069965094 -0.1323594 -0.105126195
-0.014898793 -0.20244375 0.05171367 0.06285913 -0.20629805 0.07951852 0.26063824 -0.22331095
-0.4024209 -0.14601156 -0.096380815 0.096154705 -0.06487676 0.061039817 -0.27811155 0.0875952
-0.02867749 0.24542911 0.036313094 -0.23491475 0.23321411 -0.070741735 0.035578884 0.016367083
-0.006261451 0.1253003 -0.034270946 0.13524187 0.049604397 0.08848751 -0.19335695 0.09730891
-0.103392705 0.14046825 -0.1461577 -0.029034995 0.24857502 -0.028287124 0.22026983 -0.12163082
0.042172443 -0.081178084 0.09264596 -0.070820495 -0.087704435 0.030559752 -0.20698372 -0.22215243
0.09933448 0.11738002 0.12051305 0.036592986 -0.2138621 -0.21615253 0.027350806 0.095183566
-0.1499812 0.069511116 0.1391063 0.1059042 0.18049464 0.05034444 -0.11193697 -0.059534196
-0.028426925 0.24181087 -0.014289073 -0.12011144 -0.11121565 0.020147322 -0.13079794 0.04632652
-0.13092954 -0.037655488 -0.30854136 -0.15120594 0.22905326 -0.068434805 -0.17313161 -0.151354
0.048842188 -0.10373226 0.035999164 0.15002796 -0.100718 -0.16133443 -0.065059476 -0.059339933
0.004600355 0.20169084 -0.075113334 0.05201493 0.04910886 0.01848334 -0.12077647 -0.17621821
00000000: 14c3 eebd 67a7 34bd df02 6dbd 2928 273e
00000010: efd8 54be ef01 0a3c 50ad 483e 7e5d 80bb
00000020: 6c79 003e d338 243e e7d1 1d3d 135c b33c
00000030: 8d41 9f3e d943 24be cf28 f53d e9c5 14be
00000040: 5b16 e23c c4de 98be b95c bdbd 28c5 2c3e
00000050: 9441 dfbd e455 acbe 41a5 9dbd 8339 243e
00000060: 07ca 263e d469 f5bd dd57 3c3d d8c1 8dbd
00000070: daa9 e6bc 3e4f 3bbd 66a2 80be b9ba ca3d
00000080: 47ea 96bd 7e59 3b3c f30f 9e3e 6d28 bbbc
00000090: a58f 453d fb0a eebd cd6f c5bd eba3 cb3c
000000a0: 1905 bf3d 4bd9 443d deb1 893e 3047 883e
000000b0: 34ab 9c3e 9cd7 bf3d ebd5 05be ff4e ff3c
000000c0: 8c3f 6e3d 561a 183e 6c98 87bd 677a 15bc
000000d0: b532 79be d12f d63c 9563 0ebd ee18 373d
000000e0: 1119 9e3d 49b4 81be d67b 06bc 30c0 e3bd
000000f0: a036 993d 3baf ae3d e72e 033d 26e7 3abe
00000100: bea0 d7bd b0eb afbd f959 173e aa0d 6f37
00000110: 2dd2 2bbe 3020 36be 63fa 4f3e 712b dd3d
00000120: 65ba d63d 6fa6 d53c 8d36 90be e778 5c3d
00000130: 75e6 f53d c78e 29be 7e10 03be 60bc 313d
00000140: b703 d43d 84e4 243d 78e8 df3c aa00 e1be
00000150: 1e2e 99be 8ffe f0bd 6277 2f3e 05e3 babd
00000160: d1a8 723d e98d 12be a543 cab9 8570 433e
00000170: 4a28 053c ad64 ecbc ca97 cebd 4f39 b33c
00000180: c991 d83c 9fe8 3bbc 3e70 56be a08f 413d
00000190: 3bc2 3d3d bd06 31bc e9f6 44bb 9ce5 5d3d
000001a0: 382f 9c3d 2c17 183e c041 333e 010c 093d
000001b0: 94bb c63d 7f6f 0dbe 76bd ec3d c4d5 dcbd
000001c0: 9b6c 9bbb d951 6bbd bd66 6fbe 29d6 fd3d
000001d0: 2c2d 3fbd 6098 c33c d602 a43c 55e8 0b3e
000001e0: 55c7 88bd d296 00be 2f50 72be f986 88bd
000001f0: 4d2a 2d3e 5e26 593e c27c 88bd 308a b1bc
00000200: 414c 203e eb5a acbd ffde 633c 5563 adbd
00000210: 5eec d53c 00af 6bbd c2f0 4d3d 8508 a0bc
00000220: cb0e 943d 9880 cdbd b56e 9d3d 77cc 043e
00000230: 6787 83bd 86e1 9ebc b521 033e cf06 2ebd
00000240: bc7f 9e3e 78d9 51bc 7dc5 6f3d f66c 3abd
00000250: af24 4f3e a673 7a3e dbc8 853d e8e5 de3d
00000260: 3229 eabd 9a95 9abc cdd5 48bc 935e 373e
00000270: b29a babc dc49 8fbd 3989 07be 674c d7bd
00000280: 111a 74bc 6a4d 4fbe b7d1 533d 4abc 803d
00000290: cc3f 53be 9bda a23d 6072 853e a0ab 64be
000002a0: 1d0a cebe 0e84 15be 4e63 c5bd c2ec c43d
000002b0: 1bde 84bd e304 7a3d a364 8ebe 1d65 b33d
000002c0: 0eed eabc c551 7b3e 0abd 143d 7e8d 70be
000002d0: aecf 6e3e 0be1 90bd 2abb 113d 4314 863c
000002e0: dc2c cdbb b94e 003e b15f 0cbd d87c 0a3e
000002f0: fb2d 4b3d f138 b53d 5dff 45be e549 c73d
00000300: 8ebf d3bd e9d6 0f3e 5daa 15be ccda edbc
00000310: 738a 7e3e 66ba e7bc 6a8e 613e 9419 f9bd
00000320: 03bd 2c3d b240 a6bd 2abd bd3d 560a 91bd
00000330: 629e b3bd 7258 fa3c 8af3 53be ed7b 63be
00000340: e06f cb3d f064 f03d 8ccf f63d 87e2 153d
00000350: abfe 5abe 1757 5dbe cc0e e03c 9aef c23d
00000360: ac94 19be d85b 8e3d e271 0e3e 4de4 d83d
00000370: 96d3 383e f935 4e3d 363f e5bd 21da 73bd
00000380: 95df e8bc 459d 773e b71c 6abc fdfc f5bd
00000390: 08c5 e3bd ff0b a53c e5ef 05be e1c0 3d3d
000003a0: 6512 06be a43c 1abd 22f9 9dbe bbd5 1abe
000003b0: f08c 6a3e 8c27 8cbd 6a49 31be 8bfc 1abe
000003c0: bf0e 483d 9471 d4bd dc73 133d eea0 193e
000003d0: 3d45 cebd da34 25be e73d 85bd 6e0e 73bd
000003e0: 93be 963b 0b88 4e3e 05d5 99bd 9b0d 553d
000003f0: 5f26 493d 606a 973c a759 f7bd 8c72 34be

model.0.bias f4 [48]
0.103600934 -0.021990111 0.0851913 0.09737002 -0.013760661 0.14078555 0.11807667 -0.1445573
0.05518149 0.11492865 0.061289676 -0.045155004 0.07358141 -0.079944536 0.038814344 -0.05800543
-0.17991455 -0.041898362 0.13286826 -0.09133642 -0.18155903 0.005033119 0.0072579226 -0.066025846
-0.12359938 0.06901458 -0.012329052 0.34872836 0.17504205 0.04458326 -0.09319692 -0.013923234
-0.077535085 -0.022744907 -0.24026555 0.060249094 0.04059939 -0.11118897 -0.09587974 0.053126555
-0.073982015 -0.26899993 -0.039781053 -0.301902 0.0015528065 -0.24620524 -0.08105724 0.04050808
00000000: ba2c d43d 9b24 b4bc c778 ae3d ef69 c73d
00000010: 6574 61bc 162a 103e 2ed2 f13d d406 14be
00000020: fc05 623d b65f eb3d e20a 7b3d 74f4 38bd
00000030: dab1 963d f6b9 a3bd cafb 1e3d 1a97 6dbd
00000040: 853b 38be 9e9d 2bbd 9e0e 083e 970e bbbd
00000050: 9cea 39be ddec a43b ded3 ed3b 8f38 87bd
00000060: ac21 fdbd 8457 8d3d cbff 49bc 868c b23e
00000070: 393e 333e f09c 363d 07de bebd 471e 64bc
00000080: b7ca 9ebd 8753 babc 2c08 76be c1c7 763d
00000090: 8c4b 263d 0bb7 e3bd 995c c4bd 3b9b 593d
000000a0: e283 97bd 5cba 89be 75f1 22bd e692 9abe
000000b0: 8a87 cb3a 3a1d 7cbe 5701 a6bd cdeb 253d

model.1.weight f4 [48]
0.8758104 0.68149906 0.6725388 0.90999186 0.9085143 0.84850675 0.75090325 0.8944851
0.6814773 0.70163095 0.71380484 0.7374549 0.7547012 0.70094323 0.7062906 0.66087973
0.7299914 0.6555287 0.8101367 0.83053297 0.7088671 0.6889729 0.7528112 0.70684355
0.8427531 0.881373 0.87273467 0.68715245 0.71174043 0.6851109 0.9060649 0.8979454
0.7436437 0.885842 0.76780635 0.754395 0.8801753 0.82049674 0.91192263 0.84548604
0.8958842 0.9035735 0.8439689 0.6833612 0.8267519 0.85812217 0.75641257 0.8115616
00000000: 1c35 603f b976 2e3f 812b 2c3f 3af5 683f
00000010: 6594 683f bd37 593f 323b 403f fafc 643f
00000020: 4c75 2e3f 169e 333f eabb 363f d8c9 3c3f
00000030: 1934 413f 0471 333f 76cf 343f 6a2f 293f
00000040: b7e0 3a3f bbd0 273f 1e65 4f3f cf9d 543f
00000050: 5078 353f 8760 303f 3cb8 403f b3f3 343f
00000060: abbe 573f a9a1 613f 8a6b 5f3f 39e9 2f3f
00000070: 9f34 363f 6e63 2f3f dff3 673f c0df 653f
00000080: 6f5f 3e3f 8bc6 623f f58e 443f 0820 413f
00000090: 2b53 613f 130c 523f c373 693f c671 583f
000000a0: ab58 653f 9850 673f 590e 583f c2f0 2e3f
000000b0: 03a6 533f e5ad 5b3f 41a4 413f 80c2 4f3f

model.1.bias f4 [48]
-0.4378111 -0.8239808 -0.7416256 -0.40966555 -0.51293105 -0.5083927 -0.7762361 -0.44525662
-0.7929149 -0.79806405 -0.82716703 -0.7552793 -0.7911333 -0.84095347 -0.79627526 -0.77219784
-0.7769727 -0.80632573 -0.4919317 -0.4501071 -0.7850314 -0.79305845 -0.7952868 -0.7907447
-0.55318093 -0.38388935 -0.40131092 -0.80973524 -0.7417334 -0.764863 -0.4383203 -0.48327637
-0.80795795 -0.47119945 -0.84671617 -0.74269724 -0.43100846 -0.5213341 -0.40735698 -0.49147218
-0.45388523 -0.3717584 -0.44964343 -0.80690306 -0.42775387 -0.45365423 -0.8033928 -0.5931884
00000000: c728 e0be 68f0 52bf 2ddb 3dbf afbf d1be
00000010: 734f 03bf 0626 02bf 69b7 46bf adf8 e3be
00000020: 79fc 4abf ed4d 4cbf 38c1 53bf fc59 41bf
00000030: b687 4abf ba48 57bf b2d8 4bbf c2ae 45bf
00000040: afe7 46bf 5d6b 4ebf 79de fbbe 7074 e6be
00000050: d1f7 48bf e105 4bbf ea97 4bbf 3f6e 4abf
00000060: 449d 0dbf 258d c4be a078 cdbe cf4a 4fbf
00000070: 3de2 3dbf 10ce 43bf 856b e0be 0070 f7be
00000080: 55d6 4ebf 0e41 f1be 64c2 58bf 6821 3ebf
00000090: 24ad dcbe 2776 05bf 1891 d0be 3ea2 fbbe
000000a0: a563 e8be 1e57 bebe aa37 e6be 3391 4ebf
000000b0: 8e02 dbbe 5e45 e8be 27ab 4dbf 32db 17bf

model.1.running_mean f4 [48]
0.17461503 0.0060154647 0.0536604 0.33234906 0.15737025 0.113946095 0.3559133 0.16180032
0.17002355 0.33284077 0.16649818 0.07394825 0.335189 0.09979375 0.18523346 -0.018570265
0.018614355 0.0662154 0.1465416 0.12989037 -0.15446976 0.22492304 0.089292824 -0.088484935
0.08652994 0.21847613 0.1167981 0.52754086 0.19281405 0.16978455 0.005595538 0.18311466
0.09233632 0.035849035 -0.23730569 0.16585913 0.073488206 0.097210646 0.04941842 0.053978126
-0.017060287 -0.3058795 0.06841538 -0.15601331 0.15738781 -0.13466151 0.15090886 0.25602087
00000000: 48ce 323e 601d c53b 02cb 5b3d a829 aa3e
00000010: ab25 213e 925c e93d 453a b63e fcae 253e
00000020: a71a 2e3e 1b6a aa3e 807e 2a3e 2e72 973d
00000030: e59d ab3e aa60 cc3d d7ad 3d3e ab20 98bc
00000040: 227d 983c f19b 873d 000f 163e fb01 053e
00000050: 522d 1ebe 3a52 663e 28df b63d 9737 b5bd
00000060: 9c36 b13d 35b8 5f3e d833 ef3d eb0c 073f
00000070: 0c71 453e 00dc 2d3e c65a b73b 6982 3b3e
00000080: d31a bd3d 70d6 123d 4300 73be fad6 293e
00000090: fc80 963d 6016 c73d f86a 4a3d 2b18 5d3d
000000a0: 04c2 8bbc 3d9c 9cbe 5d1d 8c3d f4c1 1fbe
000000b0: 452a 213e b5e4 09be da87 1a3e 2b15 833e

model.1.running_var f4 [48]
0.007049085 0.004366465 0.0047632847 0.0045521557 0.0043233125 0.004574467 0.0039275875 0.0052757217
0.003701891 0.0038666294 0.0044109393 0.0040770196 0.004577608 0.0037314545 0.00424068 0.004317736
0.0041610566 0.0038528827 0.005991528 0.0041807466 0.0037735037 0.0045112586 0.00515512 0.004189194
0.004586858 0.005454065 0.0072852536 0.004177797 0.0037811014 0.00427673 0.00736505 0.007300321
0.0046985303 0.005260955 0.0053229867 0.004610808 0.0053883074 0.0041131587 0.006230179 0.0045166304
0.0051477863 0.0055160434 0.006749617 0.003866421 0.0063117514 0.0067271045 0.004588924 0.0042820876
00000000: 03fc e63b 9014 8f3b 5415 9c3b 402a 953b
00000010: 93aa 8d3b 69e5 953b feb2 803b f6df ac3b
00000020: 6d9b 723b 4767 7d3b a489 903b 8598 853b
00000030: c2ff 953b 6b8b 743b 67f5 8a3b cb7b 8d3b
00000040: 7959 883b a580 7c3b 9454 c43b a5fe 883b
00000050: e34c 773b 2ed3 933b 48ec a83b 8245 893b
00000060: 5b4d 963b 03b8 b23b 23b9 ee3b e7e5 883b
00000070: 5bcc 773b d023 8c3b 8456 f13b 8837 ef3b
00000080: 21f6 993b 1764 ac3b 736c ae3b 4316 973b
00000090: 6690 b03b adc7 863b 8826 cc3b 3e00 943b
000000a0: c3ae a83b edbf b43b e42b dd3b c863 7d3b
000000b0: cfd2 ce3b 0b6f dc3b af5e 963b c150 8c3b

model.4.weight f4 [24, 48]
-0.026098993 0.21432333 0.19384006 -0.07025445 -0.14441755 -0.105168544 0.1972375 -0.14452659
0.27536976 0.2348802 0.22540806 0.18067755 0.16204311 0.20985927 0.24043816 0.24939507
0.22295034 0.19751307 -0.10209397 -0.1403049 0.22275425 0.19508186 0.14628184 0.1574612
-0.14258821 -0.13999215 -0.053767204 0.19719397 0.18700615 0.21238825 -0.107829124 -0.11767013
0.180763 -0.077427134 0.18971208 0.13263759 -0.103477925 -0.123942174 -0.16106409 -0.12696433
-0.13307138 -0.094848745 -0.074375875 0.2696452 -0.087161824 -0.057847477 0.23671848 -0.17958423
-0.096455246 0.20079201 0.22163734 -0.0813554 -0.096612744 -0.053751715 0.1820994 -0.06307718
0.19710387 0.22273587 0.1839904 0.18078943 0.21030307 0.18187118 0.18893585 0.23416245
0.21908526 0.21205187 -0.12441253 -0.06533154 0.15035975 0.20292783 0.16563542 0.22503439
-0.07148906 -0.105074935 -0.12978685 0.21405822 0.17526898 0.21091276 -0.13220464 -0.17012654
0.13516778 -0.07830136 0.1864621 0.18269753 -0.10548758 -0.0651199 -0.058060385 -0.035817537
-0.066006005 -0.11730021 -0.18162766 0.20574144 -0.09132911 -0.07035321 0.17040226 -0.113657326
-0.1580557 0.23901246 0.24875993 -0.10045361 -0.064031236 -0.06843045 0.12875138 -0.047613803
0.19397014 0.19139586 0.22926971 0.19150706 0.20794481 0.23954897 0.25271493 0.26962885
0.21147728 0.19330323 -0.05075214 -0.11736017 0.16629863 0.20544045 0.16702904 0.2019681
-0.1641848 -0.098742455 -0.06380462 0.21560416 0.16543338 0.23607095 -0.08063054 -0.10735672
0.13048702 -0.053180177 0.23049848 0.18994685 -0.069524616 -0.07762683 -0.1094727 -0.13317685
-0.10222812 -0.08964066 -0.11816817 0.21425559 -0.08957146 -0.080823764 0.20047103 -0.06822147
0.18383345 -0.076466896 -0.10252645 0.2312856 0.21028437 0.26383397 -0.11414802 0.23812062
-0.09257226 -0.14168961 -0.103359304 -0.087795526 -0.21583875 -0.10464716 -0.07161045 -0.12759563
-0.07288339 -0.11802452 0.28124338 0.23781455 -0.16739814 -0.06491732 -0.12329357 -0.16989142
0.2334068 0.2121954 0.23089878 -0.15755159 -0.124124855 -0.14930867 0.18044688 0.24118721
-0.05320725 0.24408121 -0.10110899 -0.14534652 0.22736655 0.22899266 0.17853948 0.26639232
0.1805119 0.17698702 0.20494692 -0.0976361 0.24631535 0.23889668 -0.10863226 0.23344135
0.21980684 -0.2430176 -0.1855282 0.18138832 0.17768842 0.2884349 -0.14213863 0.24041946
-0.098730594 -0.07749954 -0.13465895 -0.07385062 -0.101391606 -0.111514576 -0.10949737 -0.07261258
-0.08377082 -0.16601928 0.2351711 0.2275585 -0.112804696 -0.12793642 -0.09646331 -0.13678434
0.21087044 0.24427721 0.25026977 -0.12269132 -0.052604653 -0.17610794 0.21729532 0.1698533
-0.15704563 0.19963402 -0.11317188 -0.07496814 0.18102247 0.26472947 0.18859994 0.20824683
0.2551567 0.1642346 0.23771144 -0.049427494 0.26039565 0.24027081 -0.12604485 0.25406232
0.22152798 -0.12938842 -0.20966269 0.21071512 0.17136225 0.20084292 -0.09998508 0.24968459
-0.1548969 -0.11158491 -0.124812886 -0.08070354 -0.10433177 -0.10539721 -0.23750609 -0.058132112
00000000: 8ecd d5bc 9377 5b3e 027e 463e 91e1 8fbd
00000010: 32e2 13be 9b62 d7bd a1f8 493e c7fe 13be
00000020: 44fd 8c3e 6f84 703e 5fd1 663e 8903 393e
00000030: a1ee 253e 59e5 563e 6c35 763e 6c61 7f3e
00000040: 184d 643e de40 4a3e a516 d1bd 16ac 0fbe
00000050: b119 643e 8ac3 473e e8ca 153e 823d 213e
00000060: a502 12be 1a5a 0fbe 003b 5cbd 37ed 493e
00000070: 8a7e 3f3e 4e7c 593e 84d5 dcbd 0afd f0bd
00000080: f019 393e 1e92 9ebd e243 423e 26d2 073e
00000090: 3cec d3bd 65d5 fdbd fced 24be f002 02be
000000a0: dd43 08be 0f40 c2bd 6152 98bd f00e 8a3e
000000b0: e681 b2bd 7af1 6cbd 5466 723e eee4 37be
000000c0: 548a c5bd 6c9c 4d3e e6f4 623e a99d a6bd
000000d0: e7dc c5bd c22a 5cbd 4478 3a3e 9c2e 81bd
000000e0: 99d5 493e df14 643e fb67 3c3e dd20 393e
000000f0: b059 573e 703c 3a3e 6678 413e 48c8 6f3e
00000100: e357 603e 2024 593e ffcb febd 8bcc 85bd
00000110: e8f7 193e 50cc 4f3e 559c 293e 6a6f 663e
00000120: db68 92bd 8731 d7bd d8e6 04be 1432 5b3e
00000130: b679 333e 84f9 573e a760 07be a735 2ebe
00000140: 6c69 0a3e 775c a0bd ecef 3e3e 1015 3b3e
00000150: df09 d8bd 955d 85bd bad0 6dbd 69b5 12bd
00000160: 282e 87bd 183b f0bd 9afc 39be e2ad 523e
00000170: c20a bbbd 5815 90bd ee7d 2e3e 2cc5 e8bd
00000180: 5ad9 21be afbf 743e ecba 7e3e 9fba cdbd
00000190: cf22 83bd 4425 8cbd 67d7 033e b106 43bd
000001a0: 1ca0 463e 47fd 433e aec5 6a3e 6d1a 443e
000001b0: 7cef 543e 534c 753e da63 813e cb0c 8a3e
000001c0: 808d 583e 48f1 453e 7ae1 4fbd 875a f0bd
000001d0: 304a 2a3e fb5e 523e a909 2b3e bad0 4e3e
000001e0: 0f20 28be 7c39 cabd ffab 82bd 56c7 5c3e
000001f0: 5e67 293e 95bc 713e a021 a5bd d7dd dbbd
00000200: 649e 053e 75d3 59bd cb07 6c3e 6d81 423e
00000210: ec62 8ebd d1fa 9ebd 3933 e0bd 835f 08be
00000220: fa5c d1bd 8695 b7bd 2702 f2bd d165 5b3e
00000230: 3e71 b7bd ee86 a5bd 4748 4d3e b3b7 8bbd
00000240: d63e 3c3e ad9a 9cbd 63f9 d1bd 22d6 6c3e
00000250: c954 573e 3f15 873e 70c6 e9bd e4d5 733e
00000260: 8696 bdbd 1517 11be 0bae d3bd 24ce b3bd
00000270: d504 5dbe 4051 d6bd 80a8 92bd 6ea8 02be
00000280: e343 95bd d7b6 f1bd 22ff 8f3e a885 733e
00000290: 6b6a 2bbe 5ff3 84bd 5781 fcbd 04f8 2dbe
000002a0: 3102 6f3e c049 593e bb70 6c3e 3455 21be
000002b0: 2c35 febd 5fe4 18be 11c7 383e c8f9 763e
000002c0: d8ef 59bd 6df0 793e 3b12 cfbd b8d5 14be
000002d0: c7d2 683e 0d7d 6a3e 0ed3 363e 9364 883e
000002e0: 1dd8 383e 163c 353e 9bdd 513e 70f5 c7bd
000002f0: 173a 7c3e 55a1 743e 977a debd 400b 6f3e
00000300: 0b15 613e 9bd9 78be 1bfb 3dbe dcbd 393e
00000310: f4f3 353e bdad 933e ca8c 11be 8530 763e
00000320: 4433 cabd 14b8 9ebd 09e4 09be fe3e 97bd
00000330: 67a6 cfbd c161 e4bd 2840 e0bd e8b5 94bd
00000340: 0990 abbd f500 2abe b1d0 703e 1805 693e
00000350: 2606 e7bd c401 03be 8e8e c5bd 3211 0cbe
00000360: 6cee 573e ce23 7a3e 5c23 803e 9645 fbbd
00000370: fa77 57bd a455 34be aa82 5e3e 06ee 2d3e
00000380: 92d0 20be dc6c 4c3e a9c6 e7bd e588 99bd
00000390: f45d 393e 9f8a 873e 5820 413e a83e 553e
000003a0: e6a3 823e 1d2d 283e a16a 733e 7c74 4abd
000003b0: 9452 853e 8d09 763e e711 01be 7514 823e
000003c0: 3bd8 623e 667e 04be d1b1 56be b4c5 573e
000003d0: 9679 2f3e c4a9 4d3e fac4 ccbd 51ad 7f3e
000003e0: 4b9d 1ebe a186 e4bd e69d ffbd e647 a5bd
000003f0: e5ab d5bd 7eda d7bd cc34 73be f01b 6ebd

model.4.bias f4 [24]
-0.003302226 0.06473308 0.09701868 0.10599433 0.15209891 -0.044766583 0.05931064 0.18153402
0.13853444 0.1706622 -0.12606707 0.05498557 0.14903359 0.09692671 0.091007225 0.108666815
0.11122481 0.14205024 0.07677706 -0.14271975 -0.07328442 0.03789526 -0.10800833 0.019252654
00000000: 296a 58bb c792 843d bbb1 c63d 8e13 d93d
00000010: d1bf 1b3e 2a5d 37bd b7ef 723d 0ee4 393e
00000020: f9db 0d3e 12c2 2e3e ba17 01be 8d38 613d
00000030: 439c 183e 8381 c63d ff61 ba3d b58c de3d
00000040: d5c9 e33d 9e75 113e 4b3d 9d3d 2025 12be
00000050: 2416 96bd 0f38 1b3d 7933 ddbd beb7 9d3c

model.5.weight f4 [24]
1.1276319 1.1325432 1.0821066 1.045224 1.0560049 1.1284647 1.0220547 1.0847352
1.1175767 1.0971595 1.1223408 1.1296221 1.1103585 1.0898407 1.0837331 1.1930406
1.098277 1.0987335 1.0710902 1.1215465 1.112332 1.11345 1.0847114 1.1670946
00000000: 3e56 903f 2df7 903f 7882 8a3f e6c9 853f
00000010: 2b2b 873f 8871 903f b0d2 823f 9ad8 8a3f
00000020: c10c 8f3f b96f 8c3f dda8 8f3f 7597 903f
00000030: 3a20 8e3f e67f 8b3f c4b7 8a3f 8eb5 983f
00000040: 5794 8c3f 4da3 8c3f 7c19 893f d68e 8f3f
00000050: e560 8e3f 8885 8e3f d3d7 8a3f 5b63 953f

model.5.bias f4 [24]
-0.21162082 -0.191533 -0.20334025 0.45770168 0.47600177 0.5001221 0.45782506 -0.19971094
-0.15206532 0.46582046 -0.20533045 -0.1705275 -0.18116806 0.48563161 0.5294219 -0.1757084
-0.18846864 0.4899696 0.49695748 -0.13172576 0.5285786 0.48045498 -0.16228545 -0.18706702
00000000: 21b3 58be 3a21 44be 6d38 50be e057 ea3e
00000010: 81b6 f33e 0008 003f 0c68 ea3e 0681 4cbe
00000020: 03b7 1bbe 0580 ee3e 2542 52be c39e 2ebe
00000030: 1f84 39be b5a4 f83e 3288 073f e7ec 33be
00000040: ecfd 40be 4cdd fa3e 3671 fe3e 1ee3 06be
00000050: ed50 073f 32fe f53e 282e 26be 7f8e 3fbe

model.5.running_mean f4 [24]
-0.12422121 -0.023606023 0.02717857 0.7594151 0.80030274 0.60859066 0.68605304 0.12986872
0.062979765 0.77126706 -0.23131347 -0.066873565 0.068111666 0.6896743 0.7026627 0.014458894
0.05703273 0.8065387 0.70878434 -0.19683307 0.5971607 0.6242806 -0.15461013 -0.11365494
00000000: b167 febd 6b61 c1bc 98a5 de3c 0769 423f
00000010: a4e0 4c3f 99cc 1b3f 2ca1 2f3f 4efc 043e
00000020: 89fb 803d c271 453f 70dd 6cbe 02f5 88bd
00000030: 217e 8b3d 7f8e 303f b4e1 333f ffe4 6c3c
00000040: 279b 693d 5279 4e3f e472 353f 9c8e 49be
00000050: 86df 183f dad0 1f3f 1e52 1ebe ecc3 e8bd

model.5.running_var f4 [24]
0.8294629 0.7370068 0.7645203 1.594792 1.5860167 1.5984012 1.6208061 0.67785394
0.7804203 1.5530716 0.91285473 0.8678784 0.74119765 1.4459378 1.4589725 0.81226027
0.71760464 1.5982077 1.5755908 0.8060417 1.7193819 1.4361068 0.7499409 0.8643962
00000000: ae57 543f 7aac 3c3f 9ab7 433f 2522 cc3f
00000010: 9802 cb3f 6998 cc3f 9376 cf3f d687 2d3f
00000020: a0c9 473f 0dcb c63f d9b0 693f 472d 5e3f
00000030: 21bf 3d3f 7d14 b93f 9cbf ba3f 4af0 4f3f
00000040: f0b4 373f 1292 cc3f f6ac c93f c058 4e3f
00000050: b514 dc3f 59d2 b73f 20fc 3f3f 1249 5d3f

model.8.weight f4 [2, 24]
-0.28713354 -0.19823416 -0.2695382 0.5546066 0.6327514 0.3642065 0.6069823 -0.33171603
-0.30993754 0.5439461 -0.2743525 -0.35649547 -0.29860976 0.65984845 0.3030862 -0.30870113
-0.29350156 0.54259336 0.60097706 -0.2660335 0.48454705 0.45423585 -0.29105335 -0.20807287
0.27238935 0.35427508 0.36667177 -0.5420497 -0.51810014 -0.60031116 -0.56548154 0.2783148
0.24571292 -0.49673215 0.35300103 0.18177974 0.2883097 -0.35620958 -0.63453555 0.21975957
0.2802493 -0.51264787 -0.51314026 0.28036314 -0.4761231 -0.57909435 0.29235035 0.3400267
00000000: 2b03 93be e5fd 4abe e900 8abe b3fa 0d3f
00000010: fffb 213f 4679 ba3e 3163 1b3f afd6 a9be
00000020: 22b0 9ebe 0d40 0b3f ee77 8cbe 9386 b6be
00000030: 61e3 98be d4eb 283f 1d2e 9b3e 130e 9ebe
00000040: d645 96be 66e7 0a3f a2d9 193f 8b35 88be
00000050: 8d16 f83e 9a91 e83e f204 95be 0e11 55be
00000060: 9e76 8b3e 8b63 b53e 67bc bb3e c5c3 0abf
00000070: 36a2 04bf fead 19bf 66c3 10bf 477f 8e3e
00000080: 2b9c 7b3e ad53 febe 8dbc b43e 7824 3a3e
00000090: 549d 933e 1a61 b6be ec70 22bf a708 613e
000000a0: d67c 8f3e e43c 03bf 295d 03bf c28b 8f3e
000000b0: 68c6 f3be 873f 14bf f2ae 953e fb17 ae3e

model.8.bias f4 [2]
0.33491156 -0.4415926
00000000: 8779 ab3e 6d18 e2be
