trained_models/run27.pth (torch, 135403 bytes, 8 tensors)

model.0.weight f4 [32, 1024]
-0.028015612 0.073159896 -0.087779485 -0.005109366 -0.21330479 -0.22500236 -0.04989507 -0.009673899
0.048491023 -0.08259549 0.06483656 0.13053635 0.29610685 0.09761052 0.18025972 -0.0120226145
0.069382004 -0.21391928 -0.04604458 0.18406373 -0.058885287 -0.09322762 -0.11825218 0.050400946
0.13201153 -0.004082822 -0.02390696 0.216322 -0.023196451 0.027040748 0.05401424 -0.039141677
0.030730868 -0.2173894 0.04056759 0.11666054 0.07060601 -0.1215868 -0.2256307 -0.110670544
0.064091526 -0.1535944 -0.07076553 0.03463096 0.13567296 -0.035074238 -0.010794232 -0.077279754
0.22152025 0.20815592 -0.01652094 -0.048729297 0.113659985 0.2356697 -0.07658007 -0.037379686
-0.06857112 -0.17840837 0.06221516 0.10381593 0.12876153 -0.20282307 0.17606848 -0.008195249
-0.044008307 -0.021871435 -0.020395407 0.10736399 0.053634476 0.022317387 0.11850399 0.17973308
0.0954034 0.37038198 -0.5633163 -0.00805694 -0.08559034 0.11239733 -0.21910128 0.06505609
0.03680264 0.14825071 0.01751876 -0.15272507 0.007085932 0.03748247 0.017683418 -0.15326184
0.07594943 -0.25081578 0.1952989 0.27799624 -0.068596736 -0.1481622 -0.15778615 0.002730922
0.11275107 0.050118346 -0.10050167 0.05717886 0.03588699 -0.25779793 0.22910337 0.007052208
-0.011071584 -0.02867768 -0.16663522 0.06572736 0.13622414 -0.09272711 0.08154669 -0.17480499
-0.0986774 0.02104294 -0.016014269 -0.08784787 0.12651876 -0.2686428 0.020106941 0.039282877
0.05952323 -0.10683005 -0.19615336 -0.15685673 -0.23159426 -0.05593219 0.13488638 -0.124901876
0.24333736 -0.17081971 -0.0816251 -0.012004038 0.09404451 -0.022057561 -0.03615645 0.080121085
-0.16414227 -0.4473021 -0.128581 0.07146456 0.13365543 -0.07788989 0.06922456 -0.044547405
0.022221437 0.021349743 -0.08564919 -0.032486785 0.17829394 -0.06367266 0.17756133 -0.11505941
0.0541365 -0.06881808 -0.18601695 0.0005570762 0.13963388 0.0067528784 -0.26815057 -0.12732075
-0.05899539 0.1561393 0.08612939 -0.07738982 0.086963125 -0.03120192 0.058934484 -0.14688745
-0.072860464 0.12256497 0.079959236 -0.058995903 0.2242722 -0.13953404 -0.06330137 0.043888748
-0.053762604 -0.109368205 0.13568215 -0.07009193 -0.0015539312 0.009070944 -0.01966455 -0.17465714
-0.068136 0.02205082 -0.05086827 0.23428647 0.1569021 0.23766401 0.04172727 -0.111043625
-0.052375652 -0.0702326 0.03507556 -0.26294744 -0.029404333 -0.017531337 0.082949534 0.07347362
0.20980234 -0.06724557 0.2199987 0.15746135 0.024621973 -0.08494308 0.00230826 0.20612174
0.15020315 0.0018640221 -0.011585678 0.39432338 -0.21320423 0.16610906 0.08478344 -0.013574218
0.11628034 0.1639229 0.45547125 0.1800704 -0.11832777 0.04099754 -0.06821896 0.043086294
-0.16698551 0.030751625 -0.019611742 0.33397427 -0.04444911 0.0004912394 0.029683333 0.16247459
0.1519169 0.028096667 -0.22518165 -0.22655647 0.07998902 0.083697766 0.030855535 0.024126811
0.15781435 0.11990246 0.01456667 0.1578045 0.09167984 -0.028785422 0.029401395 0.012876311
0.08540173 -0.07604284 -0.028127799 -0.2512559 -0.08565532 -0.03028964 0.042755798 -0.11361171
00000000: ff80 e5bc dbd4 953d bbc5 b3bd 786c a7bb
00000010: 926c 5abe 0567 66be c65e 4cbd 467f 1ebc
00000020: 869e 463d d327 a9bd 08c9 843d 52ab 053e
00000030: 519b 973e 06e8 c73d 0196 383e 80fa 44bc
00000040: 2718 8e3d a80d 5bbe 3e99 3cbd 347b 3c3e
00000050: b331 71bd 1fee bebd 332e f2bd 3971 4e3d
00000060: 082e 073e 31c9 85bb 87d8 c3bc 8483 5d3e
00000070: 7c06 bebc 8f84 dd3c 093e 5d3d 0653 20bd
00000080: 4dbf fb3c 549b 5ebe 342a 263d b9eb ee3d
00000090: e299 903d 8002 f9bd bc0b 67be 3da7 e2bd
000000a0: 6b42 833d da47 1dbe 85ed 90bd 32d9 0d3d
000000b0: daed 0a3e 01aa 0fbd 4ada 30bc d944 9ebd
000000c0: 34d6 623e d326 553e ec56 87bc 5f98 47bd
000000d0: 91c6 e83d 6653 713e 03d6 9cbd 711b 19bd
000000e0: 046f 8cbd afb0 36be 53d5 7e3d 729d d43d
000000f0: 10da 033e dab0 4fbe 4c4b 343e 5e45 06bc
00000100: 0e42 34bd b92b b3bc 4514 a7bc a7e1 db3d
00000110: d3af 5b3d f4d2 b63c 38b2 f23d f30b 383e
00000120: dc62 c33d b5a2 bd3e 7f35 10bf 4101 04bc
00000130: fd49 afbd 9230 e63d 165c 60be 213c 853d
00000140: 5dbe 163d 09cf 173e 8183 8f3c f663 1cbe
00000150: 1b31 e83b 3887 193d d1dc 903c acf0 1cbe
00000160: 608b 9b3d ed6a 80be 6ffc 473e 8655 8e3e
00000170: 727c 8cbd d5b7 17be b192 21be 45f9 323b
00000180: 08ea e63d e548 4d3d d2d3 cdbd 6134 6a3d
00000190: 3dfe 123d 17fe 83be 139a 6a3e 3516 e73b
000001a0: 9765 35bc 74ed eabc 6ca2 2abe 119c 863d
000001b0: 577e 0b3e b6e7 bdbd f301 a73d 1400 33be
000001c0: 6017 cabd 3e62 ac3c 5b30 83bc 96e9 b3bd
000001d0: 228e 013e 8d8b 89be 50b7 a43c 15e7 203d
000001e0: a1ce 733d b7c9 dabd 6ddc 48be 0d9f 20be
000001f0: 0c27 6dbe 2719 65bd a81f 0a3e 8ecc ffbd
00000200: 6e2d 793e 5deb 2ebe 0f2b a7bd 96ac 44bc
00000210: 689a c03d 0fb2 b4bc c918 14bd 8616 a43d
00000220: e914 28be c804 e5be bdaa 03be 035c 923d
00000230: f8dc 083e bc84 9fbd 9bc5 8d3d 5777 36bd
00000240: bb09 b63c a8e5 ae3c d868 afbd dd10 05bd
00000250: b092 363e d066 82bd a3d2 353e 45a4 ebbd
00000260: 3cbe 5d3d 7ef0 8cbd 3a7b 3ebe c008 123a
00000270: 2ffc 0e3e 4047 dd3b 084b 89be 5f60 02be
00000280: 26a5 71bd fbe2 1f3e 9b64 b03d 8e7e 9ebd
00000290: b919 b23d 2b9b ffbc 4965 713d aa69 16be
000002a0: de37 95bd 5803 fb3d abc1 a33d b0a5 71bd
000002b0: 9da7 653e 03e2 0ebe 26a4 81bd b0c4 333d
000002c0: 2d36 5cbd 70fc dfbd 43f0 0a3e 5c8c 8fbd
000002d0: 47ad cbba 4c9e 143c 8d17 a1bc 52d9 32be
000002e0: e38a 8bbd eca3 b43c 3f5b 50bd cbe8 6f3e
000002f0: f2aa 203e 325e 733e 37ea 2a3d d76a e3bd
00000300: da87 56bd 1cd6 8fbd 64ab 0f3d 0ca1 86be
00000310: 5be1 f0bc e19d 8fbc 72e1 a93d 5679 963d
00000320: 6dd6 563e 0cb8 89bd 5747 613e 8c3d 213e
00000330: 05b4 c93c a3f6 adbd 2d46 173b 9411 533e
00000340: dbce 193e 3452 f43a dbd1 3dbc c1e4 c93e
00000350: 3652 5abe 7e18 2a3e f1a2 ad3d 6666 5ebc
00000360: 6324 ee3d 68db 273e 8733 e93e 6064 383e
00000370: d455 f2bd 09ed 273d 62b6 8bbd 417b 303d
00000380: 40fe 2abe d5ea fb3c cea8 a0bc adfe aa3e
00000390: 4510 36bd 85c6 003a 762a f33c bd5f 263e
000003a0: 1b90 1b3e fb2a e63c 0596 66be 6bfe 67be
000003b0: 49d1 a33d bc69 ab3d bfc4 fc3c 97a5 c53c
000003c0: 169a 213e 6c8f f53d 0ba9 6e3c 8197 213e
000003d0: a4c2 bb3d 68cf ebbc 32db f03c 2af7 523c
000003e0: 1ae7 ae3d 59bc 9bbd 456c e6bc 9da4 80be
000003f0: 0e6c afbd fb21 f8bc b420 2f3d 42ad e8bd

model.0.bias f4 [32]
0.011808245 0.025233312 -0.09840128 -0.17455456 -0.10785837 0.083802186 0.038359106 0.25199112
-0.04098849 0.006021846 0.18746461 0.19184256 -0.08943535 0.014146578 -0.1610483 -0.0847241
0.20673628 0.15282871 -0.0025906265 -0.09690616 -0.036966108 0.017999325 0.02325636 0.2863345
0.05138111 -0.05974624 0.0029062598 -0.01896954 0.06120214 0.13376379 0.13064206 0.072583534
00000000: 5f77 413c 17b6 ce3c 9c86 c9bd 6ebe 32be
00000010: d9e4 dcbd 7ba0 ab3d 701e 1d3d fb04 813e
00000020: 8ce3 27bd e852 c53b b9f6 3f3e 6072 443e
00000030: e129 b7bd 0cc7 673c d8e9 24be d483 adbd
00000040: adb2 533e 217f 1c3e 80c7 29bb bd76 c6bd
00000050: c669 17bd 5273 933c 1f84 be3c 709a 923e
00000060: 0075 523d 79b8 74bd f376 3e3b 0266 9bbc
00000070: 18af 7a3d 60f9 083e 08c7 053e ada6 943d

model.1.weight f4 [32]
1.261241 0.9394948 1.3626822 0.95723224 0.94069487 1.3184458 1.3443019 1.4075338
0.94686544 1.3837734 0.9029111 0.9082397 0.8834399 1.3119458 0.8765312 0.91199934
0.89742315 0.94404596 0.9329773 1.3212906 0.89586323 0.9340428 1.2883396 0.92184955
0.93573576 1.3827186 0.9261711 1.2825505 1.2643278 1.4509494 1.3936998 1.3034127
00000000: 5870 a13f bb82 703f 5f6c ae3f 2c0d 753f
00000010: 61d1 703f d5c2 a83f 1612 ac3f 112a b43f
00000020: c665 723f 7d1f b13f 2f25 673f 6682 683f
00000030: 1e29 623f d7ed a73f 5964 603f ca78 693f
00000040: 86bd 653f ffac 713f 9ad7 6e3f 0d20 a93f
00000050: 4b57 653f 6e1d 6f3f 50e8 a43f 55fe 6b3f
00000060: 618c 6f3f ecfc b03f 8d19 6d3f 9d2a a43f
00000070: 7ed5 a13f b6b8 b93f c164 b23f 3ad6 a63f

model.1.bias f4 [32]
-0.4681048 -0.82935816 -0.40819332 -0.84229267 -0.8578097 -0.504238 -0.5060661 -0.4399743
-0.84519327 -0.43634903 -0.8190833 -0.87975186 -0.8471286 -0.46661454 -0.7997838 -0.8215424
-0.87090665 -0.87401783 -0.84259695 -0.38483164 -0.8502936 -0.8576081 -0.41402373 -0.84363395
-0.86219406 -0.45378312 -0.8297497 -0.47365716 -0.6290162 -0.38809174 -0.45577803 -0.4601376
00000000: 6fab efbe d150 54bf b7fe d0be 7ea0 57bf
00000010: 6b99 5bbf be15 01bf 8c8d 01bf 5044 e1be
00000020: 965e 58bf 2469 dfbe 71af 51bf 6b37 61bf
00000030: 6cdd 58bf 1ae8 eebe a2be 4cbf 9a50 52bf
00000040: bdf3 5ebf a2bf 5fbf 6fb4 57bf a708 c5be
00000050: d7ac 59bf 348c 5bbf ebfa d3be 65f8 57bf
00000060: c0b8 5cbf 4356 e8be 7a6a 54bf 3183 f2be
00000070: 3507 21bf f6b3 c6be bd5b e9be 2897 ebbe

model.1.running_mean f4 [32]
0.13729544 0.16350827 0.009449109 -0.091108225 0.021249186 0.12822703 0.059527293 0.35473582
0.02261939 0.06845777 0.2768196 0.1913298 0.0052164923 0.25845647 0.027105616 0.057072006
0.30913267 0.27728412 0.1761756 -0.04298852 0.17150412 0.15596843 0.018793572 0.34399915
0.11806376 -0.015985493 0.07123425 -0.07000963 0.25544554 0.29262188 0.25162503 0.15446779
00000000: 2d97 0c3e b66e 273e 70d0 1a3c f396 babd
00000010: c612 ae3c f24d 033e e4d2 733d ef9f b53e
00000020: 4d4c b93c 9633 8c3d 4cbb 8d3e f6eb 433e
00000030: 1cef aa3b 6854 843e 990c de3c 56c4 693d
00000040: a346 9e3e 2ff8 8d3e 6067 343e bb14 30bd
00000050: c79e 2f3e 30b6 1f3e faf4 993c a820 b03e
00000060: 6acb f13d 02f4 82bc 43e3 913d 3561 8fbd
00000070: c2c9 823e 89d2 953e ffd4 803e ce2c 1e3e

model.1.running_var f4 [32]
0.0033150108 0.0034447496 0.0037429887 0.003503645 0.0038892 0.003344327 0.0038380674 0.003955105
0.0031147872 0.004712047 0.0037561639 0.002790796 0.003027213 0.0030753727 0.0037278426 0.004232298
0.0025034514 0.0035396249 0.0035301335 0.004517012 0.002855114 0.0033894905 0.0040278067 0.0031704044
0.0031094446 0.004202651 0.003041203 0.0036241573 0.0034085263 0.0036663804 0.0043242318 0.003758836
00000000: a740 593b 4fc1 613b ee4c 753b 699d 653b
00000010: f3e1 7e3b 7f2c 5b3b 1688 7b3b d399 813b
00000020: 7521 4c3b 8467 9a3b f929 763b cae5 363b
00000030: 3564 463b 318c 493b d24e 743b 17af 8a3b
00000040: f210 243b 0df9 673b d059 673b 7103 943b
00000050: dd1c 3b3b 3722 5e3b b1fb 833b 8fc6 4f3b
00000060: d3c7 4b3b 64b6 893b eb4e 473b 4583 6d3b
00000070: 9561 5f3b a847 703b 49b2 8d3b ce56 763b

model.4.weight f4 [2, 32]
0.7923924 -0.61139655 0.6945476 -0.5949844 -0.76966435 0.72478586 0.5922576 0.6081406
-0.76779807 0.56566983 -0.6492098 -0.63226014 -0.75472957 0.57554513 -0.7403501 -0.82918537
-0.74521184 -0.77366906 -0.6406483 0.80430377 -0.534502 -0.80688214 0.7825298 -0.69099313
-0.72499037 0.71168655 -0.6707143 0.7279458 0.6562649 0.61896414 0.5284746 0.6849121
-0.60429597 0.6974322 -0.62137467 0.7111212 0.6611947 -0.61990505 -0.76970077 -0.59548545
0.6315257 -0.793777 0.77487487 0.73728216 0.7014036 -0.7816117 0.73144275 0.86068493
0.57312644 0.63837093 0.7784385 -0.8341799 0.71098953 0.59532857 -0.7157379 0.5809703
0.70160246 -0.64981264 0.7281826 -0.8510417 -0.7164177 -0.6381281 -0.81698465 -0.81587625
00000000: 3ada 4a3f 7c84 1cbf dfcd 313f e650 18bf
00000010: b908 45bf 918b 393f 329e 173f 1aaf 1b3f
00000020: 6a8e 44bf bdcf 103f 9d32 26bf cddb 21bf
00000030: f535 41bf ed56 133f 9687 3dbf 7e45 54bf
00000040: 34c6 3ebf 2d0f 46bf 8701 24bf dae6 4d3f
00000050: 20d5 08bf d48f 4ebf df53 483f ede4 30bf
00000060: f898 39bf 1731 363f efb3 2bbf a85a 3a3f
00000070: fa00 283f 6f74 1e3f 1d4a 073f 6656 2f3f
00000080: 24b3 1abf eb8a 323f 6912 1fbf 0a0c 363f
00000090: 0e44 293f 19b2 1ebf 1c0b 45bf bc71 18bf
000000a0: abab 213f f834 4bbf 335e 463f 86be 3c3f
000000b0: 308f 333f b417 48bf d53f 3b3f d955 5c3f
000000c0: 6ab8 123f 476c 233f bf47 473f d08c 55bf
000000d0: 6903 363f 7467 183f 993a 37bf 78ba 143f
000000e0: 389c 333f 1f5a 26bf 2d6a 3a3f dedd 59bf
000000f0: 2667 37bf 5d5c 23bf e825 51bf 44dd 50bf

model.4.bias f4 [2]
0.28967842 -0.41510904
00000000: bb50 943e 2c89 d4be
