trained_models/run28.pth (torch, 135403 bytes, 8 tensors)

model.0.weight f4 [32, 1024]
00000000: b34f e8bc 2bd7 343c 9743 1c3d 79d4 16bd
00000010: 5b0a 2d3d ba44 2abd 6136 003d e11a 653d
00000020: 25a3 9f3d d424 58bd b7f7 b03d 66bc 0fbb
00000030: 715c 8d3d 538d 7f3d 5c19 b13a fde4 bebd
00000040: 8e13 a33c 1dac f7bd 1085 193d 043b b73c
00000050: e4da 76bd 1d41 8bbd 85ab 87bd 9f59 ba3c
00000060: 2a98 7a3d 3a67 1cbd 7cb4 003e 6fc9 803d
00000070: e65f 8a3d f42a 193d dcca 9b3d 86a4 31bc
00000080: 0bba a33d c762 3fbd 6ef5 d63c d338 2c3d
00000090: 7093 ef3c 625b 13bd 1a1b 6ebd e664 83bd
000000a0: 46d4 7dbd f0a4 82bc 777a 0fbd d557 a5bd
000000b0: 1e63 993a 259b 1d3c 3cd8 0c3d 1516 8b3c
000000c0: 692f de3d 84ba 773d 4da0 c4bd 79c8 c4bd
000000d0: 3052 ea3b db42 003d 03b7 05bd cc6c a33c
000000e0: 93b1 c8bd 073e 9abd 5e79 3f3d fb79 273d
000000f0: 076c a83d 00be 3dbd 5808 e3bc b68e 50bc
00000100: a0b2 703d e9a0 22bd bb68 163c 3e09 983d
00000110: ae43 3e3c f646 463c 61a7 703b fbed a7bc
00000120: 69d5 183d 138f 32bc 007f 3ebe fe65 0abc
00000130: 1da3 86bd 5bc0 d53c feca 07be 19dc 503d
00000140: 5295 bbba 21ce 67bc a584 a3bd bdf9 98bd
00000150: ebb0 be3b a8c1 303c 12fb 9d3c dfaa f63c
00000160: dea0 983d ef19 893b e7d0 ae3d c542 c63d
00000170: f84e 16bc 8765 eb3b ff10 2fbd c7a1 143d
00000180: 87ab 333c 6372 933d 9f6a 173d fdc2 1c3c
00000190: 17b2 c7bc 3c50 1a3c e640 d53c 34bb 823c
000001a0: 6cae 1fbd 4b14 97bd b4ef cabd 1ff8 36bd
000001b0: efb3 be3c 75bf 4cbc f549 1cbd acdb 7ebd
000001c0: a550 4fbd 6ebf 373c 7e15 84bb b85c bdbc
000001d0: 75af 373d 55ce d8bc 6c41 44bd 6356 39bd
000001e0: 2cab 6e3b 662d 83bd ae91 e7bd afbc afbb
000001f0: 188e 53bd 7fa8 523d 33aa fb3b aab5 20bd
00000200: 5381 cb3d e0ad f1bc 8ed9 443c 0319 9dbc
00000210: 0354 67bd bfb0 4a3c a7ae 8b3d 8ed8 023d
00000220: ba38 23bd 9cf2 cabd 2c80 f53c a3ed 7e3d
00000230: b82b a63c deb2 febc ca4f 31bc aeef 953c
00000240: b82c debc 7bb3 32bd 957b 5e3d 3d08 5f3d
00000250: aac8 673d 91b2 3abd 4371 a43d 67fe cfbd
00000260: d27e 41bd a12e 4a3c 577f 4cbd 463a 9638
00000270: 8916 883b 9f2b 9bbc edb6 c0bd 8e12 e2bb
00000280: 232c 713d e5d3 9b3d ba1e 573b 73ac d9bc
00000290: fa74 363d 764a 48bd 18f8 eb3c 6e3a 8bbd
000002a0: 49c6 263d 1260 263d 2f69 94bc c72a fd3d
000002b0: 51eb 0b3e c5f8 0e3c c03f 8cbc c2b2 84bd
000002c0: f307 cc3c c984 9ebd e196 d43b e364 863d
000002d0: ec1f 35bd f25a 94bd bfa9 293d 635f aabb
000002e0: 312e 67bc 9690 653d d86f 98bd bd2c 123c
000002f0: 34b4 663d 6e0a 173d a4da 41bd 36d5 b93c
00000300: 731a a5bc c5b5 dfbc 80cb ee3c 5677 dabd
00000310: b873 6f3d 15fe 2abd 84fb d3bc 4d50 b03d
00000320: bacb f63b 54b2 343d 7132 dd3c b798 a9bc
00000330: d7e4 323c 2ca6 02be 1e5a 583c 78a0 15bd
00000340: 032a 69bd 98a7 c23c 0b87 393d 95f4 0c3e
00000350: c9c7 00bc cf9d a3bd ccd4 613d 12e3 f23c
00000360: eebf 013d 5d15 e03c a459 cf3d 9fa5 c23d
00000370: cfda 133d 59e6 223d 559f 29bc 25e6 3abd
00000380: 245b 75bd b338 8fbc 039c 2fbd 315e 593d
00000390: 2f2c 96bc c5ec c4bc 6995 063d 357b a03c
000003a0: edcc f23d 78b1 963d a324 ad3d bc1b aa3c
000003b0: f9c7 dd3b 8b09 1c3d d86e 403c 673d 023d
000003c0: 717f 42bd 30fc 85bd 1bb3 163d 8904 b8bb
000003d0: 12c9 4a3a 9691 cebd 66c4 3c3d 97d9 bdbd
000003e0: d6f2 583c 63f4 f23c 2057 ad3c a6d2 01be
000003f0: ba18 0a3d 8af1 653d 3585 3a3c 38a3 303d
-0.028358316 0.011037628 0.038150396 -0.036823723 0.042246204 -0.04156945 0.03130186 0.055933837
0.07794789 -0.052769497 0.08640998 -0.0021932363 0.069023974 0.062390637 0.0013511586 -0.0932102
0.019906785 -0.12093375 0.037480414 0.022367008 -0.060267344 -0.06799529 -0.06624512 0.022747813
0.06118027 -0.038184382 0.1256885 0.062884204 0.067565724 0.03739448 0.07607052 -0.010842448
0.07994469 -0.04672506 0.026240077 0.04204638 0.029245108 -0.03597582 -0.058131315 -0.06415729
-0.061970018 -0.015947789 -0.0350289 -0.08073393 0.0011702513 0.009619509 0.034385905 0.016978303
0.108488865 0.06048061 -0.096008874 -0.096085496 0.007150911 0.03131376 -0.032645237 0.01994934
-0.097994946 -0.07531362 0.046746604 0.040887814 0.082237296 -0.046323776 -0.02771394 -0.012729337
0.0587641 -0.039704237 0.009180243 0.07423638 0.011612816 0.012101879 0.003672086 -0.02049922
0.0373129 -0.010898369 -0.18603134 -0.008447168 -0.0657408 0.026092699 -0.13261029 0.05099115
-0.0014311469 -0.014148266 -0.07984284 -0.07469509 0.00581943 0.010788359 0.019284759 0.030110775
0.07452558 0.0041839997 0.08535939 0.09680704 -0.009174101 0.007183734 -0.042740818 0.036287095
0.010966188 0.07199552 0.036966916 0.009567973 -0.024376912 0.009418543 0.026031923 0.015958406
-0.0389847 -0.073769175 -0.09909001 -0.04467022 0.023279158 -0.012496819 -0.03815647 -0.062221214
-0.050614018 0.011215074 -0.0040308824 -0.0231155 0.044845063 -0.026465574 -0.047913954 -0.0452484
0.0036417944 -0.064051434 -0.11307083 -0.005363069 -0.051649183 0.05143022 0.0076802014 -0.03923575
0.09936776 -0.029501855 0.01201476 -0.019176966 -0.056476604 0.012371241 0.06820422 0.031944804
-0.03984902 -0.09909555 0.029968344 0.062238347 0.020284519 -0.03109115 -0.010822246 0.018302765
-0.027120933 -0.043628197 0.054317076 0.054451216 0.056587853 -0.04558045 0.080294155 -0.10155945
-0.047240086 0.012340219 -0.04992613 7.163412e-05 0.004153077 -0.018941699 -0.0940989 -0.0068991845
0.058879983 0.07608775 0.003282471 -0.026571488 0.04454515 -0.048899136 0.028804824 -0.06798254
0.040716443 0.040618964 -0.018116562 0.12361675 0.13663985 0.0087263035 -0.017120242 -0.06479408
0.024906134 -0.077401705 0.0064877127 0.06562211 -0.044219896 -0.07243909 0.041421648 -0.0051993593
-0.014110134 0.05604609 -0.074432075 0.008921799 0.0563242 0.03687518 -0.047327653 0.022684675
-0.020154214 -0.027308354 0.02914977 -0.10667293 0.058459967 -0.041746218 -0.025876768 0.08609066
0.0075316103 0.04411538 0.027001591 -0.020702703 0.0109188175 -0.12758702 0.013205079 -0.036529988
-0.05692483 0.023761556 0.045294803 0.13765176 -0.0078601325 -0.07989084 0.05513458 0.029649291
0.03167718 0.027353937 0.101245195 0.09504246 0.036097344 0.039770458 -0.010352929 -0.04562964
-0.05990137 -0.017483091 -0.042873394 0.053068344 -0.018331615 -0.024038682 0.032857332 0.01959
0.11855493 0.07358068 0.084542535 0.020765178 0.0067682234 0.03809504 0.011745177 0.03179684
-0.04748482 -0.065422416 0.036791902 -0.005615775 0.000773565 -0.10086362 0.046085738 -0.092700176
0.01324149 0.029657548 0.021159708 -0.12678012 0.033714987 0.056138553 0.011384298 0.043124408

model.0.bias f4 [32]
00000000: 0c5c 16b8 6525 1138 a4f0 4cb8 b031 bbb8
00000010: 38cd 9638 9d95 3137 e4d8 7cb8 f3c6 43b8
00000020: 0a3e a1b7 9686 f638 11a5 00b9 b5e1 8c38
00000030: d92c f338 6a61 8239 dad4 65b7 4a73 6238
00000040: c68b 7639 000e 2fb7 9a0b f4b7 542f 7a39
00000050: 4679 b638 d48b bcb8 8b9e 2bb8 266f 11b9
00000060: 32ee 64b8 2855 f3b8 3548 2638 e52b 4738
00000070: 40c3 53b8 a7cd 1439 a8ee 14b8 802f bcb4
-3.5848512e-05 3.460552e-05 -4.8861504e-05 -8.92611e-05 7.190782e-05 1.0584857e-05 -6.0283477e-05 -4.667691e-05
-1.9221585e-05 0.00011755263 -0.00012268523 6.7177614e-05 0.000115954965 0.0002486811 -1.3699022e-05 5.398997e-05
0.00023512458 -1.04340725e-05 -2.9092469e-05 0.00023859489 8.701025e-05 -8.9905836e-05 -4.091723e-05 -0.00013869684
-5.4581273e-05 -0.000116030045 3.9644732e-05 4.7486177e-05 -5.048816e-05 0.00014190991 -3.5508216e-05 -3.505229e-07

model.1.weight f4 [32]
00000000: 4f2d b03f 4b1f 6c3f 247d 9a3f a02b 8b3f
00000010: e7ca 863f 5d00 903f ae96 8d3f a3cb 973f
00000020: d6e8 2b3f efa6 ae3f 6189 743f 9c78 8d3f
00000030: ddf6 943f ead8 a33f f50c 6e3f 931d 9a3f
00000040: 793a 833f 91aa 5c3f 0d08 843f 2452 a73f
00000050: 7a19 783f 9a6c 563f 3cfe a43f 90e5 763f
00000060: ce37 853f 12f8 a23f 43fd 793f 5786 9e3f
00000070: 9d90 8a3f cff1 ab3f 9378 9a3f a6c6 8c3f
1.3763827 0.9223525 1.206944 1.0872688 1.0530671 1.1250111 1.1061609 1.185902
0.67152154 1.3644694 0.95522124 1.1052432 1.1637837 1.2800572 0.9298852 1.2040275
1.025222 0.86197764 1.0314957 1.3071942 0.96913874 0.8375946 1.2890086 0.96444035
1.0407655 1.2731955 0.9765207 1.2384747 1.0825382 1.3433169 1.2068046 1.0998123

model.1.bias f4 [32]
00000000: cf83 b2bd ecc5 0dbe 6482 1bbe 9f5f 92be
00000010: c034 48be 89b6 2ebe b23e dcbd 1e5d 24be
00000020: 89cb 42be a277 d5bd f2dc 25be ee43 5cbe
00000030: 0dcc 95be 53c9 80bd fdef 1cbe f839 60be
00000040: ed0e 87be 215c 1ebe 005c 7bbe a7ec 9dbd
00000050: c6ab 3dbe 3371 6cbe e4e5 b8bd 7ac2 7abe
00000060: 5a58 60be a5c9 16be 0f6c 2dbe 11e9 2fbe
00000070: e5f4 47be b91d febd 801c 30be a237 a3bd
-0.08716547 -0.13845032 -0.15186459 -0.28588578 -0.19551373 -0.17061819 -0.10754146 -0.16051146
-0.19022955 -0.10423209 -0.16197565 -0.21510288 -0.2925724 -0.062883995 -0.15325923 -0.21897113
-0.26378575 -0.15464832 -0.24546814 -0.077111535 -0.18522558 -0.23090057 -0.09028223 -0.2448825
-0.21908703 -0.14725359 -0.16935752 -0.17178752 -0.19527014 -0.12408013 -0.17198372 -0.079695955

model.1.running_mean f4 [32]
00000000: 0b6a 1fbc 77db a43c 21c9 5f3d 1704 263d
00000010: ac64 1a3d 0b88 bd3c 11eb 9fbd 59bf 8e3c
00000020: 2aca 81bd 180a fcbb f7b2 653c a598 1dbd
00000030: dfa2 91bd 15d1 393d aa58 bfbc da99 083d
00000040: 6f55 023c 5feb 4d3d 3c42 183d 83cc 953d
00000050: 7865 b9bb 4456 b2bc acf2 92bd edbc 833c
00000060: 066f 81bd d513 063c 1cea 56ba 1417 bd3b
00000070: 028f 993d a6f9 453d 521c 913d 46e2 acbc
-0.009729872 0.02012418 0.05463517 0.040531244 0.037693664 0.02313616 -0.07808507 0.017425226
-0.06337388 -0.007691633 0.014019719 -0.03847565 -0.07111143 0.04536541 -0.023357708 0.03334985
0.007954939 0.050273295 0.03717254 0.07314398 -0.005657848 -0.02176965 -0.07175192 0.016081298
-0.06320004 0.008183439 -0.0008198337 0.0057705734 0.0749798 0.048333786 0.0708548 -0.02110399

model.1.running_var f4 [32]
00000000: ce19 3c3a eae2 273a 53bb 293a 5a5f 0a3a
00000010: 5d1e 163a b9bf 2a3a 4ff1 1a3a c25d 2e3a
00000020: 3d1c c739 7562 4c3a 20c7 063a aeff e039
00000030: 472a 243a 558d 283a c9ff 123a 6585 1f3a
00000040: 3f1d f639 cb53 273a 40c1 1c3a 40de 343a
00000050: 3f15 ec39 38ff fb39 36a9 433a e213 f139
00000060: dabb dd39 da8a 2b3a 986c fe39 bc8d 293a
00000070: 10ca 1b3a b79e 3b3a 4876 283a 000e 363a
0.0007175476 0.0006404357 0.0006474752 0.0005278491 0.00057265704 0.0006513554 0.00059105916 0.0006651544
0.00037977277 0.00077966537 0.0005141366 0.00042915106 0.00062624033 0.00064297515 0.0005607573 0.0006085246
0.00046942566 0.00063830306 0.0005979724 0.0006899573 0.00045029257 0.00048064603 0.0007463874 0.00045981916
0.00042292365 0.0006543823 0.00048527564 0.00064679584 0.00059428904 0.0007157134 0.00064263167 0.0006944835

model.4.weight f4 [2, 32]
00000000: 87ff 7a3f d8b0 21bf 6103 5c3f 3915 48bf
00000010: f522 41bf c843 503f 854c 443f 82da 553f
00000020: e302 efbe 4007 753f 80ae 2cbf 8d48 47bf
00000030: 6ba1 57bf a527 623f 1248 28bf 22a2 5cbf
00000040: f028 3dbf 9261 1abf bdbe 3cbf 7669 6b3f
00000050: 0077 2dbf cc99 1abf 636c 683f 5c4d 34bf
00000060: 7cc0 3ebf 93dc 673f 4a84 2ebf 37dc 5f3f
00000070: 1797 433f 289b 713f 1d2d 563f 4bd2 423f
00000080: 78c9 75bf 7beb 233f 65e5 5abf a99c 4a3f
00000090: 1b4c 3e3f 7dbf 4ebf 207f 47bf d29d 55bf
000000a0: 40da eb3e f641 79bf 97ef 2e3f 7ca2 4a3f
000000b0: f8bb 553f 56a8 68bf 5f19 283f f198 5d3f
000000c0: 2f81 393f 3841 173f e9a3 3f3f 293a 6cbf
000000d0: 0ac6 303f d512 173f 9503 67bf cb7d 323f
000000e0: 3945 3e3f aae1 66bf 9010 303f 0c03 62bf
000000f0: c2ea 44bf 0119 72bf 5686 5dbf ffa3 45bf
0.98046154 -0.6316047 0.85942656 -0.78157383 -0.75443965 0.81353426 0.7667926 0.8353654
-0.4668189 0.9571419 -0.67453766 -0.7784508 -0.8423068 0.8834174 -0.6573497 -0.86184895
-0.7389059 -0.6030513 -0.73728544 0.91957796 -0.67759705 -0.60390925 0.90790385 -0.7043054
-0.7451246 0.90570945 -0.6817061 0.87445396 0.7640242 0.94377375 0.8366259 0.7610213
-0.9601054 0.6403119 -0.8550628 0.79145294 0.7433488 -0.8076094 -0.7792835 -0.8344394
0.4606495 -0.97366273 0.68334335 0.7915418 0.8348994 -0.9088186 0.65663713 0.86561495
0.72462744 0.5908389 0.7485948 -0.92276245 0.69052184 0.5901311 -0.9023984 0.69723195
0.74324375 -0.90188086 0.6877527 -0.882859 -0.7692071 -0.945694 -0.86533105 -0.77203363

model.4.bias f4 [2]
00000000: fae6 093d 7fe4 97bd
0.033667542 -0.07416629
