trained_models/run33.pth (torch, 135403 bytes, 8 tensors)

model.0.weight f4 [32, 1024]
00000000: fd98 9f3d 68db f0bd 931b cb3d bd7f a6bd
00000010: 31e5 52be 30bc 083e a6c0 b13b 21ac ec3d
00000020: 1e77 383e d19e 563c 7414 393c ed7e e03d
00000030: c504 793e 00ee 863d 0aaf a13e f838 0abe
00000040: ae44 82bc 2074 74be d137 13bd 0a80 ad3c
00000050: 024f 08be 1a0b ef3c a243 f4bd c861 a43d
00000060: c6ad 5f3e f9e0 a0bd 224e ab3d 4092 6fbb
00000070: a370 0dbd ba35 25be 5cea 5ebd d5c3 da3c
00000080: 6dde 4f3d fbaa 04bd 3add 133e 9186 8d3c
00000090: 359a 033d 837b dbb8 adcd d6bd d60b ae3d
000000a0: 272e 5ebd d664 babd 6d8c 3abd e404 533d
000000b0: 61d0 8c3c 1e9f 03be f96f edbc 44a2 ac3d
000000c0: c62d df3d 8f3d 083e b993 33be 4215 b93a
000000d0: a9b6 6abe 7ea4 d53d f0c9 29be a35e f43d
000000e0: 431a b33d 2af2 e7bd 312b 393d 26ee 913d
000000f0: 0472 9b3e 9c39 603d 7ea7 8b3d 2b1b b63d
00000100: 31f5 a7bd 092d 14bd 28ef e63d 2847 af3d
00000110: c6bd 12bd ef79 39be 55b7 2a3e 8e4f f23d
00000120: 41ba 123e 1638 243e 2a32 9bbe e65d 12be
00000130: ddb6 ca3c 29ae f0bd 9fd9 81be 06a8 bd3d
00000140: 20f3 853e 5982 af3c 9ee6 303c 0b3a 5bbe
00000150: 4f6f a4bd c0fa 02bc ed6a 7c3e 7fd0 dbbd
00000160: 9779 2e3d 645d 26be 4ff3 463d 676b ae3d
00000170: 21a0 063e bb07 0e3c 05f9 bfbd b049 b1bd
00000180: 63ec 8dbc eefe 92bd dd2d aabd 4590 87bc
00000190: 686b c23d 85ea e33b 7c15 203e 3e13 033e
000001a0: d58c 473e c5a0 ccbc b54a f83b 643b 143e
000001b0: 9d55 97bd 7017 d53c f394 5c3c 3598 9fbe
000001c0: 6e60 27bd ac35 c33d f9d3 d4bd fe0c 073e
000001d0: d648 b73c 7ec5 3abe 22cd 0ebd ec01 303e
000001e0: cb67 a43d 87c6 90bd 45fc 25be 7309 c8bd
000001f0: 2151 0a3d 813a 963e 3943 dabb ae03 aebd
00000200: 7a88 1c3e a5f4 c73b d81f ca3d 82fd 46be
00000210: 6fc3 833e 2246 e13c ae7a 52bd dce7 e93c
00000220: 5cae c2bd 138d 99be 87bf 4abd 1dd8 0b3c
00000230: 117e 113e c8df c8bc c727 d13c c0b4 203e
00000240: 289c 933e 5655 4bbd 3668 a53c ba18 78be
00000250: f613 7f3d 72ed 603d 7a30 d23d c88a 0b3e
00000260: bb35 ca3b 92bb 57be f5e7 5f3c 4d03 fcbd
00000270: 2007 b13e d7cb 05be 7cfd 72bc bd3a b6bd
00000280: cb1e 1a3d b04c 8bbd 4c79 613d a294 f6bd
00000290: 9251 49bc a87b aabc 20ae f03d 16d1 febd
000002a0: d2ca 8dbe 7fca 69bd a424 993d fc39 9dbd
000002b0: d42c 1ebe 5981 37bc 1737 06be 6453 f0bd
000002c0: c961 403d 492e 613e acfb e43d cc2a ba3d
000002d0: a652 723e b3a2 21be 438f d93d 763a 9d3d
000002e0: 5e24 b039 f36f 6fbd c97d 613d 7a74 cf3d
000002f0: d686 103d 486c 473e c049 a03b 32ac d23d
00000300: 39f4 babd 11cf 5b3d 5d16 1bbd a352 52be
00000310: 3005 5e3e 1e95 e1bc 5fc0 533e 9d1c 2abd
00000320: b78f 2f3e b4ed 01be 049f c13d 829a 853d
00000330: 731b 9ebd 0c9d 3c3c b695 88bd daf5 69be
00000340: 4556 733d 298c 37be 8da6 933d 75e6 483e
00000350: 31d7 30be ef77 53be 611b 75bd 63c3 213e
00000360: 6150 943c 14df b13d 67fd 6f3e 534c 293d
00000370: aaa7 13be 6f56 49bd 0eba 1fbe de21 9ebc
00000380: 0ed9 54bd b02b 813e 1e3e 453d bb02 943c
00000390: 9b26 80be e3f6 babd f5ae 41be fffb 103e
000003a0: 7a4a 5d3d 8297 723d fd27 d9bd e2f6 cbbd
000003b0: fbe7 d93d 9e28 43bd 0b44 93be 528e 82be
000003c0: 6f77 1bbe cb5a 863e 3abb 063c 35b0 723e
000003d0: 384a 80bd 0927 7cbe e9be 43bd c52a 4d3e
000003e0: f465 5abe c03d d3bd 2f32 7f3c 93b6 56be
000003f0: 2b06 4d3c afe1 093e 71c8 4c3b e059 01be
0.07792852 -0.117605984 0.09917369 -0.08129833 -0.20595242 0.13353038 0.005424577 0.115562685
0.1801419 0.013099388 0.01129638 0.10961709 0.24318226 0.06588364 0.31578857 -0.13498294
-0.01590189 -0.23872423 -0.035941903 0.021179218 -0.13311389 0.029180098 -0.119269624 0.08026463
0.21843633 -0.0785541 0.08364512 -0.0036555678 -0.034531247 -0.16133776 -0.05442272 0.026704708
0.05074923 -0.032389622 0.1443986 0.01727608 0.032129485 -0.000104657396 -0.10488448 0.08498351
-0.054243233 -0.09101264 -0.045544077 0.051518336 0.017189207 -0.12853667 -0.028984057 0.08429387
0.108974025 0.13304733 -0.1753682 0.0014120715 -0.22921242 0.10431765 -0.1658094 0.11932113
0.087452434 -0.11325486 0.045207206 0.07125501 0.30360425 0.05474244 0.06819056 0.08891901
-0.082010634 -0.03617576 0.11276084 0.08558494 -0.035825513 -0.1811292 0.16671498 0.1183158
0.14328863 0.1603702 -0.3031171 -0.14293632 0.0247454 -0.117519684 -0.25361344 0.092605636
0.26162052 0.02142446 0.010797171 -0.2140886 -0.08029043 -0.007994354 0.24650164 -0.10733127
0.042596426 -0.16246563 0.04857188 0.08516579 0.13147022 0.008668835 -0.093736686 -0.08656633
-0.017324632 -0.0717753 -0.08309529 -0.016548285 0.09493142 0.006955447 0.15633196 0.12800309
0.19487317 -0.024979005 0.007577265 0.1447578 -0.07389376 0.026012152 0.013463247 -0.31170812
-0.040863447 0.095317215 -0.10391993 0.1318855 0.022373598 -0.182394 -0.0348636 0.17188233
0.080276094 -0.07069116 -0.16209514 -0.09767427 0.033768777 0.2934151 -0.0066608456 -0.084967956
0.15286437 0.006102162 0.09869355 -0.19432643 0.25735041 0.027499262 -0.051386528 0.028552942
-0.09505913 -0.29990444 -0.04949906 0.008535412 0.14208247 -0.02452077 0.025531663 0.1569395
0.28830075 -0.04964193 0.020191293 -0.24228182 0.062274896 0.054913945 0.102631524 0.1362716
0.006170956 -0.21067646 0.013666143 -0.12305317 0.34575748 -0.1306604 -0.014830943 -0.08897922
0.037627023 -0.06801736 0.05504732 -0.12040068 -0.012287514 -0.020810917 0.11751962 -0.12442224
-0.27693802 -0.05707788 0.07477692 -0.07677075 -0.15446788 -0.0112002725 -0.13106953 -0.117346555
0.046968255 0.21990313 0.11180815 0.09090194 0.2366434 -0.15784721 0.10623028 0.07677166
0.00033596432 -0.058456372 0.0550516 0.10129638 0.03528484 0.194749 0.004891604 0.1028675
-0.09128613 0.05366427 -0.037863124 -0.20539336 0.21681666 -0.027536925 0.20678852 -0.041531194
0.17144667 -0.12688333 0.09454158 0.06523611 -0.07720079 0.011512052 -0.0666918 -0.22847691
0.059408445 -0.1792456 0.072095014 0.19619162 -0.17269589 -0.2065122 -0.059840564 0.1579719
0.018104734 0.08685127 0.23436509 0.041332554 -0.14419428 -0.049154695 -0.15598318 -0.019303259
-0.051964812 0.25228643 0.048154943 0.018067708 -0.25029454 -0.09129121 -0.18914397 0.14158629
0.054026105 0.05922652 -0.1060333 -0.099591985 0.1063995 -0.047646157 -0.2876285 -0.25499207
-0.15182279 0.26241145 0.008223349 0.2370003 -0.06264156 -0.24624266 -0.047789488 0.20035847
-0.21327955 -0.10314512 0.01557593 -0.20968084 0.012513678 0.13464998 0.0031247402 -0.12631941

model.0.bias f4 [32]
00000000: 0e7d 1c3e 7df4 2c3d 412a b0bc c30e be3d
00000010: 870c 56bd 7656 2cbe 386f 183e d739 323d
00000020: a50c 6dbd b7e7 883e 7d01 a7bd 8dab ca3d
00000030: 3d0d 46bd f090 b93d 3bb2 31be 71d6 3a3e
00000040: 921c ff3d 04c5 09bd 6618 41bd 7cb5 babc
00000050: 06f6 dabb 5be9 193d 19d7 f23d 5f9f 083e
00000060: c0fd 9b3c 7deb 46be 5427 7a3c eb07 283e
00000070: 5fcf 1d3a 4ffb 1d3e 89d6 fd3c fb2d 123e
0.1528208 0.04222535 -0.021504523 0.09280159 -0.05225804 -0.16829857 0.14886177 0.04351219
-0.057873387 0.26739284 -0.08154581 0.09896002 -0.04835247 0.09060848 -0.17353146 0.18245865
0.12456621 -0.033635154 -0.04714241 -0.022791617 -0.0066821603 0.03757606 0.11857433 0.13342045
0.019041896 -0.19425769 0.015268166 0.1640927 0.00060199754 0.15427898 0.030986087 0.14275353

model.1.weight f4 [32]
00000000: 1745 a73f 10bc 703f cf9d ac3f f2e9 753f
00000010: dba6 6c3f 7103 763f 1b03 b23f 878b b03f
00000020: af87 673f 4fff b23f 62f7 653f 9e45 693f
00000030: b239 603f 0c49 a03f f7d0 5e3f 98b7 603f
00000040: f7f9 683f 6233 6c3f 0a05 653f 6ae9 9e3f
00000050: 5abb 5f3f 81a1 6e3f cd72 a03f 7200 6b3f
00000060: a0af 6f3f bc91 ad3f 952a 6b3f 6c96 9f3f
00000070: be99 ae3f c14e b63f ecd5 ab3f 6c5b ab3f
1.306796 0.9403696 1.3485659 0.960601 0.924421 0.96099 1.3907198 1.379258
0.9044141 1.3984164 0.898306 0.9112185 0.87588036 1.2522292 0.87037605 0.8778014
0.91006416 0.92265904 0.89460814 1.2414982 0.8739525 0.93215185 1.2535034 0.91797554
0.9362736 1.35601 0.9186185 1.246778 1.3640668 1.4242784 1.3424659 1.3387275

model.1.bias f4 [32]
00000000: 5aeb eabe 88e0 5ebf a5f2 dbbe 72d5 5cbf
00000010: 4bee 5dbf 9f38 67bf 071e edbe f5e8 fcbe
00000020: 466d 5ebf 473b e7be 33f9 4fbf 9d0e 60bf
00000030: 32c6 5ebf b4ed 0bbf 39b5 56bf 492f 58bf
00000040: 8ec7 60bf 9047 64bf 62dd 60bf 714e debe
00000050: 146b 6cbf 9eea 5ebf 27be f1be dca2 5bbf
00000060: 6047 5abf d384 eebe f998 5cbf c3f2 ffbe
00000070: 431e f4be 266b dfbe 3bd2 09bf 59f4 dcbe
-0.45882684 -0.8706136 -0.4295856 -0.8626319 -0.8669173 -0.9032077 -0.46311972 -0.49396482
-0.8688549 -0.45162413 -0.8123962 -0.875223 -0.8702117 -0.5465958 -0.83870274 -0.8444715
-0.87804496 -0.89171696 -0.87837803 -0.4341922 -0.9235089 -0.8707675 -0.47215387 -0.8579538
-0.8526516 -0.46585712 -0.8617092 -0.499899 -0.47679338 -0.43636435 -0.5383641 -0.43155172

model.1.running_mean f4 [32]
00000000: 6597 a23d ee84 073d 937e 423e f0f9 673e
00000010: 47cd c83b 24ce b9bd 3882 473e 178b a43d
00000020: 870d 9c3d 1056 a03e 9474 e13d 58a7 193e
00000030: d146 903d 7008 253e 0d88 463c 80a4 ae3e
00000040: f295 7d3e 789a c3bc 2379 223d febe 083d
00000050: fa02 fe3d ef70 2b3e f802 383a 8e70 733e
00000060: 0df2 113e 6370 79be f39c d83d 27e5 0e3e
00000070: fe9e 78bd 41c6 623e e36f 5b3e 4a18 323e
0.079390325 0.033085756 0.18993597 0.22653937 0.0061279866 -0.09072521 0.19483268 0.08034342
0.07619768 0.3131566 0.11008564 0.15005243 0.07044757 0.161165 0.012117398 0.3410988
0.24764231 -0.023877367 0.039666306 0.03338527 0.124029115 0.167423 0.00070194853 0.23773405
0.14252491 -0.24359278 0.10576811 0.13954602 -0.0606985 0.2214594 0.214294 0.17392078

model.1.running_var f4 [32]
00000000: 4474 8c3b 4919 823b 5b4a 8b3b f661 5f3b
00000010: 0660 453b 45ed 7c3b f29b 933b 9ebc 593b
00000020: a4dc 313b bd57 823b 2f35 363b 7a19 233b
00000030: e699 343b 21d6 493b 9631 373b 56ca 513b
00000040: 80a3 3e3b 18c4 313b 027c 4b3b 08a8 5b3b
00000050: 1236 5e3b acd9 523b 3a78 793b bc8f 573b
00000060: a96d 603b 958d 413b df66 903b 85b1 373b
00000070: f1d9 653b 01cc 813b 282e b03b 9304 5b3b
0.004286321 0.0039702994 0.004250807 0.003408549 0.003011705 0.0038593572 0.004504674 0.0033223997
0.0027139569 0.0039777444 0.0027802696 0.0024887011 0.002755755 0.0030797797 0.002795314 0.003201147
0.0029089153 0.0027124938 0.0031049256 0.0033516902 0.003390674 0.00321732 0.0038066045 0.003289207
0.003424505 0.0029533852 0.0044067944 0.0028029394 0.003507253 0.0039610867 0.005376596 0.0033419474

model.4.weight f4 [2, 32]
00000000: be2d 553f b917 30bf 5dfd 363f c4e2 2dbf
00000010: 31d3 3dbf 6ddb 20bf c611 113f e711 2a3f
00000020: e23b 35bf ba85 123f 9bd0 15bf 7899 17bf
00000030: fbcb 41bf 75bd 1c3f a6c7 45bf 7e8e 41bf
00000040: d6f2 4fbf 1c4a 3cbf 9d46 1dbf eab6 3a3f
00000050: 8d8e 28bf 9ab6 4fbf 7ff3 523f 62b4 34bf
00000060: d016 35bf 91df 2a3f 5fd9 41bf da6a 2b3f
00000070: 4bf2 183f 2af7 1a3f 8a92 083f 1b7b 2f3f
00000080: af06 25bf 001e 463f e941 24bf 3c9e 4b3f
00000090: 920e 223f 0cb5 3b3f 227f 3ebf 88d4 26bf
000000a0: 2b59 123f a1ea 4cbf 3ffc 353f 107c 323f
000000b0: 2625 343f eb7d 51bf e67f 433f b49e 493f
000000c0: a9e4 233f 0ea7 193f cc8c 403f c55c 42bf
000000d0: 27bc 553f 438e 193f 26da 41bf bb89 183f
000000e0: 181a 2f3f cf08 1bbf 4f8f 503f 16ee 4abf
000000f0: 5958 28bf 23df 1fbf 206e 52bf 4d02 51bf
0.8327292 -0.687862 0.7148035 -0.6792414 -0.7415038 -0.6283482 0.56667745 0.66433567
-0.707945 0.572353 -0.5852143 -0.5921855 -0.75701874 0.6122659 -0.77257764 -0.7560805
-0.81229913 -0.7355058 -0.6143587 0.72935355 -0.65842515 -0.81138 0.82402796 -0.7058774
-0.70737934 0.66747385 -0.75722307 0.6695992 0.5974471 0.6053339 0.533486 0.6854722
-0.64463323 0.77389526 -0.6416307 0.7953832 0.6330348 0.7332313 -0.7441274 -0.65168047
0.5716731 -0.80045515 0.7108802 0.69720554 0.70369184 -0.8183276 0.7636703 0.78757787
0.6402078 0.6002053 0.7521484 -0.75922805 0.8349022 0.599827 -0.75723493 0.5958516
0.6839919 -0.60560316 0.8146867 -0.7926954 -0.6575981 -0.62449855 -0.8219929 -0.81644136

model.4.bias f4 [2]
00000000: 5dcf b43e c707 f5be
0.35314456 -0.47857496
