trained_models/run32.pth (torch, 207943 bytes, 14 tensors)

model.0.weight f4 [48, 1024]
000000 e7 3d 04 bc 2c 08 7b bc 1b db 7c 3d a2 e8 2e 3d
       -0.008071399 -0.015321773 0.061732393 0.042702325
000010 51 70 54 bc 64 24 12 bd c3 6b ae 3c 4d 00 42 3d
       -0.012966231 -0.035679236 0.02129162 0.047363568
000020 20 0c 1e bd ee 84 83 bd 5e 6a b1 3c c7 99 c0 bd
       -0.038585782 -0.06421839 0.021657165 -0.09404331
000030 9d 7d 8f 3d 7a 28 68 3d aa 6f 1f bd 8a db b1 b9
       0.07006381 0.056679226 -0.03892485 -0.0003392364
000040 7f a4 d0 3c f1 3c 4d bd d4 50 2b 3d 28 54 2b bd
       0.025469063 -0.050106946 0.04182513 -0.041828305
000050 c7 61 99 bc 0c b4 86 3b 80 2b 09 bd 8c e7 06 bd
       -0.018723382 0.0041108187 -0.03348875 -0.032935664
000060 ea 0d 40 bc 17 84 f5 bb 1a 5f 9f 3c bb 11 a4 bb
       -0.011722067 -0.007492553 0.019454528 -0.0050069964
000070 77 34 87 3c c0 cc 14 bc d7 66 24 3d 02 04 d9 3c
       0.01650451 -0.009082019 0.04013714 0.026491169
000080 7b 7f db bc 69 1c 13 bd 7b 84 40 3b 46 de 84 3d
       -0.026794186 -0.035915766 0.002937584 0.06487708
000090 bf 64 79 3d d1 65 54 3c c8 1c 17 3d d1 e3 b8 3c
       0.060887095 0.012963728 0.036892682 0.022569569
0000a0 70 f1 fc bc 12 b6 31 bd ec 20 11 3d c6 bf 0c bb
       -0.030876845 -0.043386526 0.035431787 -0.002147661
0000b0 f7 3d ab 3c 85 b7 7b bc c3 cd 5b bd 53 83 9d 3c
       0.02090357 -0.015363579 -0.053663027 0.01922766
0000c0 86 e4 ad bd 05 ba d3 ba f9 63 aa 3d d8 aa 2c 3d
       -0.08490853 -0.0016153461 0.083198495 0.042155117
0000d0 e6 16 ea 3d b3 c8 1c bd 6d 68 9f 3a 36 f9 0b 3d
       0.11430149 -0.03827734 0.0012161859 0.034173213
0000e0 6d 20 4d 3d 5c 26 02 bb 47 d6 15 3d 48 6b 7a bc
       0.05007975 -0.001985929 0.036581304 -0.015284367
0000f0 b2 54 4a 3d bb 57 22 3c a5 19 2c 3d 93 4b 24 bc
       0.049397178 0.009908612 0.042016644 -0.010027784
000100 d1 ec 94 3b 07 9d f0 3c 21 fa be 3c 29 69 80 3a
       0.0045448323 0.029371751 0.02331263 0.0009796965
000110 34 c1 da 3c 95 62 ec bc 92 be 4b 3b e9 e1 cc 3d
       0.026703455 -0.028855601 0.003108893 0.100040264
000120 e0 a7 e1 bc 97 32 e4 ba 37 54 c0 3c af 13 fb 3c
       -0.02754587 -0.0017410096 0.023477657 0.030649034
000130 32 a8 47 bd fe 4e e6 3c 17 6b dc bc ca 8c 4e bd
       -0.048744388 0.028113838 -0.026906533 -0.050427236
000140 e6 e9 1b bd e6 61 8c 3b e9 7c 26 3c aa b9 9f 3d
       -0.03806486 0.0042841313 0.010161617 0.077990845
000150 af c4 06 3d 9f d9 72 3d dd 4c 5f 3c b0 cf 28 3d
       0.032902416 0.05928957 0.0136291655 0.04121369
000160 b4 7e 9a bd 36 7e 08 bc 95 b2 98 3c 16 78 d9 bc
       -0.07543698 -0.008330872 0.018639842 -0.02654652
000170 ee ae a3 3c 30 89 c4 3c fd 09 fb bc 21 77 cf 3c
       0.019980874 0.023991197 -0.030644411 0.02532536
000180 2d 25 21 3d 10 87 87 3d 90 07 42 bd 72 82 cb bc
       0.039342094 0.06617558 -0.047370493 -0.024842475
000190 e8 12 e5 3c ae 1e d5 bc ae d4 94 ba 20 7e e6 3d
       0.027963117 -0.026015606 -0.0011354887 0.11254525
0001a0 50 db cd bc c8 4c 1a 3d e7 31 b5 bc 9e 8d 64 bc
       -0.02512899 0.03767088 -0.022118522 -0.01394978
0001b0 3d 60 50 bd 04 f7 01 3c 4a 08 1f bd fe 28 3e 3d
       -0.05087303 0.007932428 -0.038826264 0.046425812
0001c0 56 00 8d 3d fc b3 58 bc 18 67 c6 3c a4 e4 2c bd
       0.0688483 -0.013226505 0.02421908 -0.042210236
0001d0 bc 8e 9e 3c b4 92 a0 bc 47 99 3b bd 36 fd ab 3d
       0.01935517 -0.019601204 -0.045800474 0.083979055
0001e0 a5 dd 77 bd b3 f9 77 bd 81 ed 01 bd d2 e5 1a 3c
       -0.06051411 -0.060540866 -0.031720642 0.0094542075
0001f0 e6 14 be 3b db 6b 5c 3d 0d a6 d7 3b 46 f2 23 3d
       0.005800831 0.053813796 0.006581074 0.04002597
000200 fb 33 3f bd ca 3a 1a bd 7c cc f2 bb ac 7f 20 3d
       -0.04668043 -0.037653722 -0.0074096303 0.039184257
000210 ef 2e 99 bd cd ae e9 3c a5 5f 12 bd c2 d5 e8 bc
       -0.07479655 0.028525734 -0.035735745 -0.02842224
000220 92 70 6c 3c 9e 72 69 bd cf 73 eb 3d 3b 26 81 3c
       0.014431136 -0.056994073 0.11496698 0.0157653
000230 df 4c 4f bd 95 63 ac bb c1 c2 af 3d da 6b 64 3d
       -0.05061042 -0.0052608945 0.08582068 0.055766918
000240 87 01 c9 3b cf e3 11 be 68 94 25 bd 3c fa 68 3d
       0.0061342153 -0.14247058 -0.040424734 0.056879267
000250 16 82 c2 bc 69 9a c4 3c f9 2e f7 bb 7b b6 11 3d
       -0.02374367 0.02399941 -0.0075434414 0.035574418
000260 3b 6e e4 ba 43 b0 07 3d 03 4c 91 bd 85 ad c4 bc
       -0.0017427871 0.03312708 -0.07094576 -0.024008522
000270 bb 69 6b 3d 58 44 16 3d 91 cd b5 bc 78 6f b2 3d
       0.05747388 0.03668627 -0.022192748 0.08712667
000280 87 51 52 3c 42 8e a2 3d e5 42 50 bb 95 eb 3d 3c
       0.01283682 0.0793729 -0.0031778153 0.011591812
000290 ed 4a 6d bd 79 67 99 bd 62 0e 0c bd 7e 57 36 3d
       -0.057932783 -0.07490439 -0.034193404 0.044517033
0002a0 3c ec 0b 3d 90 40 a0 bc 12 4b 57 bc 81 27 1d bc
       0.034160838 -0.019562036 -0.013140457 -0.009591938
0002b0 2c 91 43 3b d2 87 78 3c ed f3 8f bc fc 3a 97 3b
       0.0029841168 0.015169101 -0.017572368 0.004615186
0002c0 c2 bd a3 bc f8 5e 5d 3c 0a 6c 63 bd bc e8 b0 bc
       -0.019987945 0.013511412 -0.055522956 -0.021595351
0002d0 b4 bb 89 3d 7e 79 a9 3c 07 5e 1b bd df 8a a7 3b
       0.06725255 0.020687815 -0.03793147 0.0051129903
0002e0 39 2b 68 bd 4a 5c e3 3c 8c de 12 bd 93 25 4b bc
       -0.056681845 0.027753968 -0.03585677 -0.012399095
0002f0 22 e9 ba 3d 07 ab 72 3d f1 f4 78 bd b3 30 e8 3c
       0.09126498 0.059245136 -0.06078047 0.028343534
000300 d1 e7 be 3c 86 9f 89 bc 87 48 b9 3d 9f 2f 37 bc
       0.023303898 -0.0167997 0.090470366 -0.011180787
000310 11 d5 d7 3d 4d 7d 26 bd fa 8b 06 3d 47 0e b6 bd
       0.10538686 -0.04064684 0.032848336 -0.08889442
000320 b5 6f 68 3d 99 ea 81 3c 7a 3c b1 bd 61 b3 c9 bc
       0.056747157 0.015858935 -0.08654113 -0.024621667
000330 7f 12 80 3d 8e 82 08 be cb d8 62 3d 1b 23 e1 bc
       0.06253528 -0.13331053 0.05538253 -0.02748256
000340 98 81 44 bd 56 4b 62 3d ee 4e 37 bc 95 55 52 bd
       -0.047975153 0.055247627 -0.011188252 -0.05135115
000350 41 00 11 bd 4a f7 5e bc e3 d8 91 3d b9 f6 3f bd
       -0.035400633 -0.013608763 0.07121446 -0.046866152
000360 51 b2 81 bc 58 bd 28 bd 41 04 95 3c 97 22 fe 3b
       -0.015832098 -0.041196197 0.018190505 0.0077555883
000370 f6 79 c1 3c f3 59 ca 3c 74 72 42 3d ea a8 93 bc
       0.023617726 0.024701094 0.047472432 -0.01802488
000380 05 94 76 3c 74 02 a7 3b 49 c2 ed 3a fd d6 a7 3c
       0.015049939 0.005096728 0.0018139567 0.020488257
000390 2a 71 42 bd 30 59 88 bd 42 6a 7b 3c 77 26 d5 bc
       -0.047471203 -0.06657636 0.015345158 -0.026019318
0003a0 f9 f3 d2 bb af 38 47 3d b5 75 8a 3c 54 cc 39 3d
       -0.006437775 0.048638042 0.01690183 0.045360878
0003b0 bc 84 1c 3b 8b 29 8e 3d 6c 7d 2f 3d 9a 5c f6 bd
       0.0023882827 0.069415174 0.04284422 -0.12029381
0003c0 21 98 79 3c 21 ed f9 3c 95 fc 49 3d 20 04 94 bc
       0.015234024 0.03050858 0.049313147 -0.018068373
0003d0 5a 22 87 3d a7 85 60 3d 14 61 28 bd e1 c8 8c bc
       0.06598349 0.05481496 -0.041108206 -0.01718563
0003e0 0a f8 3e 3d fd 5d e6 3b 61 1e 13 3b 89 09 68 bd
       0.046623267 0.0070302472 0.0022448527 -0.05664972
0003f0 9e 86 87 bd ec b0 22 bb da 33 04 bd 8a be 5c 3d
       -0.06617473 -0.0024824692 -0.032276012 0.05389265

model.0.bias f4 [48]
000000 94 78 05 39 f4 f5 c9 38 02 87 bd b7 6c 00 e8 38
       0.00012728787 9.630239e-05 -2.2593424e-05 0.00011062701
000010 0e 85 be 37 cc 2d 98 b8 d0 56 85 b8 cc 82 1d 38
       2.2711723e-05 -7.256455e-05 -6.358104e-05 3.755353e-05
000020 73 20 46 39 b2 0c f9 b5 e0 9d da 37 74 b6 a4 38
       0.0001889484 -1.855564e-06 2.6061141e-05 7.854114e-05
000030 1a bf 5f b8 6d 1e 0f b8 50 be aa 35 06 39 85 38
       -5.334532e-05 -3.4122193e-05 1.2721375e-06 6.352556e-05
000040 0c 0d 54 01 0c 0e 9a 81 b7 a5 7d b8 1c de e1 38
       3.894761e-38 -5.659082e-38 -6.0474234e-05 0.00010770207
000050 dc e6 f0 b8 4c 80 f5 38 00 f0 ed 30 b2 59 b9 37
       -0.00011487093 0.000117064075 1.7312232e-09 2.2095486e-05
000060 89 83 97 b9 5c 96 d8 38 ad 08 50 82 f0 d3 2b b9
       -0.00028898966 0.00010327689 -1.5283916e-37 -0.00016386784
000070 5e 25 7e b9 f2 ee 0a 38 9c c5 d0 b7 c4 e5 e4 28
       -0.00024237248 3.31243e-05 -2.4887551e-05 2.541273e-14
000080 44 e1 f7 37 ae a3 2e 39 55 1b 95 39 61 34 c3 38
       2.9549592e-05 0.00016654909 0.0002843986 9.308081e-05
000090 40 03 f1 b4 91 f1 a4 b7 89 e7 7d 39 f1 0c 6f b9
       -4.4892113e-07 -1.9662812e-05 0.00024214214 -0.00022797637
0000a0 48 af a2 b8 5b 5b 80 b9 17 50 03 39 eb 6b 72 39
       -7.757411e-05 -0.00024482128 0.0001252297 0.00023119121
0000b0 0e 19 98 81 6e 6f 77 38 e7 ed 29 b9 ee a2 5e 38
       -5.5871933e-38 5.8993166e-05 -0.00016205721 5.3080665e-05

model.1.weight f4 [48]
000000 5d 51 af 3e 53 57 a6 3e 71 32 9a 3e a4 e3 e3 3e
       0.34241763 0.32488498 0.3011661 0.44509614
000010 eb 05 d6 3e 8f 68 b0 3e e5 2b c2 3e 5d 2e d3 3e
       0.4180139 0.34454772 0.37924114 0.4124631
000020 62 cd de 3e 11 26 f4 3c 28 ea c3 3e a9 3a b8 3e
       0.4351607 0.029803308 0.38264585 0.35982254
000030 dc f0 e7 3e 89 e6 ab 3e ba b9 ba 3e b7 9c d8 3e
       0.4530095 0.33574322 0.36469823 0.42307064
000040 d8 29 11 3c 0d 41 4c 3c ce dc e9 3e 02 25 48 3e
       0.008860074 0.012466681 0.45676273 0.19545367
000050 10 b3 97 3e 28 0f c6 3e 95 3d d2 3e 4d 66 b7 3e
       0.296288 0.38683438 0.41062608 0.35820237
000060 d3 d8 c1 3e c2 6f 08 3f 0c f5 09 00 f2 4d bb 3e
       0.37860736 0.5329553 9.14426e-40 0.36582905
000070 6e c2 d8 3e 3b 1e 59 3e f8 20 b2 3e a5 9b 20 3d
       0.42335838 0.21202938 0.34790778 0.039210934
000080 a7 3f 84 3e f5 fb af 3e 1f 53 ce 3e c5 f7 e6 3e
       0.25829813 0.34371915 0.4029779 0.45110908
000090 f6 ed d9 3e 38 e0 a6 3e b6 cc f4 3e 9a fb e9 3e
       0.42564362 0.3259294 0.47812432 0.4569977
0000a0 2e e1 e4 3e 1e f9 dd 3e 21 47 e0 3e 0b 2e da 3e
       0.44703048 0.43354124 0.43804267 0.42613253
0000b0 a8 bb f6 2f 6b dd 82 3e bc 97 c8 3e a9 33 c6 3e
       4.4880477e-10 0.25559554 0.39178264 0.3871129

model.1.bias f4 [48]
000000 b5 66 1f be d7 f7 00 be 41 3e 13 be 22 6c 33 be
       -0.15566523 -0.12594543 -0.14379217 -0.17521718
000010 45 83 61 be 37 91 20 be 87 19 2d be fb 01 48 be
       -0.22022732 -0.15680395 -0.16904269 -0.19532005
000020 b2 cd 8d be fa 45 38 bd 02 f8 fb bd 00 1c 3d be
       -0.27695996 -0.04498861 -0.12303163 -0.18467712
000030 a1 75 56 be 38 14 5d be 1e dd 4d be d9 c3 29 be
       -0.2094331 -0.21589744 -0.20103881 -0.16578616
000040 e2 f7 56 bb 90 fc e6 bc da b8 50 be 44 1e f0 bd
       -0.0032801558 -0.028196603 -0.20383015 -0.11724523
000050 a1 b0 73 bd ed ec 3d be f0 de 66 be 26 83 06 be
       -0.05949462 -0.18547411 -0.22545981 -0.13135967
000060 9b 70 81 be e4 7c 7e be 85 f4 06 80 15 70 68 be
       -0.25281224 -0.2485233 -6.3873e-40 -0.22699006
000070 a8 f0 3e be f5 45 4d bd 1a 6b 48 be 90 3d a3 bd
       -0.1864649 -0.050115544 -0.19572106 -0.079707265
000080 39 fd 0f be 13 48 1c be f6 b1 14 be c6 3c 06 be
       -0.1406144 -0.15261869 -0.14521012 -0.1310912
000090 77 dc 80 be d3 50 61 be 66 17 5c be 76 2d 67 be
       -0.251682 -0.22003488 -0.21493301 -0.22575936
0000a0 77 73 80 be 0b d4 87 be 26 62 47 be 09 ca 20 be
       -0.25088093 -0.26528963 -0.19471034 -0.1570207
0000b0 17 6f d6 a2 c9 3b 96 bd 11 96 84 be d4 9c 65 be
       -5.8122437e-18 -0.07335622 -0.25895742 -0.22423106

model.1.running_mean f4 [48]
000000 db 74 1f 3d 1b bd 4d 3d b9 b0 99 bc 6e 78 94 3d
       0.0389298 0.050229173 -0.018761026 0.07249533
000010 54 d6 c8 3b 1a 25 33 3e f7 2c a2 3d 1b b0 13 3d
       0.0061290655 0.17494622 0.079187326 0.03605662
000020 c4 e0 eb 3d fb c7 fb bb 2b 5e d2 3c 1d bf f7 bc
       0.1151748 -0.0076837516 0.025679668 -0.030242497
000030 ce d8 b9 3c f5 1b 8a 3c ce fc 81 bc 9d 15 f2 3d
       0.022686388 0.016859034 -0.015867617 0.11820529
000040 9a 07 ba a4 64 cd d4 35 d6 9a ea 3d b6 23 b6 3d
       -8.067752e-17 1.5855007e-06 0.11455314 0.0889353
000050 11 99 94 ba 4b b2 0d 3e 60 ac 37 3c 98 3e f3 3d
       -0.0011337121 0.13837545 0.011210531 0.11877173
000060 1d 25 40 3e da 37 d4 3d 89 e7 45 00 76 b7 c3 3d
       0.18764158 0.10362215 6.419708e-39 0.09556477
000070 dd a3 69 3d 11 17 45 bd 82 87 1a bc 23 25 5b ba
       0.057041038 -0.0481177 -0.009431722 -0.0008359721
000080 39 18 c9 bc 4f dd f1 3c 05 ee bb 3d 0a 44 f1 3d
       -0.024547683 0.029524473 0.09176258 0.117805555
000090 a2 df f5 3c 96 d5 00 3e 63 21 4f 3d a2 64 ad 3d
       0.030013863 0.12581477 0.05056895 0.0846646
0000a0 24 03 4b 3d a8 14 e7 3d 4a 45 f9 bb dc aa c0 3d
       0.049563542 0.11283237 -0.007607137 0.09407589
0000b0 6a 09 30 00 fe c3 e3 3d b9 37 66 bc 5c 7a f4 bc
       4.411481e-39 0.11121367 -0.014051371 -0.029843502

model.1.running_var f4 [48]
000000 2c ed 63 3a 6a 01 a0 3a 6c 73 63 3a 02 dd c6 3a
       0.0008694704 0.0012207453 0.0008676562 0.0015172067
000010 40 2a 98 3a 1e a6 65 3a 3e 8c 9d 3a a9 1c 91 3a
       0.0011609271 0.000876041 0.0012019945 0.0011071163
000020 b4 77 7f 3a fd ee a2 38 0d 4d 90 3a 23 cd 9b 3a
       0.0009745315 7.769277e-05 0.0011009291 0.0011886697
000030 59 ad ae 3a e6 6f 5d 3a bb 34 88 3a 19 66 c3 3a
       0.0013326808 0.0008447155 0.0010391691 0.0014907747
000040 0d 8d b9 09 60 17 37 2c 93 93 a2 3a ff 38 04 3a
       4.4669773e-33 2.601884e-12 0.00124036 0.00050438935
000050 ce f8 b5 3a d9 e4 9b 3a 8d 66 a5 3a 0a 39 84 3a
       0.0013883354 0.0011893763 0.0012619063 0.00100878
000060 e9 eb 63 3a 59 66 b0 3a 04 00 00 00 fc 32 82 3a
       0.0008694516 0.0013458236 6e-45 0.0009933407
000070 68 08 cb 3a 7c 21 94 3a bc 34 94 3a f0 6f fb 35
       0.0015490176 0.0011301483 0.001130722 1.8733535e-06
000080 5f 5c eb 3a 67 75 8c 3a d8 80 cf 3a d9 fd e3 3a
       0.0017956606 0.0010716141 0.0015831245 0.0017394378
000090 c3 9c 87 3a 17 b1 69 3a 2e 0f a9 3a b8 6b 9a 3a
       0.0010346401 0.0008914633 0.0012898201 0.001178137
0000a0 7d 9e 92 3a f1 c9 a0 3a 48 d9 82 3a 20 b9 8d 3a
       0.0011186149 0.0012267214 0.0009982968 0.0010812618
0000b0 04 00 00 00 90 97 70 3a 68 9d 8a 3a 32 12 84 3a
       6e-45 0.0009177858 0.0010575475 0.0010076223

model.4.weight f4 [24, 48]
000000 f8 dc b2 3d 22 c8 65 3d 37 c5 57 3d e9 de 11 bd
       0.08733553 0.056099065 0.052678313 -0.035612974
000010 ae 00 a6 bd bc 4b f2 bd 07 ae c0 3d 09 c3 4f bd
       -0.081055984 -0.118308514 0.09408193 -0.05072311
000020 55 73 a6 bc a2 23 5d 3c 10 71 da 3b ef 36 8f 3d
       -0.020318666 0.013497265 0.00666631 0.069928996
000030 8f 59 32 3d 20 99 0a 3d 0e e5 5b 3d f9 2b e8 bd
       0.04354244 0.033837438 0.05368524 -0.11336512
000040 0a 08 f1 b3 d2 cb 57 ba a8 96 9f bd 8b db 41 bb
       -1.1223899e-07 -0.0008231971 -0.07792407 -0.002958032
000050 44 37 66 3b e7 bc b6 bd 6c 57 22 3d db 8b 1f 3d
       0.0035128156 -0.08922749 0.039634153 0.038951736
000060 9f eb 9c bd bb 70 40 bd dc f1 05 80 b6 67 92 3d
       -0.07662129 -0.04698251 -5.4594e-40 0.071486875
000070 f4 73 be 3d cf 53 c7 bc 31 51 27 bd 8c 64 48 3a
       0.0929946 -0.024331955 -0.040848915 0.0007644377
000080 69 24 88 3d 03 62 48 bd a1 fa 4a 3d ed 49 87 3d
       0.0664757 -0.048921596 0.049555425 0.06605897
000090 ad a1 ed bd ba 78 dd bb ed cb 0a bd b3 7f b1 bd
       -0.11603103 -0.0067587765 -0.033885885 -0.08666935
0000a0 0d db 8a bd c5 36 67 bd f4 47 c2 bd f9 1f 29 3d
       -0.06780062 -0.056448717 -0.0948638 0.041290257
0000b0 60 e4 1c 00 03 66 5f 3c ac 5d 41 3d 49 e9 a9 bd
       2.65332e-39 0.013635161 0.047208473 -0.08296449
0000c0 ab 5c 0e 3d 8f 07 c3 3c cc 82 f2 3c a0 a9 a1 bd
       0.034756344 0.023807315 0.029603384 -0.078936815
0000d0 55 26 96 bd c4 60 4d bd 7b 0b 57 3d 05 ff 34 bd
       -0.0733153 -0.05014111 0.052501183 -0.044188518
0000e0 e4 4a a8 3d 20 f0 e3 3a 20 ef 27 3d ce 15 34 3d
       0.08217409 0.0017390288 0.04099953 0.043966107
0000f0 51 24 0a 3d 79 1a b4 bc 6d c0 7d 3c 14 f8 42 bc
       0.03372604 -0.02198528 0.015487772 -0.011899967
000100 48 1d a6 2f 52 6e 4a b9 55 93 70 bd 94 49 1c bd
       3.021603e-10 -0.00019305319 -0.058734257 -0.038156107
000110 8e 2b 12 3c 60 d6 ab bc 5c d7 9f 3d a8 fa 50 3d
       0.008921517 -0.020976245 0.078047484 0.051020294
000120 ec a6 59 bd ce fe 8c bd 3e 29 00 00 85 da 51 3d
       -0.053137705 -0.06884538 1.4795e-41 0.051233787
000130 52 bf 63 3d e4 a2 29 bd 5d bb 0c bd 5f e0 07 ba
       0.05560238 -0.04141511 -0.03435837 -0.0005183275
000140 24 b1 6e 3d f4 49 95 bd 4c 64 d4 3c e2 d6 9f 3c
       0.058274403 -0.07289496 0.025926732 0.019511644
000150 bb eb a7 bd 64 4c 93 bd 93 11 5f bd 92 d9 0a bd
       -0.08199259 -0.07192305 -0.05446012 -0.033898897
000160 83 c3 78 bd 12 11 86 bd b5 9f 98 bc c6 07 d0 3c
       -0.06073333 -0.06546225 -0.018630842 0.025394332
000170 09 86 11 00 6e 6d cf bb 3c af 46 3d 09 e5 be bc
       1.609286e-39 -0.0063301837 0.04850696 -0.023302572
000180 fa 75 fa 3d 2b 66 34 3c fd 0f a3 3d 4c cc 4e bd
       0.122295335 0.011010687 0.07962034 -0.0504878
000190 a3 74 aa bd ee 0e b6 bd a6 58 1f 3d 98 56 a0 bd
       -0.08323028 -0.08889566 0.0389029 -0.078290164
0001a0 13 b9 6d 3c f6 95 81 3c f5 4c 67 3d 36 4f 40 3d
       0.014509457 0.015818577 0.056469876 0.04695054
0001b0 cc 4a 22 3d e4 c0 e1 3d be c2 90 bc 06 46 6b bd
       0.039622113 0.11023119 -0.017670985 -0.057439826
0001c0 c1 f9 64 b5 53 8c fc bb 33 48 02 bd 88 8b b0 bd
       -8.530006e-07 -0.0077071576 -0.031807136 -0.086203635
0001d0 65 48 6c 3d e2 07 c8 bc 91 57 be 3d 76 34 e4 3d
       0.05768623 -0.024417821 0.09294046 0.11142819
0001e0 5d 8f c4 bc a1 a3 cc bc a4 13 08 80 00 6c b2 bd
       -0.023994142 -0.024980368 -7.4173e-40 -0.087120056
0001f0 82 6a 27 3d ae b2 cd 3d 14 2f 8e bc d7 8c 06 3c
       0.04087306 0.10043846 -0.017356433 0.00821229
000200 b8 94 5d 3d 58 46 ce bb 8c aa 5a 3d 01 cb 43 3d
       0.054096907 -0.0062950067 0.053385302 0.04780102
000210 98 0c 88 bd e6 4f 0d be 1e ba a8 bd 8a 90 48 bc
       -0.06643027 -0.1380001 -0.08238624 -0.012241492
000220 22 62 3b bd 96 dc 90 bd 48 b2 1c be ef 85 e3 3c
       -0.045747884 -0.070733234 -0.15302384 0.027773825
000230 e6 fa 0a 00 8c 60 a2 3d 1f 4c 83 3d 88 1a 41 bd
       1.00836e-39 0.07928571 0.06411003 -0.047144443
000240 06 9d 05 3e e1 20 a3 bd 70 a8 a9 3d d2 b6 3b 3d
       0.13048181 -0.079652555 0.0828408 0.045828648
000250 86 b1 80 3d df 22 4e bc 90 39 9b bd 7c 8a a1 3c
       0.0628386 -0.012581556 -0.075793386 0.019719355
000260 69 f0 14 be e0 18 53 bc 15 22 1a 3e d9 b5 b6 3d
       -0.14544834 -0.012884349 0.15052064 0.089214034
000270 f6 25 db bd 66 7c 9c 3c b2 5c d2 3d e6 ca a5 3d
       -0.107006 0.019102287 0.102715865 0.080953404
000280 fd 91 a9 38 c3 48 f6 bb 1e 83 02 3e 87 be 00 bd
       8.0857404e-05 -0.007515998 0.1274533 -0.0314317
000290 82 95 31 be f0 60 d5 3c 9b d8 c4 3c fe bb bd 3d
       -0.17342189 0.0260472 0.024029067 0.09264372
0002a0 55 6f 0d 3e ec 0e 0d 3e e3 9f 0d 80 2b ad 2d be
       0.13812001 0.13775223 -1.251218e-39 -0.1696059
0002b0 bc 99 c0 3d e2 5e b5 bd 6c d2 dd 3d 57 12 4f bb
       0.094043225 -0.08855988 0.108311504 -0.0031596625
0002c0 bd eb ea bc e5 36 fd 3c 65 e1 83 3c e1 1e d2 3c
       -0.028676862 0.030909965 0.016098687 0.02564949
0002d0 29 9a a2 3c 39 ea c6 3c d1 f1 09 3e f7 43 b1 3d
       0.0198489 0.024281608 0.13471152 0.086555414
0002e0 6d 37 ce 3d 91 d4 a7 3d b8 3d ca 3d e4 5f 5b bd
       0.100691654 0.08194841 0.09875053 -0.053558245
0002f0 45 b9 71 80 4e aa e0 bd 62 61 7f bd cd de ee 3d
       -1.0443873e-38 -0.10969983 -0.06234873 0.116635896
000300 e3 18 ee 3c 13 36 97 bd c1 27 a2 3d 33 ca e5 3c
       0.029064601 -0.07383361 0.07917739 0.028050518
000310 90 40 25 bd b0 c5 82 3d 22 71 c3 bc b2 54 09 3e
       -0.040344775 0.06385362 -0.023857657 0.13411215
000320 51 59 16 be 9d 38 ab 3a 30 b7 92 3d 73 d0 3f 3c
       -0.14682509 0.0013063137 0.071638465 0.011707413
000330 58 f1 a3 bd 4f 2c 8e bc 97 c1 a0 3d bc 67 4b 3c
       -0.08005017 -0.017355112 0.07849424 0.012414869
000340 2a 3f 15 b8 4c 34 ad 3b fc b8 0d 3e 67 b4 97 bd
       -3.5583194e-05 0.0052857753 0.13840097 -0.07407456
000350 45 1e 11 be 7f 80 cd 3c bf e0 7c bc b5 45 4f bd
       -0.14171703 0.025085686 -0.015434443 -0.050603587
000360 be 1e 9c 3c d5 a8 31 3e f4 57 14 80 5a 29 29 be
       0.019057628 0.1734956 -1.868262e-39 -0.1651968
000370 af 3e 35 3d a3 30 e4 bd 1e a3 1e 3d 93 85 8f bc
       0.044249233 -0.11142089 0.03872978 -0.017519748
000380 46 f6 07 bd e3 56 08 3e a5 7e 5b 3d 8e 2e 6f bd
       -0.03319385 0.13314395 0.053587575 -0.058394007
000390 82 45 93 3b a5 ad 8f bc 6b e8 fd 3c 79 5c 40 3d
       0.00449437 -0.017538855 0.030994615 0.04696319
0003a0 27 6d 91 3d 47 02 d9 3d fa 64 fc bd c8 bf 05 3d
       0.07100897 0.105961375 -0.12323947 0.0326536
0003b0 da 89 22 0d 04 20 ee bd d1 5e 2b bd 02 77 85 3d
       5.0086037e-31 -0.116272 -0.04183847 0.065168396
0003c0 5b d5 73 3c 97 24 3a bd 4e 40 cc 3c af eb b0 bd
       0.014882411 -0.04544505 0.024933007 -0.08638703
0003d0 4a fa 9c bd d9 7b 4e 3c 2e e4 b9 3c 01 e5 19 bd
       -0.07664926 0.01260277 0.022691812 -0.03757191
0003e0 65 b1 ce 3d 39 99 af bc 69 6e e4 3c f8 c2 21 bc
       0.10092429 -0.021435367 0.027884679 -0.009873144
0003f0 82 f6 1d 3d cc 0f 1c bd d9 80 1c 3d 24 f7 ab bc
       0.038565166 -0.038101003 0.038208816 -0.02099187

model.4.bias f4 [24]
000000 2e d0 20 b8 6a a5 21 37 42 bc bc b7 fa a4 3b b8
       -3.8340855e-05 9.634861e-06 -2.249901e-05 -4.473792e-05
000010 bc e8 32 b7 54 b3 4a b8 3c ea ba 37 ae 4b bc b7
       -1.06638145e-05 -4.8327565e-05 2.2282002e-05 -2.2446588e-05
000020 80 77 a0 b7 1f f8 98 38 6a 3c 05 b8 e4 b6 49 37
       -1.9129133e-05 7.294141e-05 -3.1765936e-05 1.2023116e-05
000030 86 7a dd b7 ac f1 74 b8 1e 91 54 37 da db 01 12
       -2.6402307e-05 -5.8399208e-05 1.2669972e-05 4.097621e-28
000040 ec 79 9a 36 9d 11 40 b8 fc 2c ad 36 12 ed 2e 38
       4.603751e-06 -4.579277e-05 5.1610386e-06 4.170562e-05
000050 23 d3 18 38 94 7f b5 38 06 6f b3 b8 30 b5 f6 01
       3.643626e-05 8.654516e-05 -8.556065e-05 9.062612e-38

model.5.weight f4 [24]
000000 92 5b 23 3f 0d 52 cc 3e 08 18 3d 3f e6 2b 8a 3f
       0.638116 0.3990635 0.73864794 1.0794647
000010 bf f3 60 3f ed 4a eb 3e cf d7 99 3f 93 c8 3d 3f
       0.8787193 0.459556 1.2018985 0.74134177
000020 2b dd 0b 3f 8c f6 74 3f a1 63 26 3f dc 46 cb 3e
       0.5463435 0.956887 0.6499577 0.397025
000030 df cf 3e 3f f4 9c 8a 3f 63 95 58 3f 9a 29 e7 32
       0.74535936 1.0829148 0.84602946 2.6910858e-08
000040 38 9d e5 3e df 0c 60 3f b8 af 6a 3f 07 e0 26 3f
       0.4484651 0.8751964 0.91674376 0.6518559
000050 2a dd 57 3f 9e 1a 49 3f b6 06 4c 3f dd e7 b2 2f
       0.84321845 0.7855624 0.7969774 3.254276e-10

model.5.bias f4 [24]
000000 6f 19 fe 3d 00 68 bd 3d d8 f3 6b 3d 93 3e b8 3e
       0.12407195 0.09248352 0.057605594 0.3598524
000010 73 09 ae 3e d3 bb 51 3d e5 1f cd 3e 43 f8 f1 3d
       0.33991584 0.051204514 0.40063396 0.1181493
000020 dd a2 bc 3d ab af b5 3e c0 2f ed 3d 8e 28 c3 3d
       0.09210751 0.35485587 0.11581373 0.095292196
000030 bd fe 0d 3e bc fa e1 3e 19 a6 aa 3e 69 6b 8f aa
       0.13866706 0.44136608 0.33329847 -2.5476434e-13
000040 6a 6c 85 3d 80 9e a5 3e d2 9f ae 3e 89 00 d8 3d
       0.06514819 0.32347488 0.34106308 0.10546977
000050 d5 d3 b6 3e ce ea a2 3e 6b aa 5f 3d 74 13 95 a7
       0.3570849 0.31819767 0.054605883 -4.13769e-15

model.5.running_mean f4 [24]
000000 7b d0 f8 bc b8 4f c0 bc 10 5a 05 bb 91 98 d0 3d
       -0.030372849 -0.023475513 -0.002034787 0.1018535
000010 e1 83 db 3c 7e 54 68 bd a0 88 bf 3c 6f a4 17 bd
       0.026796283 -0.056721203 0.023380578 -0.03702205
000020 58 07 9d bc 8a 1b bc bd 2a 28 ba bc cb 4c 93 bc
       -0.01916854 -0.0918494 -0.02272423 -0.017980954
000030 34 ba 11 bd e2 a6 44 bd 78 79 df 3c 0e a6 28 2f
       -0.035577968 -0.048010714 0.0272796 1.5338505e-10
000040 a2 d3 57 bb f6 49 1d 3d 9a 8d 4c 3d 8a e2 47 bc
       -0.003293254 0.038400613 0.04993973 -0.012200007
000050 d4 04 53 bc 0c a6 88 bc f9 f9 a2 bd 94 0a eb 29
       -0.012879569 -0.01668074 -0.07957835 1.04379314e-13

model.5.running_var f4 [24]
000000 3b c5 09 3c cc c4 95 3b ab de f2 3b c4 5c 36 3c
       0.00840884 0.004570579 0.007411798 0.0111305155
000010 f1 ee e0 3b 38 75 80 3b c6 8c 52 3c b5 a6 17 3c
       0.0068644215 0.0039202236 0.012850946 0.009256055
000020 df f8 d5 3b c8 59 2c 3c 1e 03 07 3c c4 c0 95 3b
       0.006529912 0.010519452 0.008240489 0.0045700986
000030 ac 0b 23 3c 34 c9 50 3c 58 be 1e 3c 53 35 86 1e
       0.009951513 0.012743283 0.009688936 1.4209856e-20
000040 de 7f 9c 3b 5d 73 25 3c a9 2a 3e 3c 38 1b 04 3c
       0.004775985 0.0100983055 0.011606851 0.00806313
000050 40 d5 16 3c 21 1a 15 3c 4c 83 e4 3b cd b2 7e 14
       0.009206116 0.009100468 0.0069736596 1.2858985e-26

model.8.weight f4 [2, 24]
000000 f7 11 e8 be 8f 89 91 be 0b f0 02 bf f4 f8 4d 3f
       -0.45326206 -0.2842526 -0.51147527 0.80458
000010 6c 08 2c 3f aa 8a a8 be 34 20 67 3f 9c 49 07 bf
       0.6720035 -0.32918292 0.90283513 -0.52846694
000020 ba f8 c6 be 38 0e 3a 3f d2 9f eb be ea f4 93 be
       -0.38861638 0.72677946 -0.4602037 -0.28897792
000030 72 00 08 bf 42 03 55 3f b9 ec 24 3f 8f 2a 5b ae
       -0.5312568 0.83208096 0.6442371 -4.9832635e-11
000040 19 05 a1 be d7 0e 2b 3f b9 2c 33 3f 32 cc ec be
       -0.31449202 0.6681952 0.69990116 -0.4624954
000050 e6 7c 26 3f 0c a0 14 3f 11 fe 0c bf 1e f2 d1 2c
       0.6503433 0.5805671 -0.55075175 5.9670177e-12
000060 2e 4c e7 3e 5a 97 94 3e e9 c0 04 3f 03 cc 4d bf
       0.45175308 0.29021722 0.5185686 -0.8038942
000070 f6 55 2a bf 5a 45 9b 3e 43 20 66 bf 1b 14 06 3f
       -0.66537416 0.3032635 -0.8989298 0.5237443
000080 32 49 c5 3e 35 96 39 bf b9 28 ee 3e 77 54 91 3e
       0.38532406 -0.7249482 0.46515444 0.28384754
000090 5a bf 07 3f 86 98 51 bf 50 50 27 bf bb 30 5a ae
       0.53026354 -0.8187336 -0.6535692 -4.9610743e-11
0000a0 6d c7 a0 3e 09 ba 2a bf 58 42 32 bf 2a 39 ed 3e
       0.3140215 -0.6669012 -0.6963248 0.46332675
0000b0 75 6a 26 bf 9f 39 19 bf 6d 08 0d 3f 92 d0 d1 2c
       -0.6500619 -0.5985355 0.5509098 5.9632932e-12

model.8.bias f4 [2]
000000 7a 99 f4 bc 02 76 d3 bb
       -0.02985834 -0.0064532766
