trained_models/run31.pth (torch, 207943 bytes, 14 tensors)

model.0.weight f4 [48, 1024]
00000000: 19a8 ccbd 281a 54bb 2b37 45bc e5a3 593d
00000010: 947c 00be 8055 25bd 04d1 3d3d 8e16 ce3d
00000020: 9c5c 993d a11f d73c 5b3f 943d 77c3 663e
00000030: 77ae 023e c7fe 123e 201f e13c e0b3 d8bc
00000040: cb3a fe3b f5d4 40bd f9c6 673d de8a c03d
00000050: 297c 9c3d 5846 153e 3fb2 47bd 1c67 05bb
00000060: 8528 4b3e eef8 3e3e 3050 da3d b316 02be
00000070: e557 42be 40a8 d1bd 9c43 833c 4293 86bd
00000080: 88d8 c13d 7992 b73d 6e02 f2bd 3abb 4d3d
00000090: 84dd 9d3d 5fbb d7bd 8463 dcbd afbf e5bd
000000a0: 69ae 33be c453 eebc fc8f 88be 0435 b63b
000000b0: 32c6 123d 6546 58be 8d1f f3bd 2347 46be
000000c0: 3a23 2e39 f09d 023d 8955 453e afc3 45bd
000000d0: 85d9 93bd a066 1d3e 1e05 94bd 73bb 56bd
000000e0: c9c7 5cbe e323 42be 46df e9bd 8943 c63d
000000f0: 35bd db3c 63ad c83d e764 2b3e d450 aabd
00000100: a74d d2bd 1148 80bd ea6b 803d 2923 013d
00000110: 8a4f fabb 546e 01be 808d db3d 4779 423d
00000120: 0121 e93d 42ee c83c 4d89 77be 5269 4f3b
00000130: 4e38 6dbe f720 203d eb6b e0bd 4bdb 8abd
00000140: e5e1 863c da8c b83d 5d76 783d c8e5 dcbd
00000150: ff8a fc3d f69f ce3d 646c 163e a35e 6f3d
00000160: be1f 1fbc a4c8 3b3d 1c0e 0e3e 93e1 743d
00000170: cc17 383d 1f70 85be 8bde 1bbe b561 b93d
00000180: e253 1e3e 762c 13be 6bae 8739 8d75 c23d
00000190: 6b85 bf3c 8bec 1bbe a158 7f3e 42c3 fc3d
000001a0: b397 1ebe bb13 abbd 8b68 4dbd abfd 32be
000001b0: a5f6 7f3d 164f 2fbd 5c21 c73c 145e b2bd
000001c0: cd58 d23c 53de e9bc c175 0b3e b02a d2bd
000001d0: 1613 6dbd eb8a 20be 6dbe 79be 9d71 9cbd
000001e0: f92c 3c3d 580c 963d cf0a dfbd 1554 5cbd
000001f0: 9c02 1cbd bc64 28bd 2918 cf3d b375 a53b
00000200: a5da 963e 4c20 0d3e b000 81bd 8007 3cbe
00000210: f74f db3d b9f3 2b3e 111e cfbd c792 3e3e
00000220: a3a6 2fbe 139d 1bbe fceb ec3c 4c3b 8ebb
00000230: 34ab b63d b15b 2b3d 75ef 113e 4735 173e
00000240: aaba fc3c 1059 e93c e555 3bbe 7eeb acbd
00000250: 8a5b 273e 06db 32bd 2b6c 153d 1895 bbbd
00000260: 7df7 70be d385 003c afc0 cbbd b2f0 373d
00000270: 5e63 a73c 7d09 aabd bc98 21be 7b2e 123e
00000280: 66f4 efb8 06dd d23e dc98 ff3d ee4e 79be
00000290: 4b44 9d3d 769e 12be 0abc 953d a8c3 51be
000002a0: aa7d f5bd aedf 2c3e 034e 1c3e 8b8f a7bd
000002b0: 19de 463e 99ee f8bd 5ee6 72bd 97d9 02bd
000002c0: 6ff7 e5bd 5fd9 e0bd 036d c33d db08 9bbd
000002d0: 5c62 8bbc 50c9 57bd b5d1 353d 4d98 733d
000002e0: 4d6b 3fbe 43a2 ad3c a85f 3f3e fcc2 7c3d
000002f0: 3911 fd3c 0217 183e 3a3e 33be f911 18be
00000300: 5465 66bd e20e 1a3d faf4 72bd 3b97 b3be
00000310: a343 42bd 7e1e bd3b ffd4 973c 81b1 dcbd
00000320: 454c 363e 1df6 cdbd c631 733e f4b1 8d3d
00000330: ad30 48bd 15f4 25be ede3 c8bd 469b 103d
00000340: 231f 0d3e dbb6 ebbc 75ed c1bd a99e 7d3e
00000350: bc20 d2bd c9db 9ebd a10e a83b f9f0 133d
00000360: 5fea 1d3e de61 d5bb 9f3a ac3d 150c 133c
00000370: 1677 4fbd e237 8cbc a221 423e 7b05 843b
00000380: 30a5 68bd 41ad 90bd f4be 61be 59e5 603e
00000390: b6f2 1c3c 644c 6c3d 960b 24be 5304 333e
000003a0: 1005 163b 0533 aa3d eb51 a5bd 3f46 cebd
000003b0: 233e 26bb 14be 843e 889f 093d f641 f2bb
000003c0: a226 7ebe d8cc 0d3e 160e 0a3c b14a 5e3e
000003d0: fd4d e1bd 4255 53bd 0e23 f93d 1c41 dd3d
000003e0: 596a babd a198 5dbe d96a 50bb b223 87be
000003f0: 4ec9 53bd 9d31 d83d 3dc1 513d 52ba bebd
-0.099929996 -0.0032364223 -0.012037079 0.053134818 -0.12547523 -0.040364742 0.04634191 0.10062896
0.07488367 0.026260199 0.072386466 0.22535501 0.12761866 0.14355002 0.027480662 -0.026452959
0.0077584735 -0.04707809 0.05658624 0.09401487 0.07640869 0.14577615 -0.048753973 -0.0020355647
0.19839676 0.18649647 0.10659826 -0.12703972 -0.18978842 -0.10237169 0.01602345 -0.06571056
0.09465128 0.08963484 -0.1181687 0.05022738 0.077082664 -0.10533785 -0.107611686 -0.11218201
-0.17547001 -0.029092677 -0.2667235 0.005560519 0.035833545 -0.21120603 -0.11871252 -0.19363074
0.00016607056 0.031888902 0.1927091 -0.04828232 -0.07219223 0.1537118 -0.072275385 -0.05242486
-0.21560587 -0.18959002 -0.11419539 0.0968085 0.02682362 0.09798696 0.1673771 -0.08316198
-0.10268717 -0.062637456 0.06270583 0.031527672 -0.0076388763 -0.12639743 0.10720348 0.04747894
0.11383248 0.024527673 -0.2417347 0.003164847 -0.2316601 0.039093938 -0.10958084 -0.06780108
0.016465137 0.0901124 0.060659755 -0.10786015 0.12331199 0.10089104 0.14689785 0.058439862
-0.009712158 0.045845643 0.1387257 0.059785437 0.04494457 -0.26062104 -0.15221612 0.09051839
0.15461686 -0.14372429 0.00025879158 0.09495077 0.023379048 -0.15226953 0.24936153 0.1234193
-0.15487556 -0.08353373 -0.050148528 -0.17479579 0.062491078 -0.04280003 0.0243079 -0.0870935
0.02567711 -0.028548395 0.13619138 -0.10262048 -0.05787953 -0.15677993 -0.24389048 -0.076388575
0.045941327 0.07326573 -0.108907335 -0.053791124 -0.038088426 -0.041111693 0.1011203 0.005049431
0.29463688 0.13781852 -0.06298959 -0.18362236 0.107086115 0.16792192 -0.101131566 0.18610679
-0.1715341 -0.15196638 0.02892112 -0.004340565 0.08919373 0.04183549 0.14251502 0.14766417
0.030850727 0.028484851 -0.18294485 -0.08443354 0.16343513 -0.04366591 0.03648011 -0.09159297
-0.2353191 0.007844406 -0.09948861 0.04490728 0.020433124 -0.08302591 -0.1578092 0.14275543
-0.00011441931 0.41184253 0.124803275 -0.24346516 0.076790415 -0.1431826 0.07311256 -0.20484793
-0.11986859 0.16882202 0.15264134 -0.081816755 0.19420661 -0.12154884 -0.059301727 -0.03194579
-0.11228835 -0.1097896 0.09542277 -0.075700484 -0.017014675 -0.05268222 0.044389445 0.059471417
-0.18693276 0.021195536 0.18688834 0.06170939 0.030892001 0.14852527 -0.17504206 -0.14850606
-0.056248978 0.03761185 -0.05931566 -0.35076317 -0.047427785 0.005771457 0.018534182 -0.10776044
0.17802532 -0.10056708 0.23749456 0.069187075 -0.048874546 -0.16206391 -0.098090984 0.03530433
0.13781409 -0.028773716 -0.094691195 0.24767555 -0.1026015 -0.077567644 0.005128697 0.03611848
0.15421437 -0.006511911 0.084096186 0.008975049 -0.05065068 -0.01711649 0.18958142 0.0040289736
-0.05679816 -0.070642956 -0.22045499 0.21962489 0.009579351 0.05769004 -0.16020045 0.17482118
0.00228912 0.083105125 -0.08072265 -0.10071992 -0.0025366626 0.25926268 0.033599406 -0.007393117
-0.24819425 0.13847673 0.00842621 0.2170818 -0.11001203 -0.05159498 0.12164889 0.10803434
-0.091023155 -0.21640255 -0.0031801967 -0.2639442 -0.05170565 0.10556338 0.051209677 -0.093128815

model.0.bias f4 [48]
00000000: a967 00bd 21d2 e1bc 52c3 c83d a1fa 99bd
00000010: d5c6 ff3d 5f97 5b3e ec43 913d 0fcb c1bc
00000020: cedf 003d 9380 43bc 9e12 3fbe 57ee 01be
00000030: 8d16 3b3e cf55 b43c 54e7 e9bd ceed 7b3e
00000040: d1b3 07bd 2cb5 a3bd 57fc e43d b055 75bc
00000050: 21e9 913d 43e2 4fbe 2319 1c3d 1226 4dbc
00000060: 3b2b a8bc ceb5 183c a4b3 053e 7f03 d03d
00000070: 6229 233e cfe5 0bbe f95a 64bd 2611 c83d
00000080: 65e4 b53d 5254 6c3c e4f1 95bd 80da a83d
00000090: 5288 49bd fff4 b63d 59fe 51bd 6ec2 36bc
000000a0: fb62 17bd 3673 013d dcac 353d 7496 30bd
000000b0: 98e2 17be 34d6 193d 68e8 98bd 1440 d13d
-0.031348858 -0.027566018 0.098028794 -0.07518507 0.12489096 0.21444462 0.07093033 -0.023656396
0.031463437 -0.01193251 -0.18659446 -0.12688576 0.18270321 0.022013573 -0.114210755 0.24602434
-0.03313047 -0.0799354 0.111809425 -0.014974043 0.07124544 -0.20301156 0.03810991 -0.012521284
-0.020528426 0.009320689 0.13056809 0.10156917 0.15933755 -0.13661884 -0.05575082 0.09768896
0.088814534 0.0144244 -0.073215276 0.082448006 -0.04920227 0.08933448 -0.051267955 -0.011154754
-0.03695963 0.031604014 0.044354305 -0.043112233 -0.14832532 0.037557796 -0.07466203 0.102173

model.1.weight f4 [48]
00000000: 1f5d 583f ecdf 2f3f 39f2 313f 6b7f 653f
00000010: 6b2a 733f 83d6 5c3f ac4b 343f b6a7 623f
00000020: bdac 333f 1305 313f f8d0 2c3f 6afa 373f
00000030: dc03 3a3f ced9 433f 2a73 343f 952c 2a3f
00000040: d065 393f 7b4d 303f 88ca 513f fcb8 213f
00000050: 606f 393f 1639 2e3f 989c 3c3f 946a 2d3f
00000060: 57ab 5c3f 063a 5b3f 7d11 613f 26fd 333f
00000070: 6d73 3a3f 80a6 2d3f ac8b 613f b4d7 363f
00000080: 8156 3d3f 74c5 5b3f c962 3f3f fe95 373f
00000090: d7c4 693f 41cf 4d3f 6ef3 633f 03c1 663f
000000a0: b959 683f 2c4a 563f e130 5c3f 1fdd 2e3f
000000b0: 27a1 5b3f f4a6 593f 53ad 393f 6246 633f
0.8451709 0.6870105 0.6951023 0.8964755 0.949866 0.8626482 0.70427966 0.88537157
0.7018545 0.6914837 0.6750636 0.71866477 0.7266214 0.7650422 0.70488226 0.66474277
0.7242098 0.68868226 0.81949663 0.6317289 0.7243557 0.68055856 0.73676443 0.6774075
0.86198944 0.8563541 0.8791731 0.7030815 0.72832376 0.67832184 0.8810375 0.71422887
0.7396012 0.85848165 0.7476011 0.71713245 0.9131598 0.8039437 0.8904332 0.9013826
0.90761906 0.8370693 0.86012083 0.68306154 0.85792774 0.85020375 0.72530097 0.8877927

model.1.bias f4 [48]
00000000: 9e74 00bf 2984 4fbf f00e 41bf ee68 c0be
00000010: dd47 e4be 8457 ffbe 2616 52bf 78a2 e8be
00000020: cb0c 50bf f47d 4bbf 713f 4bbf c961 45bf
00000030: 1120 52bf 8b1a 56bf 5e37 4abf 8695 3fbf
00000040: 0509 52bf 63a1 56bf 7cab ebbe 3089 4dbf
00000050: 5013 52bf 0cd7 3fbf 4a9a 4bbf effb 4ebf
00000060: 0a81 efbe 224a e5be b632 bdbe b070 4bbf
00000070: d555 36bf 3fcd 4abf 5ebe f3be 069b 3abf
00000080: c909 50bf 9bae 0cbf a2a7 4dbf 1198 4bbf
00000090: 9b0b d3be 47f5 17bf d64f d6be 6446 dcbe
000000a0: 5935 f0be 8b4e 00bf 9f50 debe 693a 43bf
000000b0: b236 c2be 3233 dbbe a0d5 4ebf 4f85 d3be
-0.50177944 -0.81061035 -0.7541342 -0.37580055 -0.44586077 -0.49871457 -0.82065046 -0.45436454
-0.8126952 -0.79489064 -0.7939368 -0.77102333 -0.8208018 -0.8363425 -0.78990734 -0.7483753
-0.8204501 -0.83840007 -0.4602927 -0.80287457 -0.8206072 -0.7493751 -0.795323 -0.8085317
-0.46778136 -0.4478312 -0.36952752 -0.7946882 -0.7122472 -0.7921943 -0.47606176 -0.72892797
-0.8126493 -0.54953927 -0.8033391 -0.7952891 -0.41219792 -0.5935864 -0.41857785 -0.43022454
-0.469157 -0.5011985 -0.43420884 -0.76261 -0.37932354 -0.42812496 -0.80794716 -0.41312644

model.1.running_mean f4 [48]
00000000: 3657 603b da3d 223d 8700 4b3e b81e bdbd
00000010: 6670 003e 3f28 563e bde0 863e 1bb1 a43c
00000020: 127f 483e 1292 413e 94d1 3f3d f908 9e3d
00000030: c42b 5b3e 1775 013e 49f5 8c3d ce4e ba3e
00000040: 2e27 793c a539 0a3e e09f 053e d8bc 973d
00000050: 623b 003e dbe0 a7bd 8a30 f53d 6e82 00bc
00000060: e18d 7e3d 611e 203e 11f9 833e dd52 923e
00000070: b84a ab3e bdc9 30bd 9ba9 4c3d 2091 2a3e
00000080: aa7f 263e dcc6 c6bc 18b3 dabc 57ec 563e
00000090: e6c3 5cbd 9e01 8e3d 151b b83c badf 44bd
000000a0: 4d73 7f3c 83bd 093e 8e17 9bbd 8de7 f53d
000000b0: 8bcf fbbd ee30 673d 0c4b bbbc b8d0 813e
0.003423167 0.039609767 0.1982442 -0.09234375 0.12542877 0.2091379 0.26343337 0.020103982
0.19579723 0.18903378 0.04683073 0.07716555 0.21403414 0.12642322 0.06882722 0.36388248
0.015207095 0.13498552 0.13049269 0.07409066 0.12522653 -0.08197185 0.11972149 -0.007843597
0.062147025 0.15636589 0.2577596 0.28578845 0.33455443 -0.043161143 0.049966436 0.16656923
0.16259637 -0.024264745 -0.026696727 0.20988594 -0.05389776 0.06933902 0.022473851 -0.048064925
0.015591455 0.13451199 -0.07572852 0.120070554 -0.12295445 0.056443147 -0.022862934 0.25354552

model.1.running_var f4 [48]
00000000: 0549 8c3b d967 5b3b c82c 833b 7be7 973b
00000010: 0d78 d03b 00bb a03b a646 863b f067 bd3b
00000020: 0aea 773b c55f 823b 2325 553b c066 7d3b
00000030: 2a26 783b 1629 8d3b 4bc7 713b eace 913b
00000040: 26fe a83b e2f0 4f3b c79c a03b 927d 513b
00000050: 15ed 903b 1aa2 a13b aae3 9b3b 137c 9b3b
00000060: c1b5 8e3b 8063 b33b 5048 de3b a5ee 6d3b
00000070: 6f59 833b bacd 663b fc85 ac3b 19e3 b63b
00000080: 9455 753b 1070 a83b 83d2 5d3b a528 6e3b
00000090: 2bcd 9b3b 9469 a23b be70 bb3b e0b3 c13b
000000a0: 7707 ea3b 1e74 8f3b 1d99 d43b 98f7 663b
000000b0: 2f0b ae3b 653b b33b 79f8 9f3b a24a be3b
0.0042811655 0.0033478646 0.004003141 0.004635749 0.0063619674 0.0049051046 0.0040977774 0.0057802126
0.0037828707 0.003978702 0.0032523356 0.003866598 0.0037864544 0.0043078763 0.003689247 0.004449715
0.00515725 0.003172927 0.004901502 0.0031965715 0.0044227936 0.004932654 0.0047573643 0.0047450154
0.004355163 0.005474508 0.0067835227 0.0036305573 0.004008464 0.0035217837 0.0052649956 0.0055812714
0.0037435042 0.005140312 0.0033847399 0.0036340144 0.0047546825 0.0049564335 0.005720227 0.0059113353
0.007142003 0.004377856 0.006487979 0.0035242792 0.005311392 0.005469727 0.004881915 0.005807237

model.4.weight f4 [24, 48]
00000000: b7ed bbbd 2ed9 613e e43b 803e 11ee a5bd
00000010: ee28 58bd d5d4 d9bd 6156 6a3e 263b 3dbd
00000020: 21b0 5d3e 6767 283e 1c4a 273e 8d60 4a3e
00000030: 3a23 233e cd6c 383e 21ab 653e 9c34 7e3e
00000040: 9186 4d3e 761a 6e3e 442d c4bd cd61 853e
00000050: b3d2 723e 3a1b 403e 2f4d 6b3e f6d3 573e
00000060: c8d1 1fbe 0961 9dbd b438 91bd cdfb 3c3e
00000070: 3454 853e 9cd7 643e 5038 f1bd 195f 6d3e
00000080: 808b 443e 128c c8bd 0ff5 2e3e c3c1 463e
00000090: 7c8b 18bd fdbe e8bd 2e69 91bd 68c0 ddbd
000000a0: fa22 8bbd c61a a4bd ad14 a9bd 3155 2a3e
000000b0: a35e 9bbd 9831 adbd bd42 813e ba08 1ebd
000000c0: bd96 c4bd 6b41 4f3e 29cb 503e a28e 86bd
000000d0: f9bf 85bd 0fc3 a3bd 74db 2a3e 6d81 bbbd
000000e0: f71d 503e bc10 463e d53c 563e e0a1 463e
000000f0: 4505 483e 9ac1 4b3e fc52 243e 3839 3e3e
00000100: c6fc 103e cd76 303e 3cc8 c5bd 0215 7b3e
00000110: 518b 393e af52 363e 6c4a 193e 94df 3d3e
00000120: 2019 e5bd 00a4 cabd 2c63 b4bd e816 303e
00000130: d231 773e 227c 1d3e dbe4 11be 5164 4c3e
00000140: d40b 2c3e 93b4 00be 8f99 613e f84e 1e3e
00000150: e8b7 8fbd f90d 32be 5925 91bd af45 9dbd
00000160: 7b88 81bd f961 aebd 1a0f c1bd 43e0 553e
00000170: 0459 bcbd 0800 8abd 71d8 5a3e 3fcb d4bd
00000180: 6e5c d6bd 97fb 603e 6cad 2f3e 4240 d3bd
00000190: 347a adbd 38f6 d5bd 10cc 323e a12f 56bd
000001a0: 52b1 533e 809e 513e 47e4 663e 1179 803e
000001b0: b05d 123e 2313 6b3e 90ba 5a3e f50d 8d3e
000001c0: 52aa 243e 2e5f 4b3e bebf fdbd a010 583e
000001d0: d89a 743e fdb3 363e 5409 3b3e c5bc 4c3e
000001e0: ceb5 0fbe 8500 01be 645c e9bd 8013 3f3e
000001f0: f637 223e 225e 553e 6b03 13be ab71 313e
00000200: 89b6 203e e7f6 03be c7bf 2e3e 9c48 233e
00000210: 1c49 e6bd 2584 aebd afd3 fdbd 014e c9bd
00000220: 57dc ecbc dde2 98bd 22c0 34bd 7a69 2e3e
00000230: fb1f 37bd 594c c4bc 8d2d 863e ce1f bebd
00000240: 8ab2 723e 4050 b0bd 68cb 4cbe 3b88 583e
00000250: 3b12 313e c6c8 4e3e cc0d 10be cf77 823e
00000260: aaaf 22be d064 d1bd 7ad9 03be dad0 42be
00000270: 84e4 e7bd 6328 d8bd ee5a 14bd 41d1 d9bd
00000280: a33f 59bd 88c6 a1bd 1b8f 473e 8b69 98bd
00000290: 6dec ebbd 7274 d9bd c50e 19be 2bd0 1cbd
000002a0: ea91 8e3e 5bd3 703e ab27 673e dc0d 19be
000002b0: 82b7 e8bd 87b4 93bd 6f8e 4b3e 8b1d cfbd
000002c0: 6677 49bd e099 5c3e b75b 05bd ea91 dabd
000002d0: c14f 103e a9b7 4b3e 991b 553e ec28 453e
000002e0: 9a2d 5e3e 1615 8b3e 7ee5 433e ed38 04be
000002f0: 7fd1 953e 420b 6f3e f0b0 00be edda 743e
00000300: e8ba 413e 0385 30be 6691 78bd b20f 5b3e
00000310: 61b8 793e a3c8 603e 7391 66bd 3dbf 953e
00000320: 41c9 bebd 6d41 9dbd 16a4 f3bd 470f ecbd
00000330: a7d5 04be 8dc0 73bd 9ac6 97bd bf64 a2bd
00000340: c7df bebd f084 13be c899 523e 3e32 41be
00000350: 5c87 dfbd b57c 7bbd 31c7 44bd 1064 d6bd
00000360: f378 493e 8034 523e e442 5b3e fc28 02be
00000370: db7c 00be 0220 10be ad02 443e 513e 81bd
00000380: 209f 94bd 21b3 413e c08a b5bd 842b 2cbe
00000390: 35f8 653e 6e77 3f3e 8562 563e 4acb 643e
000003a0: ac1a 6b3e ef8c 333e 55b3 5e3e cbf1 93bd
000003b0: 3ee9 4c3e a106 873e 0ad9 2bbd ea17 493e
000003c0: c2ff 8d3e a738 0ebe c4d5 71be 0e0b 583e
000003d0: 9d63 1a3e a8fc 7e3e 2e41 ffbd 8744 283e
000003e0: c2a0 c3bd 1209 cfbd 63d0 0bbe 71e3 09be
000003f0: 465b d1bd 3b5c cabd 2335 07be d6d6 42bd
-0.091762 0.22055504 0.25045693 -0.08102048 -0.05277341 -0.106362976 0.22884513 -0.046198986
0.21649219 0.16445695 0.16336864 0.19763394 0.15931407 0.18010254 0.22428562 0.24824756
0.20070864 0.23252282 -0.09578946 0.2605118 0.23713188 0.18760386 0.22978662 0.2107695
-0.15607369 -0.076845236 -0.070908934 0.1845543 0.26040804 0.22347873 -0.11778319 0.23180808
0.1919384 -0.09792341 0.1708567 0.19409852 -0.037242398 -0.11364553 -0.071001396 -0.10827714
-0.067937806 -0.08012919 -0.08255897 0.1663406 -0.0758641 -0.08456725 0.2524623 -0.03858254
-0.095990635 0.20239799 0.2039 -0.06570174 -0.065307565 -0.07996189 0.16685277 -0.091555454
0.2032393 0.19342321 0.20921643 0.19397688 0.1953326 0.19898072 0.16047281 0.18576515
0.14158925 0.17232819 -0.09657332 0.24519733 0.18119551 0.17804979 0.14969796 0.1854232
-0.11186433 -0.09894562 -0.08807978 0.17196238 0.24140099 0.15379384 -0.14247458 0.19960143
0.16801387 -0.12568884 0.22031234 0.15459812 -0.07017499 -0.17388143 -0.070872016 -0.07679307
-0.0632486 -0.085147806 -0.094267085 0.2088633 -0.09196666 -0.06738287 0.21371628 -0.103903286
-0.10466848 0.21970974 0.17155999 -0.103149906 -0.08470574 -0.10447353 0.17460656 -0.052291516
0.20673111 0.20470619 0.22548018 0.25092366 0.14293551 0.22956519 0.2136023 0.2754971
0.16080597 0.19860527 -0.123900875 0.21100092 0.23887193 0.17842098 0.18265277 0.19993885
-0.14034197 -0.12597854 -0.11394575 0.18659782 0.1584166 0.2083669 -0.14356773 0.17328517
0.15694632 -0.12887155 0.17065345 0.15945667 -0.11244413 -0.08521298 -0.12393891 -0.09829331
-0.02891366 -0.07465146 -0.044128545 0.17032424 -0.044708233 -0.023962187 0.26206627 -0.0928341
0.2370092 -0.086090565 -0.19999468 0.21145718 0.1729211 0.20193776 -0.14067763 0.25482032
-0.15887323 -0.102243066 -0.1287593 -0.19024983 -0.11322883 -0.10554578 -0.03621953 -0.10635615
-0.053039204 -0.07899195 0.19488184 -0.07442006 -0.11519704 -0.10617913 -0.1494704 -0.038284462
0.278457 0.23518126 0.22573726 -0.14946693 -0.11363126 -0.07212167 0.19878553 -0.10113057
-0.049186133 0.21543074 -0.03255817 -0.10672362 0.14092924 0.1989428 0.20811309 0.19253892
0.21697083 0.27164525 0.19130513 -0.1291234 0.29261395 0.23344138 -0.12567496 0.23911639
0.18918955 -0.1723824 -0.060685538 0.21392706 0.24386741 0.21951537 -0.056291055 0.29247466
-0.0931573 -0.076784946 -0.11896531 -0.115263514 -0.12972127 -0.059509803 -0.07410927 -0.07929372
-0.09320026 -0.1440618 0.20566475 -0.18866822 -0.109144896 -0.061398227 -0.048041526 -0.10468304
0.19675045 0.2052784 0.21412235 -0.12710947 -0.12547629 -0.1407471 0.19141646 -0.06310714
-0.07256913 0.18915989 -0.08864355 -0.16813475 0.22457965 0.18697903 0.2093602 0.22343174
0.22959393 0.1753423 0.21748097 -0.07223853 0.2001085 0.26372245 -0.04195503 0.19638029
0.2773419 -0.13888799 -0.23616701 0.21097967 0.15077062 0.24901068 -0.12463604 0.16432391
-0.095521465 -0.10109152 -0.13653712 -0.13465668 -0.10222487 -0.09880873 -0.13203864 -0.047568165

model.4.bias f4 [24]
00000000: d69f b0bd 9cc6 c43d 75ef 873d ce3f d23d
00000010: 17a3 543e 02c1 ebbd 0e7b 5ebc bef5 f93d
00000020: 1279 1c3e 6f83 233e 2078 a6bd d10e 103d
00000030: 4dd6 873d cea1 ef3d a5fb 8d3d ddb1 0a3e
00000040: 5bf3 e33d 6c1b ba3d f6cb de3d 5bdc 06be
00000050: 4a22 adbd 8326 3a3d 2069 afbd 671e 8dbb
-0.08624236 0.09608194 0.0663747 0.10266076 0.20765339 -0.11511423 -0.013579143 0.12205075
0.1528056 0.15968107 -0.08128381 0.03517038 0.066326715 0.11700784 0.06932763 0.13544412
0.11130401 0.090872616 0.10878746 -0.13169996 -0.08453806 0.045446884 -0.08564973 -0.0043066028

model.5.weight f4 [24]
00000000: 5d62 963f d39b 943f 5679 8c3f 66a4 7f3f
00000010: b820 823f aeb6 8c3f c086 823f 2130 8b3f
00000020: d633 8f3f 6e0f 903f 6b45 8f3f ee90 923f
00000030: 7f28 8d3f d82c 8f3f 48e4 903f c163 983f
00000040: 4447 8d3f d302 8d3f d947 873f 69d6 8e3f
00000050: 7832 933f 1deb 903f bb45 8c3f df84 953f
1.1748768 1.1610054 1.0974529 0.9986023 1.0166235 1.099325 1.0197372 1.0874063
1.1187694 1.1254709 1.119306 1.1450479 1.1027983 1.118556 1.1319666 1.1905442
1.1037374 1.1016487 1.0568801 1.1159183 1.1499777 1.1321751 1.095878 1.1681174

model.5.bias f4 [24]
00000000: b159 bbbd 92aa 0dbe 5cdd 10be b0f4 f43e
00000010: 04ee f83e fa57 023f 701b df3e bef8 2dbe
00000020: 6c69 06be 1cf4 dc3e af33 1cbe 730b 27be
00000030: a6f2 2dbe 86c6 e63e 8db5 fa3e 1c34 3dbe
00000040: 9f97 24be be0a f33e 4ad0 f63e cfcd 2cbe
00000050: 8f73 053f 9824 ed3e 2133 27be 9e3d 3dbe
-0.09147967 -0.13834599 -0.14146942 0.47842932 0.48619092 0.5091549 0.4357562 -0.16989419
-0.13126153 0.4315499 -0.1525409 -0.16312961 -0.16987094 0.45073336 0.48966637 -0.1847691
-0.16073464 0.47469133 0.48205787 -0.16875385 0.52129453 0.4631698 -0.16328098 -0.18480536

model.5.running_mean f4 [24]
00000000: 14e5 cbbd 30a7 ac3c e758 f4ba 10e4 3e3f
00000010: a85e 583f 627d f93e 4ae8 093f f70b 293d
00000020: fa85 b13d 030c 393f 4cb9 fdbd e862 d239
00000030: 8e18 0b3b b150 283f 00b9 1d3f 85ac 2a3d
00000040: 7d8e ec3c 0982 243f 0d2f 3d3f c56c 3dbe
00000050: 0e04 073f 21cc 0f3f ee66 22be 1ccd 1bbd
-0.099558026 0.021075815 -0.0018642218 0.74566746 0.84519434 0.48728472 0.5387007 0.041271176
0.08668132 0.72283953 -0.12388858 0.00040128012 0.0021224353 0.65748125 0.6161041 0.041668434
0.028876537 0.6426092 0.7389992 -0.18498524 0.5274056 0.5617085 -0.15859577 -0.038037404

model.5.running_var f4 [24]
00000000: f2f8 3a3f b904 2b3f b052 383f 8b99 c43f
00000010: 2875 bc3f 056e c53f e007 b03f ab03 373f
00000020: 7b68 3b3f 5bce af3f ea48 483f 3ae4 2a3f
00000030: 741c 2f3f 07d9 ab3f d0a4 a13f abf1 3e3f
00000040: 5d14 2b3f 9e5b ba3f 6d58 c43f 9ef9 383f
00000050: afbc cd3f 2766 ae3f 2f74 323f 2219 333f
0.7303611 0.6680408 0.7200117 1.5359358 1.4723253 1.54242 1.3752403 0.7148997
0.732063 1.373485 0.7823626 0.66754496 0.6840279 1.3425606 1.2628422 0.74587506
0.66827947 1.4559209 1.5339485 0.72255886 1.6073207 1.3624924 0.6970853 0.69960225

model.8.weight f4 [2, 24]
00000000: 9af1 90be ff58 52be 954d 7cbe 51e9 073f
00000010: f48c 1d3f 5ff8 ce3e ec03 173f f47f 9fbe
00000020: d70f 9abe ea89 fd3e dda4 70be 25d0 bfbe
00000030: 8cd2 8bbe 0ee9 263f d9b4 a43e ac84 a2be
00000040: db86 90be ac98 083f be95 0b3f 7680 8bbe
00000050: 1c06 003f 77d8 e63e 6d13 9dbe 82ae 52be
00000060: bd64 893e 8f11 b93e aae2 af3e 6fb2 04bf
00000070: ca32 00bf 22ed 23bf f063 0cbf 8028 843e
00000080: e35b 723e 815d e5be 9a96 a03e 8ab6 4c3e
00000090: 348c 863e 255c b2be 7733 27bf 26f6 693e
000000a0: dfbd 893e 02ee 00bf 0033 eabe a4d6 923e
000000b0: 02bc fbbe 7862 13bf 6cbd 9d3e bce6 ac3e
-0.28309327 -0.20541762 -0.2463897 0.5309039 0.615432 0.40423867 0.5899036 -0.31152308
-0.3009021 0.49519283 -0.2350039 -0.3746349 -0.27309072 0.65199363 0.32169226 -0.31741846
-0.28227887 0.5335796 0.54525363 -0.27246445 0.5000932 0.45087025 -0.30678883 -0.20574382
0.2683467 0.3614621 0.34352618 -0.5183477 -0.500775 -0.6403371 -0.5483999 0.2581215
0.23667865 -0.447979 0.313649 0.19991508 0.26278841 -0.34835926 -0.65312904 0.22847804
0.26902673 -0.5036317 -0.45742035 0.28679383 -0.49166876 -0.57572126 0.3080858 0.33769786

model.8.bias f4 [2]
00000000: d133 ba3e bcd2 f0be
0.36367658 -0.47035778
