trained_models/run34.pth (torch, 135403 bytes, 8 tensors)

model.0.weight f4 [32, 1024]
0	0x3cab9b17	0.020947976
1	0x3c518ded	0.012790185
2	0x3dbb042d	0.09131656
3	0xbd6ce369	-0.057834063
4	0x3d21a60e	0.039465003
5	0x3d717c27	0.05895629
6	0xbc615cfa	-0.0137550775
7	0xbc5aa6c9	-0.013345429
8	0x3dbc654e	0.0919901
9	0xbce5939d	-0.028024489
10	0x3dd6ded8	0.10491723
11	0x3d7a0d01	0.061047558
12	0x3c449d3d	0.012000379
13	0xbb896722	-0.0041932026
14	0x3d9b3827	0.075790696
15	0xbdae51be	-0.08511685
16	0x3c4387f2	0.011934267
17	0xbd49d180	-0.04927206
18	0xbc98431c	-0.018586688
19	0xbcb485c1	-0.022036435
20	0xbcec3921	-0.028835835
21	0x3c666ac8	0.014063545
22	0xbca09a22	-0.019604746
23	0xbc937f86	-0.018005144
24	0x3d876375	0.06610767
25	0xbb81c32c	-0.003960034
26	0x3d903bad	0.07042632
27	0xbd66dbf3	-0.056362104
28	0xbd42bc12	-0.04754264
29	0xbd389759	-0.04506621
30	0x3d394b31	0.045237724
31	0xbd456ca2	-0.048199303
32	0x3da24e30	0.07925069
33	0xbd5d6c0a	-0.054058112
34	0xbd71e1e1	-0.059053306
35	0xbd044425	-0.03229155
36	0x3d4e40e2	0.050354846
37	0x3c854ee7	0.016272975
38	0xbd30c9e9	-0.043161307
39	0x3bb1391c	0.0054084193
40	0x3d427e3e	0.047483675
41	0xbd1089fd	-0.035287846
42	0xbd1629c7	-0.036660936
43	0xba3d3d83	-0.0007218944
44	0xbd8fa2f6	-0.07013504
45	0xbb212bdc	-0.0024592793
46	0x3d1af5fe	0.037832253
47	0x3bf977a8	0.007613141
48	0xb94d3492	-0.00019569907
49	0x3cd4fe75	0.02600024
50	0x3bbc4d94	0.0057465527
51	0xbd4de89c	-0.05027066
52	0xbc49a252	-0.012306767
53	0x3dca5bd2	0.098807946
54	0xbd882561	-0.066477545
55	0xbc2a98ca	-0.010412404
56	0xbd5d48ab	-0.05402438
57	0xbcee8417	-0.02911572
58	0x3d4ba0eb	0.04971401
59	0x3895eb2c	7.148678e-05
60	0x3d9faa56	0.07796161
61	0x3dcfdb37	0.10149234
62	0x3cad9f78	0.021194205
63	0xbce98851	-0.028507384
64	0xbcd95975	-0.026531914
65	0x3d7482fc	0.05969523
66	0x3d71a189	0.058991943
67	0x3d577248	0.05259922
68	0xbd9eb56f	-0.077494495
69	0xbd216eac	-0.039412186
70	0x3d5a38c6	0.0532768
71	0x3d79c995	0.06098326
72	0x3daf5846	0.08561759
73	0x3dbb5f47	0.09149032
74	0xbe01c247	-0.12671767
75	0xbb973608	-0.0046145953
76	0xbce48168	-0.027893737
77	0xbaefe33c	-0.0018301974
78	0xbda55c21	-0.08074213
79	0x3daaccda	0.083398536
80	0x3d3f4575	0.0466971
81	0xbcbaa3aa	-0.02278312
82	0xbd1f6867	-0.038917925
83	0xbdc9ed79	-0.098597474
84	0x3d322e67	0.043501284
85	0x3a4f5fcc	0.0007910698
86	0x3ceca1ea	0.0288858
87	0xbdcfd249	-0.101475306
88	0x3c0e5a38	0.008688502
89	0x3d5ba6a4	0.053625718
90	0xbd9a302e	-0.07528721
91	0xbcb0f3de	-0.02160066
92	0x3e0abba7	0.13548146
93	0xbd90d4e6	-0.07071857
94	0xbd8f77b2	-0.07005252
95	0xbd38420a	-0.044984855
96	0x3c800940	0.01562941
97	0x3c671838	0.014104895
98	0x3cce3187	0.0251701
99	0xbd4e770a	-0.050406493
100	0x3c3e36ec	0.011609774
101	0x3cb3f571	0.021967622
102	0x3d2ce3dc	0.04220949
103	0x3ce50e76	0.027960997
104	0x3d899879	0.06718535
105	0xbda67869	-0.08128435
106	0xbc164ea4	-0.009174023
107	0x3bd4e1f6	0.006496663
108	0xbd3c97bb	-0.04604314
109	0xbd39415f	-0.04522836
110	0x3ce8358d	0.028345848
111	0xbe28e60c	-0.16494006
112	0xbd3d2c1a	-0.046184637
113	0x3c20297f	0.009775518
114	0xbc2b2c50	-0.010447577
115	0xbcb986e9	-0.022647338
116	0x3d330aaf	0.04371136
117	0xbd49c2e6	-0.049258135
118	0x3cb1fd46	0.021727215
119	0x3d1d600b	0.03842167
120	0x3d59b6bb	0.05315278
121	0xbbd4b8bc	-0.0064917486
122	0xbd3d6440	-0.046238184
123	0x3a11d2a2	0.0005562698
124	0x3d23f04b	0.040024083
125	0x3dacb888	0.08433634
126	0x3d85a01d	0.0652468
127	0x3d061d31	0.032742683
128	0x3d2140de	0.039368503
129	0xbc918dfb	-0.017767897
130	0x3d69e8de	0.057106845
131	0x3d8de16b	0.06927761
132	0x3d63b33a	0.055590846
133	0xbb36b7ab	-0.002788047
134	0xbb7bcd16	-0.0038421801
135	0xbd103e69	-0.03521577
136	0xbd65e18f	-0.056123313
137	0xbd85107c	-0.06497285
138	0x3bc5f88c	0.006041592
139	0xbd3f6027	-0.046722557
140	0xbd42658e	-0.04746013
141	0xbd4a542b	-0.049396675
142	0xbd968709	-0.07349975
143	0x3cec2218	0.02882485
144	0x3d6c7f45	0.05773856
145	0xbcaac74a	-0.020846982
146	0xbd320810	-0.04346472
147	0xbd390c66	-0.04517784
148	0x3bfd662f	0.0077331285
149	0x3b7d0d49	0.0038612655
150	0xbbe57b2a	-0.0070032077
151	0x3d34b765	0.04412021
152	0xbbeef1c0	-0.0072920024
153	0x3d7ed6a6	0.062216423
154	0x3c821ee3	0.015883869
155	0xbd13aa97	-0.03605136
156	0x3e2ee94c	0.17081183
157	0xbd34cfff	-0.044143673
158	0xbd0cc918	-0.034371465
159	0x3bb124be	0.0054059913
160	0xbba6cea3	-0.005090551
161	0xbc874e09	-0.016516702
162	0x3bfc6b8f	0.0077032517
163	0xbdcc0d85	-0.09963516
164	0x3d6b9df8	0.057523698
165	0xbda96f00	-0.08273125
166	0x3d3c4404	0.045963302
167	0xbda58e05	-0.08083729
168	0xbd3166b0	-0.04331082
169	0x3cb8a3fc	0.022539131
170	0x3c4dc68c	0.012559544
171	0xbd0b0c67	-0.033947375
172	0x3d4535c9	0.048146997
173	0xbd40f11c	-0.04710494
174	0xbd24a391	-0.04019505
175	0xbdbb75bd	-0.09153316
176	0xbdb36ecb	-0.087613665
177	0xbce63f71	-0.028106423
178	0x3d967623	0.073467515
179	0x3a4a6d44	0.00077219703
180	0x3d0270fd	0.031846035
181	0x3c89f7da	0.016841818
182	0xbcd99f8b	-0.026565334
183	0x3c2747c4	0.010209981
184	0x3d490a52	0.049082108
185	0x3bdc05a4	0.0067145396
186	0x3d212eb8	0.039351195
187	0x3c0c9eed	0.008582813
188	0xbd6f44c3	-0.058415186
189	0xbc8ac5f8	-0.016940102
190	0xbd79e008	-0.06100467
191	0x3c27d0b3	0.010242629
192	0xbbe260ce	-0.0069085127
193	0x3cd5a4e6	0.026079606
194	0x3d267d36	0.040646754
195	0xbe22847c	-0.15870851
196	0xbce7aec7	-0.028281583
197	0xbd46b890	-0.048515856
198	0x3e131638	0.14363945
199	0xbd861f4a	-0.06548937
200	0x3d10ca9c	0.035349473
201	0x3b67e961	0.0035386907
202	0x3cb359f5	0.02189348
203	0x392e65e4	0.0001663189
204	0xbd5f00aa	-0.054443993
205	0xbab87eb6	-0.0014075849
206	0xbd9fb910	-0.0779897
207	0xbbf385ef	-0.0074317376
208	0x3d987bcf	0.074454896
209	0xbc811118	-0.015755221
210	0xbaf227eb	-0.0018475031
211	0x3da3b226	0.079929635
212	0xbc1b8051	-0.009491042
213	0xbd9e957d	-0.077433564
214	0xbcb9589d	-0.022625262
215	0xbd2ec4ba	-0.04266808
216	0x3ced5c41	0.028974654
217	0x3ce134e0	0.027491033
218	0x3d539c77	0.05166289
219	0x3dc4171f	0.095747225
220	0xbd81a1bc	-0.063296765
221	0x3d192f9b	0.037398916
222	0x3d87174f	0.06596243
223	0xbe08ea18	-0.1337055
224	0x3d22ed3a	0.039777018
225	0x3d94ffae	0.072753295
226	0x3b9cfe47	0.0047910544
227	0x3b756fb7	0.003745062
228	0xbd904ba1	-0.07045675
229	0x3a9f545a	0.0012155876
230	0xbdd06d43	-0.1017709
231	0x3d407290	0.046984255
232	0xbdf31a62	-0.118702665
233	0x3adcbfd9	0.0016841843
234	0x3c39611c	0.011314657
235	0xbb551fb0	-0.0032520108
236	0x3d5d1200	0.053972244
237	0xbbdf5107	-0.006815079
238	0xbd09cc1e	-0.033641927
239	0x3daceb35	0.084433
240	0xbd7199cd	-0.058984566
241	0x3d6f8ca1	0.058483724
242	0x3d973b9e	0.07384418
243	0x3e0647ef	0.13113378
244	0x3bc55be4	0.006022917
245	0xbda1663e	-0.07880829
246	0xbc08c445	-0.008347576
247	0x3d38c823	0.04511274
248	0xbd0e5f59	-0.0347589
249	0x3c328bcb	0.010897587
250	0x3d2f2706	0.042761825
251	0xbd8e9ec5	-0.06963877
252	0x3c25c604	0.010118011
253	0x3c3cf8e2	0.011533948
254	0x3cc230d1	0.023704918
255	0xbd620425	-0.055179734

model.0.bias f4 [32]
0	0xb8d1dbd8	-0.00010006846
1	0x38538f32	5.043968e-05
2	0x38d35955	0.000100779034
3	0xb936249e	-0.00017370514
4	0xb95bba5e	-0.00020954895
5	0x394717e4	0.00018987019
6	0xb89e6b13	-7.553971e-05
7	0xb9692740	-0.00022235233
8	0x3906ef06	0.00012868279
9	0x39bad825	0.00035637725
10	0xb8082d9e	-3.246741e-05
11	0xb7672ced	-1.3779133e-05
12	0x371dc5cc	9.403982e-06
13	0xb8e4b419	-0.00010905433
14	0xb95e160a	-0.0002117978
15	0x37acffaa	2.062305e-05
16	0x38a9fcad	8.1056125e-05
17	0x370b2484	8.293548e-06
18	0x381ab31a	3.6883263e-05
19	0xb7bcca54	-2.2505563e-05
20	0xb778c5b0	-1.482798e-05
21	0xb7cb824c	-2.426016e-05
22	0x37b3c848	2.1431726e-05
23	0xb70c5448	-8.3642735e-06
24	0xb72ae144	-1.0185238e-05
25	0xb83df0f8	-4.528553e-05
26	0x39b077cd	0.00033658594
27	0xb85ce89f	-5.2668733e-05
28	0xb9244678	-0.0001566651
29	0xb8059436	-3.1847703e-05
30	0x3941e1f4	0.00018490088
31	0xb8038ecc	-3.1365824e-05

model.1.weight f4 [32]
0	0x3faa2d89	1.3295146
1	0x3f814051	1.0097753
2	0x3faf5945	1.3699118
3	0x3f7afe2f	0.98044103
4	0x3f83e381	1.0303804
5	0x3f970841	1.1799394
6	0x3f892533	1.0714477
7	0x3f9a0264	1.203198
8	0x3f6be5e3	0.92147654
9	0x3fa6b79d	1.3024784
10	0x3f1e1132	0.6174499
11	0x3f8cdde6	1.1005218
12	0x3f8d61e5	1.10455
13	0x3f9262cc	1.14364
14	0x3f9178ee	1.136503
15	0x3f8a5b17	1.0809048
16	0x3f8cf6a2	1.1012766
17	0x3ecb63c1	0.39724544
18	0x3f87d4cd	1.0611817
19	0x3f991891	1.1960622
20	0x3f7efb0e	0.9960183
21	0x3f7ef1eb	0.9958789
22	0x3f97c021	1.1855508
23	0x3f759638	0.9593234
24	0x3f87d0ff	1.0610656
25	0x3f9dc49c	1.2325625
26	0x3f7bf0c9	0.98414284
27	0x3f8f7095	1.1206232
28	0x3fa0bce1	1.2557641
29	0x3fb0acb3	1.3802704
30	0x3f99ac62	1.2005732
31	0x3faf51f1	1.3696882

model.1.bias f4 [32]
0	0xbdbbae61	-0.091641195
1	0xbe63f628	-0.2226187
2	0xbd8bedc4	-0.068324596
3	0xbe410b1d	-0.18851896
4	0xbe4dd156	-0.20099387
5	0xbe00edb7	-0.12590681
6	0xbe3061bb	-0.17224781
7	0xbe71e887	-0.23623858
8	0xbe3dede0	-0.18547773
9	0xbde24914	-0.11049095
10	0xbe344ad8	-0.17606676
11	0xbe1b1417	-0.15144382
12	0xbe6bb61b	-0.23018686
13	0xbe2e6386	-0.17030153
14	0xbe54e59e	-0.20790717
15	0xbe2e922c	-0.17047948
16	0xbe71a747	-0.23598967
17	0xbe15a23f	-0.14612673
18	0xbe4f938c	-0.20271128
19	0xbce75dfd	-0.02824306
20	0xbe4fb386	-0.20283327
21	0xbe8745b6	-0.26420373
22	0xbd9f87cd	-0.07789574
23	0xbe587579	-0.21138562
24	0xbe6689b2	-0.22513464
25	0xbd99f7cb	-0.07517966
26	0xbe066933	-0.13126068
27	0xbe5730e0	-0.21014738
28	0xbe403568	-0.18770373
29	0xbe06ef87	-0.1317731
30	0xbe07eb82	-0.13273433
31	0xbe01eb1f	-0.12687348

model.1.running_mean f4 [32]
0	0x3cc94478	0.024568781
1	0xbcce2744	-0.025165208
2	0x3c511b58	0.012762867
3	0x3afaf9f1	0.0019147975
4	0x3d6d5b05	0.05794813
5	0xbc2a19a3	-0.010382089
6	0x3d98cecd	0.07461319
7	0x3d8ef68c	0.06980619
8	0xbc336057	-0.010948262
9	0xbcde0fee	-0.027107205
10	0x3c38fed9	0.011291229
11	0xbc936816	-0.017993968
12	0xbcde6457	-0.027147455
13	0xbd060c54	-0.0327266
14	0xbd49ebb3	-0.049297046
15	0x3d0712cd	0.032976914
16	0x3b2eee71	0.0026692415
17	0xbc60ef8d	-0.013728988
18	0x3b243c5b	0.0025060389
19	0x3ce6affd	0.02816009
20	0xbcb0f757	-0.021602316
21	0x3d54349b	0.05180798
22	0xbd5cecf6	-0.05393692
23	0x3d144b4c	0.03620462
24	0xbc116801	-0.008874894
25	0x3d527597	0.051381674
26	0x3d27f19c	0.0410019
27	0xbd4f7527	-0.050648835
28	0xbc03579d	-0.008016494
29	0xbcbacfd0	-0.02280417
30	0x3c9e8c64	0.019354053
31	0xbd13d9d0	-0.036096394

model.1.running_var f4 [32]
0	0x3a508df8	0.00079557253
1	0x3a181279	0.00058010925
2	0x3a622465	0.0008626639
3	0x3a1d7991	0.00060071895
4	0x3a272a91	0.00063768873
5	0x3a175526	0.0005772881
6	0x3a056883	0.0005089121
7	0x3a18d1ce	0.0005829603
8	0x39f569ba	0.00046808814
9	0x3a37ce3f	0.0007011629
10	0x39bf904b	0.00036537866
11	0x3a09bac1	0.0005253964
12	0x3a0b3a04	0.0005311074
13	0x3a2197df	0.0006164293
14	0x3a1bd99b	0.00059452065
15	0x3a13fefd	0.0005645601
16	0x39ffd131	0.0004879325
17	0x3982dbfa	0.00024959428
18	0x3a312e11	0.00067588786
19	0x3a20f921	0.0006140639
20	0x3a0102cb	0.00049213757
21	0x39feeb4b	0.00048621962
22	0x3a5c6a82	0.0008408205
23	0x39f05f58	0.00045847404
24	0x3a122ec0	0.00055764243
25	0x3a2afe1b	0.000652285
26	0x3a14e58c	0.0005679957
27	0x3a0e4777	0.0005427519
28	0x3a2600f3	0.0006332539
29	0x3a3ecc83	0.00072783994
30	0x3a1c5621	0.0005963762
31	0x3a2ffebd	0.0006713679

model.4.weight f4 [2, 32]
0	0x3f70384c	0.938359
1	0xbf344cc4	-0.70429635
2	0x3f7810ef	0.9690084
3	0xbf2e6056	-0.68115747
4	0xbf3b271d	-0.7310656
5	0x3f58dfd5	0.8471654
6	0x3f3ff23d	0.74979
7	0x3f5ddb03	0.8666231
8	0xbf28c189	-0.6592031
9	0x3f69550d	0.911454
10	0xbed0cbed	-0.40780583
11	0xbf44f03b	-0.7692906
12	0xbf4d4479	-0.80182606
13	0x3f4c41ce	0.7978791
14	0xbf4fed0f	-0.812211
15	0xbf3f0659	-0.7461906
16	0xbf4cfae1	-0.8007031
17	0xbe788b35	-0.24271853
18	0xbf3fa9eb	-0.7486865
19	0x3f52d48d	0.82355577
20	0xbf3464ae	-0.70466125
21	0xbf39a5e7	-0.7251877
22	0x3f5219e0	0.8207073
23	0xbf309c06	-0.6898807
24	0xbf43af0e	-0.7643899
25	0x3f5e41ed	0.86819345
26	0xbf2be9df	-0.67153734
27	0x3f48680a	0.7828375
28	0x3f63e8dd	0.89027196
29	0x3f75e0ff	0.9604644
30	0x3f527ea0	0.82224464
31	0x3f75054e	0.9571122
32	0xbf6a66fe	-0.91563404
33	0x3f36ae76	0.71359956
34	0xbf767aa9	-0.96280915
35	0x3f32080a	0.69543517
36	0x3f37b20b	0.71756047
37	0xbf572aad	-0.84049493
38	0xbf42bedf	-0.76072496
39	0xbf5da1b6	-0.86574876
40	0x3f25abe2	0.647154
41	0xbf6d4f21	-0.92698866
42	0x3ed5b473	0.41739234
43	0x3f48487b	0.78235596
44	0x3f4b9089	0.7951742
45	0xbf5048fa	-0.81361353
46	0x3f4faa80	0.8111954
47	0x3f40c485	0.75299865
48	0x3f488f4d	0.7834366
49	0x3e736265	0.23768003
50	0x3f4308fa	0.7618557
51	0xbf5442c9	-0.82914406
52	0x3f3833b6	0.71953905
53	0x3f338f60	0.7014065
54	0xbf4f7648	-0.8103986
55	0x3f2e2f22	0.6804067
56	0x3f4332ac	0.76249194
57	0xbf5d00a1	-0.86329085
58	0x3f2e33ed	0.6804798
59	0xbf4add2e	-0.79243743
60	0xbf653a14	-0.89541745
61	0xbf76863b	-0.9629857
62	0xbf5d6159	-0.86476666
63	0xbf790a84	-0.9728167

model.4.bias f4 [2]
0	0x3bd5620a	0.0065119313
1	0xbd51ddaf	-0.051236805
